Assets/onnx/TTT_28/O_Behavior.onnx (onnx, 4530 bytes, 6 tensors)

network_body._body_endoder.seq_layers.0.weight f4 [16, 9]
000000 9d 4a cd be 70 08 73 be 40 58 4f bf 6d a5 85 3e
       -0.40095988 -0.23733687 -0.80994034 0.26102772
000010 5f dd 55 bf 4e 6c b7 3f 2c 97 ac bf ad 97 54 3f
       -0.8354091 1.4329927 -1.3483634 0.8304394
000020 58 dc 96 3f 2e 65 f8 bc 7a 2c 8b 3f 36 ce de 3f
       1.1785994 -0.030321684 1.0872948 1.740668
000030 d3 7b a9 bf 94 b5 e7 bd 9d 47 b1 bd 24 44 33 bf
       -1.3240913 -0.1131393 -0.08656237 -0.7002585
000040 8c c0 dc 3e ea 10 83 bf 95 25 92 be f2 c9 8e 3e
       0.43115652 -1.0239537 -0.28544298 0.27888447
000050 7d b8 85 3f 97 26 bf be 20 bf 80 3f 06 5b c7 bf
       1.0446926 -0.3733413 1.0058327 -1.5574653
000060 01 1d 54 3e 03 39 a7 bf c0 86 d4 3e b0 42 f0 bd
       0.20714189 -1.3064274 0.41509056 -0.1173147
000070 59 a2 63 bf 7c 1f f4 3e 69 30 6e bf d7 f2 a8 bf
       -0.889196 0.4768027 -0.9304262 -1.3199109
000080 5e a3 14 3f 7b 55 94 3e 14 98 bb bd 9f 07 8f 3f
       0.5806178 0.28971466 -0.09159866 1.1174201
000090 1b b6 b6 3f 46 6d e4 be 0d 6a 51 bf 43 e9 86 3f
       1.4274324 -0.4461462 -0.81802446 1.0539936
0000a0 da 1c 22 bf fc bd 58 be 97 06 7c 3f 1b 37 06 bf
       -0.63325274 -0.21166223 0.98447555 -0.52427834
0000b0 46 36 36 be 7e a8 54 3f ad d6 2d be 32 62 4e bf
       -0.17794141 0.830696 -0.16976424 -0.80618584
0000c0 5c c4 bf 3e 72 df 2d bf 68 ac 2f bd 65 4a d1 3e
       0.37454498 -0.67919075 -0.04288903 0.4087707
0000d0 d8 57 3e bf d1 58 28 bf 0d 0a 8c bd 33 77 c1 3d
       -0.7435279 -0.65760523 -0.068378545 0.094465636
0000e0 70 56 98 bf 61 7f 9e 3e 28 ca 11 bf 76 ff 47 3f
       -1.1901379 0.30956557 -0.5694909 0.7812418
0000f0 b1 59 81 3f d5 b7 a2 3e 4f fe cb bc df eb aa be
       1.0105497 0.31780878 -0.024901537 -0.3338308
000100 7f 37 f4 3f 3b f1 fa bc af bb 64 bf b8 2b 94 3f
       1.9079436 -0.030632606 -0.8934888 1.1575842
000110 f0 78 e2 be dc 8f 6c 3e 61 56 82 3e 74 d6 32 3e
       -0.44232893 0.23101753 0.25456527 0.1746462
000120 e0 1f 3a 3f 75 50 37 bf 34 6a 14 bf bf ea 2a 3f
       0.7270489 -0.7160714 -0.57974553 0.66764444
000130 8d 01 59 3f 78 17 1d 3f 81 14 cc be 57 8b b0 3d
       0.8476799 0.61363935 -0.39859393 0.08620327
000140 d8 03 2f bf 97 95 30 bf 29 eb c5 3e 35 01 97 be
       -0.6836524 -0.68978256 0.38655975 -0.29493108
000150 34 82 ee bc 79 9e 89 3f a2 3f 04 3f eb 5d 98 bf
       -0.02911482 1.0751487 0.51659596 -1.1903661
000160 b7 32 4f 3f bb 29 a1 be 02 04 c4 3f 1d 4e f4 3e
       0.8093676 -0.3147715 1.5313723 0.47715846
000170 8e 4e 19 be 57 42 6a be 24 2d d3 be 90 94 33 bf
       -0.14971372 -0.22876869 -0.41245377 -0.70148563
000180 f2 6b 9e bd 81 4b 6b 3f bf a9 1f bf 75 02 08 3f
       -0.07735433 0.91912085 -0.62368387 0.5312875
000190 89 16 fb be 1f fc 1c bf 1a 18 03 3f 87 cf d4 be
       -0.4904063 -0.61322206 0.5120865 -0.4156458
0001a0 33 50 b7 bd f3 a4 88 3f 02 35 c0 be 22 e0 92 be
       -0.08950844 1.0675339 -0.37540442 -0.28686625
0001b0 d5 15 82 bf 37 49 8f bf 47 f8 8a bf dd 54 bb 3f
       -1.0162913 -1.1194218 -1.0857018 1.4635273
0001c0 cb 3f a8 be af 29 5d 3f 78 39 62 3f 6d 7c 96 be
       -0.3286117 0.8639173 0.8836894 -0.29391804
0001d0 17 76 b1 3e 16 fa 20 bf dc 6f 60 bf 7e 6e c1 3e
       0.34660408 -0.628816 -0.87670684 0.3777961
0001e0 76 39 2b 3f fb 3c 2a 3e 0e 2e c3 3e ac 30 41 be
       0.66884553 0.16624825 0.38121074 -0.18866223
0001f0 c2 0d a6 be 70 33 e7 3e f1 48 36 3f 34 7a 8c be
       -0.3243237 0.4515643 0.7120505 -0.27436984
000200 2e d3 ab 3e 88 93 5e 3f ff 10 b0 bf e1 c0 05 bf
       0.33559555 0.86943865 -1.3755187 -0.52247435
000210 60 3c 23 3f ae 4c c4 bd 63 64 d0 be 5a ac 90 be
       0.63764 -0.09584938 -0.4070159 -0.28256494
000220 51 2a ac be e9 0f 7e 3f 68 ff 20 3f be 5b 49 bf
       -0.33626035 0.99243027 0.6288972 -0.7865561
000230 99 ed e8 be 6f 1b e6 3e 3e e2 df be 58 f9 a6 3d
       -0.45493773 0.44942805 -0.43727297 0.08153027

network_body._body_endoder.seq_layers.0.bias f4 [16]
000000 de b9 90 3e 5d 42 5b bc 64 fb c1 be 3f b8 50 be
       0.28266805 -0.013382521 -0.37887108 -0.20382784
000010 96 f7 3c bd bc 6c 48 bf 78 1f 5a bf bb 8c 48 3d
       -0.046134554 -0.78290915 -0.8520427 0.048962336
000020 65 f4 0c bf da 33 bb be 23 7e 6d be e2 72 7d bf
       -0.55060416 -0.36562997 -0.23192649 -0.9900342
000030 39 5a 1f bd 44 ef f1 3e e9 74 8c be 99 47 46 3e
       -0.038904402 0.47252858 -0.27432945 0.1936325

network_body._body_endoder.seq_layers.2.weight f4 [16, 16]
000000 7b a1 3a bf 69 88 a9 bf 4e 19 14 3f b0 c9 59 bf
       -0.7290265 -1.3244754 0.5785111 -0.85073376
000010 e3 93 31 3f cc 8c cc 3e 05 d7 81 be fe 80 1f bf
       0.6936628 0.3995117 -0.2535936 -0.623062
000020 65 9c ad 3e 58 8e 8d bf 09 5b 69 3f 65 49 1a be
       0.33908382 -1.1059065 0.91154534 -0.1506706
000030 10 ad af bf 3f 34 5c bf e4 ad 11 3f 6c 79 44 be
       -1.372469 -0.8601722 0.5690596 -0.19186944
000040 b1 c0 e4 3c 3b 79 26 bf 64 f4 1e 3e 32 6f 56 3d
       0.027923914 -0.65028733 0.15522915 0.052352138
000050 94 56 82 be 41 88 2c 3f cc a2 c6 3e ef a7 16 bf
       -0.2545668 0.67395407 0.3879608 -0.58849996
000060 fd 21 cf be 15 8e b4 be b2 62 f6 3d 86 11 fd 3e
       -0.40455619 -0.3526465 0.120305434 0.49427432
000070 fe 73 8b be d3 a4 70 be e4 50 d2 3d 98 63 5a bf
       -0.27236933 -0.23500375 0.10269335 -0.8530822
000080 c5 62 a4 bf 38 94 92 bd be 04 00 3f 9f 6b 32 bf
       -1.2842642 -0.07157177 0.50007236 -0.69695467
000090 50 32 a7 be 55 64 28 be 3e 96 5f 3e 73 5d 9d bf
       -0.32655573 -0.16444524 0.21834657 -1.2294143
0000a0 d8 e5 25 3f 39 b0 74 bd 4a 9f 95 3d 01 ba 29 bf
       0.6480384 -0.05973837 0.073057726 -0.66299444
0000b0 4b 46 16 bf 0d 51 c1 be 2c 6f c9 bd f2 e6 4a be
       -0.5870101 -0.3775715 -0.098356575 -0.19814661
0000c0 2a 07 0c bf a2 1c 90 be 1c c0 59 3e d1 c7 92 be
       -0.5469843 -0.28146845 0.2126469 -0.28668073
0000d0 78 17 a4 bd cb e7 bf be 60 7f 31 3e 02 23 1f bf
       -0.08012289 -0.37481532 0.17333746 -0.6216279
0000e0 a2 33 c6 bd 7b 39 d1 bd b3 ef 40 be b5 a5 7e 3d
       -0.09677817 -0.10216042 -0.18841438 0.06216975
0000f0 a1 2f 1f bf 93 70 a9 bf b0 62 c4 3d 95 0b 1b be
       -0.6218205 -1.323748 0.09589136 -0.15141137
000100 25 46 82 bf 39 e3 57 be 90 9d b2 3e 6b 24 a2 bb
       -1.0177656 -0.21082772 0.34885836 -0.004948189
000110 67 4c 43 3f 6e ea 27 3f 60 db ef 3e b7 90 6d bf
       0.76288456 0.65592086 0.46847057 -0.9279894
000120 8e db 26 3e cf bb 18 bf fd ac 65 bd eb 41 48 3f
       0.16294691 -0.59661573 -0.056073178 0.7822558
000130 05 7f 85 3e c9 a5 0a 3e 64 58 ba 3e 4f c3 11 be
       0.2607347 0.13539805 0.36395562 -0.1423466
000140 fa 21 dd bf ba 8c f8 be de b2 7f 3f 7c dd 90 3e
       -1.7275994 -0.48544866 0.99882305 0.2829398
000150 0b 22 58 bf 73 13 bf bf 22 cc d2 be 91 3e ff 3e
       -0.84426945 -1.492781 -0.41171366 0.49852422
000160 6e c5 42 be 0b 59 19 bf 19 dc 0d c0 39 aa 3b bf
       -0.19020626 -0.59901494 -2.2165587 -0.73306614
000170 09 88 1e be 0c a0 00 3f f5 c5 62 bf 5b b7 25 3f
       -0.15481581 0.5024421 -0.8858331 0.64732903
000180 bb 43 22 bf 6d 00 31 bd e4 fa 16 be d8 44 21 be
       -0.633846 -0.043213297 -0.14744145 -0.15748918
000190 46 38 cf bf 5b e6 05 3d e6 c2 36 3e 3a 69 2f 3f
       -1.6189048 0.032690387 0.17847785 0.6851994
0001a0 08 5f 2a bf fa 2f ce 3e b9 88 53 3f bf da 01 3e
       -0.66551256 0.40270978 0.826305 0.12681101
0001b0 5e a2 00 3f ae 3e a8 bf 51 cd 93 be 5b c5 09 bf
       0.5024775 -1.3144128 -0.2886758 -0.53816766
0001c0 66 bb d0 3e 9a 7f 12 3e 44 86 9e 3f 0f 18 81 3f
       0.40767974 0.14306489 1.2384725 1.0085467
0001d0 c5 fc 07 3e e6 37 8f 3e 29 a6 ef 3e af da 26 be
       0.13280018 0.27972335 0.46806458 -0.16294359
0001e0 87 2b 9f bf d2 d9 7f bf f7 88 c1 be 9e 1a 79 3e
       -1.2435158 -0.9994174 -0.37799808 0.2432656
0001f0 4e 50 30 be 72 ec b9 3e c5 e3 5d bd 26 63 4a 3f
       -0.17218134 0.36313206 -0.054172296 0.7905754
000200 13 f7 9b bf 7f e7 f9 3e 66 82 84 3e 23 26 7e be
       -1.2184776 0.4880943 0.25880736 -0.24819236
000210 e2 56 d5 3d c3 cd a0 3e 93 c8 85 ba 54 73 6f bf
       0.10416962 0.31406984 -0.001020687 -0.9353535
000220 81 42 15 3e 58 ed ed be 5c 98 30 3e 3b 32 05 3f
       0.1457615 -0.4647014 0.1724562 0.5202977
000230 eb 5d 87 be a4 09 29 bf a1 2b 33 3e ae 4a 5b be
       -0.2643884 -0.66030335 0.17497112 -0.21415207
000240 06 b0 46 3f 22 5b 92 bf f5 0f a1 bf 60 fd 13 3e
       0.7761234 -1.1434062 -1.2582995 0.14452124
000250 51 f0 c3 be b0 17 61 be 6a 56 1e bf 1a b5 14 bf
       -0.38269284 -0.21981692 -0.6185061 -0.5808884
000260 a5 40 85 3e c5 a7 4c 3e be 11 96 3d d3 38 0f bf
       0.26025882 0.19985874 0.07327603 -0.5594608
000270 81 d7 d2 3e 0a 14 03 3f 8d ea 26 bf 6f ca 39 be
       0.4118004 0.5120245 -0.65201646 -0.18143629
000280 a3 ee b1 bf 23 0d 85 be 01 96 d9 be 9a 1f 85 be
       -1.3900951 -0.25986585 -0.42497256 -0.26000673
000290 29 ed d1 3e e7 71 42 bf 80 4c 27 3f 7e 54 06 bf
       0.4100125 -0.7595505 0.65351105 -0.52472675
0002a0 65 0b 18 bf 5b 0e 4c bf a8 c7 a2 3e ad d9 31 be
       -0.59392387 -0.79709405 0.3179295 -0.17368193
0002b0 a7 4e c8 3f 1f d2 21 3f 2e 3b 0e 3f 3f 7e 0d 3f
       1.5649003 0.63211244 0.5555905 0.5527076
0002c0 45 3b a2 be 4f a9 a1 3f 31 bd f7 be 0e ef 02 be
       -0.31685844 1.2629794 -0.4838653 -0.12786505
0002d0 b3 e6 18 bf 53 b5 06 bf f1 b7 07 3f 36 72 01 3f
       -0.5972702 -0.5262043 0.5301505 0.505649
0002e0 e3 73 8c bf 4a ea 08 3f d0 c5 24 3f ec d1 4c be
       -1.0972866 0.53482497 0.6436434 -0.20001954
0002f0 8b 59 da bd 2f f8 be be af 93 a1 be dc 9a 4c 3e
       -0.1066161 -0.37298724 -0.31557986 0.19980949
000300 59 a4 6d bf 7c e4 66 3f 44 f1 46 3f 57 21 8b bf
       -0.928289 0.9019239 0.7771189 -1.086955
000310 0a 40 26 bf 73 79 2d be 86 2c 44 bf 1d 02 61 3f
       -0.64941466 -0.1694086 -0.7663044 0.8789385
000320 6b 70 39 bd be b0 02 3e 6e 58 73 bd ad c2 e5 be
       -0.045273226 0.12762734 -0.059410505 -0.44875088
000330 b0 59 4d bf a2 82 25 be 16 e6 5b bf 73 e1 86 3e
       -0.8021498 -0.16163114 -0.8589796 0.2634388
000340 42 fb a7 bf ac 29 3a bf 41 60 91 bf 8a bf 8a be
       -1.3123553 -0.72719836 -1.1357499 -0.27099258
000350 a3 90 92 3f e2 5c 00 3f 1f e3 80 3c e7 82 31 bf
       1.145039 0.5014173 0.0157333 -0.69340366
000360 bf 10 6b 3f 0a 94 76 bf a6 f7 17 3f 21 fb 22 3f
       0.9182243 -0.9631964 0.59362257 0.6366444
000370 32 8f 2c 3e a3 94 35 bf 30 99 5a 3f bb f5 f0 3e
       0.168515 -0.70929927 0.85389996 0.47062477
000380 7f 2c 63 3e 41 1a fe be 14 df ee be e5 1f 44 bf
       0.22184943 -0.49629405 -0.4665457 -0.7661117
000390 30 67 40 bf cc 23 6b bf 7e 83 70 bf bd 8e 58 3e
       -0.7515745 -0.91851497 -0.9395064 0.211482
0003a0 8c e1 2a 3f b2 ce b7 3f 03 a8 9c bf 49 48 47 bf
       0.6675041 1.4359953 -1.2238773 -0.77844673
0003b0 34 4e 56 bf 63 43 f1 3e 80 97 10 3e 30 39 15 bf
       -0.8371308 0.47121724 0.14120293 -0.58290386
0003c0 16 36 9c 3e 70 65 2d bf ff bc ba 3d 3d bb 4a 3e
       0.30510014 -0.67732906 0.091180794 0.19797988
0003d0 e5 64 63 bc 33 cf 4e 3e 4d 13 70 be 5b df 9b bf
       -0.013879036 0.20196228 -0.23444863 -1.2177538
0003e0 8b 07 b6 3e 0c 0e 96 be 44 12 5a bf f9 b4 3b 3f
       0.3555263 -0.29307592 -0.8518412 0.7332302
0003f0 f2 d8 69 3d 55 0a db 3d 45 a1 5f be 75 26 3c be
       0.05709166 0.1069533 -0.21838863 -0.18374045

network_body._body_endoder.seq_layers.2.bias f4 [16]
000000 a1 e7 3c bf ed e3 12 bf 93 14 15 bf ec 8b 6a bf
       -0.7379094 -0.5737904 -0.5823452 -0.91619754
000010 b3 52 1e bf b0 8c ec bd a7 f7 d0 be 7c b0 88 3d
       -0.6184494 -0.115502715 -0.40813944 0.06674287
000020 e2 3e ff be 42 f0 05 3e d3 7f c0 3e f9 f4 18 bf
       -0.49852663 0.13079932 0.37597522 -0.597488
000030 23 c0 9d be f4 c8 8e 3d fa 2f 26 be d4 a0 52 bf
       -0.3081065 0.069719225 -0.16229239 -0.82276654

action_model._discrete_distribution.branches.0.weight f4 [10, 16]
000000 e7 73 d4 3c 6f 6b ec 3b 17 1a 4f 3d 12 9f 34 bd
       0.025934173 0.0072149555 0.05056199 -0.044097014
000010 bf 25 de bb 53 6e 15 3d 13 b8 de bc fb 49 36 bd
       -0.006779402 0.036482166 -0.027187383 -0.044504147
000020 af 5c 42 bc 63 d7 7e bd f8 8a 87 3c b5 43 fa 3c
       -0.011862918 -0.062217128 0.016545758 0.030549863
000030 bf 38 33 bc ca c0 89 3c 7d 1d 17 bd 62 92 b4 bb
       -0.010938822 0.016815562 -0.036893357 -0.0055106143
000040 40 e3 39 3f a2 ca c7 3e 83 85 39 3e 58 79 a5 3e
       0.7261238 0.39021784 0.18117337 0.3231914
000050 05 28 fc 3e 4c a4 42 3d 12 0b a5 be b3 5c 8e 3d
       0.49249282 0.047519967 -0.32235008 0.06951275
000060 23 48 88 3e 06 8a 3b bf 81 f8 63 3f ef f0 66 3f
       0.26617536 -0.7325748 0.8905106 0.90211385
000070 1e 6c 9b bd fc a6 32 3f e5 f4 38 3e cb 38 02 3f
       -0.07588981 0.6978605 0.1806217 0.5086791
000080 b5 09 8c 3e 89 95 e7 be ba e1 08 3f 84 b7 01 3f
       0.27351156 -0.45231274 0.5346943 0.5067065
000090 4d 92 d7 be da 1e d2 be 4b 0d 51 3f 8c 5a 4b bf
       -0.42103806 -0.41039163 0.8166091 -0.7943504
0000a0 09 2b ae 3e 80 32 9c 3c 52 4c 08 3e 2c d7 4c 3f
       0.34017208 0.019067049 0.13310364 0.80015826
0000b0 ac 31 7b 3c e7 d6 65 bd 66 16 58 bd 97 c5 34 3e
       0.015331667 -0.05611315 -0.052755736 0.176535
0000c0 ec 61 c0 3e dc e8 80 3e 4d b9 98 be 3e fc 22 bd
       0.37574708 0.25177658 -0.29828873 -0.03979134
0000d0 0c b4 37 bd f1 8c d1 3e b6 43 0a be a0 15 3b 3f
       -0.04484944 0.40927842 -0.13502392 0.7307987
0000e0 70 c8 c0 3d 78 83 90 3e 33 73 a1 bb 4d ec 49 bf
       0.094132304 0.28225303 -0.004927063 -0.7887619
0000f0 bd 41 fe bd 37 51 84 be 5b b3 a7 bf 5e 8a cd 3e
       -0.12414882 -0.25843212 -1.310161 0.40144628
000100 a6 72 84 be ae 30 a5 3d a8 58 2e be 92 1c b2 3e
       -0.2586872 0.080659255 -0.17026007 0.34787422
000110 eb 4e d8 3e eb 07 48 bf 60 66 04 bf 85 cc 54 bf
       0.4224771 -0.7813708 -0.5171871 -0.8312457
000120 cd 39 04 3f 81 1e 3a 3e 01 80 f0 be 1f 6e ff bd
       0.51650697 0.18175699 -0.4697266 -0.12472176
000130 be ce b2 be a1 e2 2a 3f ee d9 95 3f 33 65 9b 3e
       -0.34923357 0.6675206 1.1707132 0.30350646
000140 b0 12 dd bf 2a d3 86 be 40 31 7f bf db 77 6d bf
       -1.7271328 -0.2633298 -0.99684525 -0.9276101
000150 bc ed d4 be ba f2 90 3e f4 3d fc 3d 7f 0a 59 bd
       -0.41587627 0.28310186 0.12316504 -0.052988525
000160 db c9 3c bf 61 be 49 3f 39 f7 69 3f 61 4c 7c bf
       -0.73745507 0.7880612 0.91392857 -0.98554045
000170 b8 c4 35 bf 76 70 80 be f0 3d aa 3d 16 f4 91 be
       -0.71003294 -0.250858 0.08312595 -0.28506535
000180 25 35 44 3c 1e 16 f2 3e 87 87 d9 3e f6 71 0e 3f
       0.011975561 0.472825 0.42486212 0.5564264
000190 ad 03 7b be 26 a5 65 bf 85 f4 47 be 12 e5 ec 3e
       -0.24513121 -0.8970512 -0.1952687 0.46268517
0001a0 b9 f3 b4 bd 7c 06 34 3f 8e bc 93 be 46 3b 4f 3e
       -0.08835549 0.70322394 -0.28854793 0.20237455
0001b0 f1 4a f0 be 30 82 1c bf 19 f9 d0 3e 62 90 20 3f
       -0.46932176 -0.6113615 0.40815046 0.6272031
0001c0 e6 5e 7d 3e a0 96 9e be 20 2b 07 bf 49 de 5c bf
       0.24743232 -0.30974293 -0.5280018 -0.8627668
0001d0 1c 1e 84 3e 32 00 8f 3f 9d d0 b4 bd af a7 87 3e
       0.25804222 1.1171935 -0.08828852 0.2649512
0001e0 40 a5 80 be 89 be 79 be 71 0a 92 3e 3a 8b df bd
       -0.25126076 -0.2438909 0.2852359 -0.10915227
0001f0 d4 46 8b 3f 71 97 62 3f 8f ad 54 3f 82 13 52 bf
       1.088099 0.8851233 0.8307733 -0.82061017
000200 e5 09 0f be 75 50 c1 3e b1 4e b2 3e 78 90 1b 3f
       -0.13968618 0.37756696 0.34825662 0.60767317
000210 d1 fc ec 3d c2 15 65 3e 7a c3 6b 3f 8d f5 1c bf
       0.115716584 0.22371581 0.9209515 -0.6131218
000220 f2 e7 db 3d ce ce df be 7e 1d 4f bf b3 99 c6 3e
       0.107375994 -0.43712467 -0.80904377 0.38789138
000230 08 6d 43 3f f6 95 47 bf 46 0f 93 3e 69 5b 83 3e
       0.76338243 -0.779632 0.2872259 0.25655678
000240 86 50 c8 3e 5b 74 e0 be 9f 8a 20 3f e4 ef be be
       0.39123935 -0.43838772 0.6271152 -0.37292397
000250 02 35 db 3c c8 92 14 be 58 f5 83 be 0b 13 25 3f
       0.026758675 -0.14509118 -0.2577312 0.6448218
000260 80 8d c0 3d f1 76 ca be df 50 10 bf d8 f4 81 be
       0.09401989 -0.3954387 -0.563734 -0.25382113
000270 c5 1e 5f 3e 39 dd 83 3e 3f f7 32 bf 42 a7 57 bf
       0.21789081 0.25754717 -0.6990852 -0.8423959

action_model._discrete_distribution.branches.0.bias f4 [10]
000000 00 00 00 00 cc 1f b3 be c1 b2 d9 be ec 48 ac bd
       0.0 -0.34985197 -0.4251919 -0.08412346
000010 8d cf 6c be ba 7a af 3f 14 14 55 be b1 95 cf 3e
       -0.2312605 1.3709328 -0.2080844 0.40543893
000020 a6 dd 46 bf 88 1b 75 3d
       -0.7768196 0.05984071
