Assets/onnx/TTT_28/X_Behavior.onnx (onnx, 5958 bytes, 8 tensors)

network_body._body_endoder.seq_layers.0.weight f4 [16, 9]
0	0xba08a90b	-0.00052131776
1	0x3ef1ccf6	0.47226685
2	0x3f3c862f	0.7364225
3	0x3e55ce1b	0.20879404
4	0x3f2b4deb	0.6691577
5	0xbf54fb5b	-0.8319604
6	0x3f1a2341	0.60210043
7	0xbe450080	-0.19238472
8	0xbf35f7de	-0.7108134
9	0xbfb94b09	-1.4476024
10	0xbeabcd47	-0.33555052
11	0x3e2677fb	0.16256706
12	0xbf95fffe	-1.1718748
13	0x3f375d23	0.7162649
14	0x3c900bb3	0.017583704
15	0xbea0a279	-0.31373957
16	0x3ecbe2a6	0.39821357
17	0x3f1543b0	0.5830641
18	0x3f132871	0.57483584
19	0xbe98bbb7	-0.29830715
20	0x3f8e045f	1.1095084
21	0x3e68f16c	0.22748345
22	0xbeb82014	-0.35961974
23	0x3dc56fe4	0.09640482
24	0xbf136273	-0.57572097
25	0xbe8e9a3c	-0.27852046
26	0xbf2e1130	-0.67994976
27	0x3f0c6974	0.5484841
28	0xbe9a1217	-0.30091926
29	0x3f3a1c87	0.7269978
30	0x3ce24ebf	0.02762544
31	0x3eb1f8c0	0.34760094
32	0x3f10b839	0.565311
33	0x3d05997a	0.03261707
34	0xbf2ac46e	-0.6670598
35	0xbe8ca098	-0.27466273
36	0x3db9b2a2	0.09067275
37	0x3ec26ca0	0.379735
38	0x3f0a650f	0.54060453
39	0xbefa541a	-0.4889229
40	0xbf0c3fcd	-0.5478485
41	0xbf8d1593	-1.1022209
42	0x3f6ee7d4	0.9332249
43	0x3e72c38a	0.23707405
44	0xbede69c0	-0.43440056
45	0x3f800b28	1.0003405
46	0x3cd0054d	0.025393153
47	0x3eb2f87e	0.3495521
48	0xbe87985f	-0.26483437
49	0x3f01268c	0.5044944
50	0xbf18de9c	-0.59714675
51	0xbebf0b6e	-0.37313408
52	0xbf06608e	-0.5249108
53	0xbccc1939	-0.02491437
54	0x3f79a13b	0.97511643
55	0x3ddd2448	0.10797936
56	0x3e5a68fe	0.21329114
57	0xbf06452f	-0.52449316
58	0x3f4b1ac9	0.79337746
59	0x3ecd6f28	0.40123868
60	0xbe804f1f	-0.25060365
61	0x3c62d0fd	0.013843772
62	0x3f840109	1.0312816
63	0x3ebd2b61	0.36947158
64	0x3e1280fa	0.14307013
65	0xbf1a10eb	-0.60182065
66	0x3ed0eed5	0.40807214
67	0xbeb83914	-0.35981047
68	0x3d9e5dee	0.077327594
69	0x3f314a83	0.6925432
70	0x3ea885ee	0.3291468
71	0x3eb4a365	0.3528091
72	0x3f8afbfd	1.0858151
73	0xbf16a6a7	-0.5884804
74	0x3ea43c9b	0.32077488
75	0x3f80ead0	1.0071659
76	0xbf27f8a4	-0.6561377
77	0xbd9a4102	-0.075319305
78	0x3f3d103a	0.73852885
79	0xbf56d08b	-0.8391196
80	0xbe81b034	-0.25329745
81	0xbf425e8c	-0.7592552
82	0x3e68e8f0	0.22745109
83	0xbd9a6f26	-0.07540731
84	0xbf4f6e3e	-0.8102759
85	0xbedea36f	-0.43484065
86	0x3ee27209	0.44227627
87	0xbf50d45b	-0.8157403
88	0x3f218981	0.6310044
89	0x3f53bbe6	0.82708585
90	0x3f69e8f7	0.913711
91	0xbf2c67f6	-0.6734613
92	0xbf288f67	-0.65843815
93	0x3f47e8a7	0.78089374
94	0xbf57c21e	-0.84280574
95	0x3d137516	0.036000334
96	0x3eb80c98	0.35947108
97	0xbf07da18	-0.5306716
98	0xbeac6ba2	-0.33675867
99	0xbeca20fa	-0.39478284
100	0x3f566bb7	0.8375811
101	0x3f397b39	0.7245365
102	0xbe57f8db	-0.21091025
103	0x3ece936b	0.40346846
104	0x3f30c35b	0.6904809
105	0xbf17691d	-0.59144765
106	0xbee888e7	-0.45416948
107	0xbecd4364	-0.40090477
108	0x3eabee14	0.33580077
109	0xbe0c4048	-0.13696396
110	0xbc814478	-0.015779719
111	0xbd1f5347	-0.03889778
112	0xbf76fea6	-0.9648231
113	0x3dfbdca6	0.12297945
114	0xbec94498	-0.39310145
115	0xbe9dbb4b	-0.30806956
116	0x3eb0eae1	0.34554198
117	0xbbb1164e	-0.0054042703
118	0x3f1c8c17	0.6115126
119	0x3edae2a6	0.42751044
120	0xbf0e5455	-0.5559743
121	0xbf8b9222	-1.0903971
122	0xbf4e9d7f	-0.8070907
123	0xbeeb36da	-0.45940286
124	0x3dd7fc8a	0.10546215
125	0x3e71d331	0.2361572
126	0x3f334110	0.7002115
127	0xbddf54ca	-0.10904844
128	0xbe0bec30	-0.13664317
129	0x3f5e47a8	0.8682809
130	0xbe27f5a2	-0.16402295
131	0x3f6ba011	0.92041117
132	0xbf042909	-0.51625115
133	0xbe42309d	-0.18963857
134	0xbef0e2ad	-0.4704794
135	0xbf0a833f	-0.54106516
136	0xbf3b9f61	-0.7329007
137	0xbf5672d6	-0.83768976
138	0x3f8069af	1.0032252
139	0x3e30c1ab	0.17261378
140	0x3ec7547d	0.38931647
141	0x3ef324c3	0.47488984
142	0x3f05d9a8	0.5228524
143	0x3eddaa21	0.4329386

network_body._body_endoder.seq_layers.0.bias f4 [16]
0	0x3eca03de	0.39456075
1	0x3de4cb06	0.11171536
2	0xbec4764f	-0.38371512
3	0xbe6eb66e	-0.23311779
4	0xbc2fc34e	-0.010727717
5	0xbf01b52a	-0.5066706
6	0xbee0b040	-0.43884468
7	0x3d699c9f	0.05703413
8	0xbe8d334b	-0.27578196
9	0xbe8c5b01	-0.2741318
10	0xbe4208ba	-0.18948641
11	0xbe1efaa2	-0.15525296
12	0xbefd140f	-0.49429366
13	0xbefd6901	-0.49494174
14	0xbd9df178	-0.07712072
15	0xbcfbc81a	-0.030735064

network_body._body_endoder.seq_layers.2.weight f4 [16, 16]
0	0xbec034a5	-0.37540165
1	0x3f36e07a	0.71436274
2	0xbcfa6383	-0.030565029
3	0x3ddc1a58	0.10747212
4	0xbe8ec115	-0.27881685
5	0xbf0a5936	-0.54042375
6	0x3ed77723	0.42083082
7	0xbd1c9765	-0.03823032
8	0x3e9268d2	0.28595597
9	0x3ead2167	0.33814546
10	0x3f272139	0.6528507
11	0x3e3f0e6d	0.18657847
12	0xbc34c0de	-0.011032311
13	0x3e758815	0.23977692
14	0xbecefba5	-0.40426365
15	0x3eae5b3d	0.34053984
16	0xbee86078	-0.453861
17	0x3c997d50	0.018736511
18	0x3ecbb75f	0.3978834
19	0xbe721c75	-0.23643668
20	0xbf78ff28	-0.9726434
21	0x3e4c327a	0.1994113
22	0xbe9965bc	-0.2996043
23	0x3eadfe72	0.3398319
24	0xbea5ad6a	-0.32358867
25	0xbe887212	-0.2664953
26	0xbe0cf6a0	-0.13765955
27	0xbf1cc965	-0.61244804
28	0x3d80e606	0.062938735
29	0x3e727d2b	0.2368056
30	0xbd87508a	-0.066071585
31	0x3f8b1fb2	1.0869048
32	0xbf69b0ac	-0.91285205
33	0xbe1bf169	-0.1522881
34	0x3ebe411b	0.37159047
35	0xbdb5e7d7	-0.088821106
36	0x3ea01b5f	0.31270882
37	0x3e9c0df6	0.304794
38	0xbe9b10b3	-0.30286178
39	0xbdb4e4ae	-0.0883268
40	0x3e0105d2	0.12599877
41	0x3e3d2a3f	0.18473147
42	0xbe158d71	-0.14604737
43	0x3c507fea	0.01272581
44	0x3ebd91f4	0.37025416
45	0x3e0b4967	0.1360222
46	0x3ca43c53	0.020048296
47	0xbefbb2cd	-0.49159852
48	0xbf84bd0a	-1.037019
49	0xbd337c20	-0.043819547
50	0x3d86ed7a	0.06588264
51	0xbf3592e4	-0.7092726
52	0x3f5027d9	0.813108
53	0xbd21954b	-0.039449017
54	0x3e23eceb	0.16008346
55	0xbee445c3	-0.44584474
56	0xbf00b0a7	-0.5026955
57	0x3e883151	0.26600125
58	0xbe3db06c	-0.18524331
59	0x3ddd1981	0.1079588
60	0xbe1d7c5c	-0.1537947
61	0x3f6f53ea	0.9348742
62	0xbe3e7a55	-0.18601353
63	0xbed5fd48	-0.417948
64	0x3e87fe36	0.26561135
65	0xbf91a4c7	-1.1378411
66	0xbef73477	-0.48282215
67	0xbedadb48	-0.42745423
68	0xbd761e26	-0.060087346
69	0x3e4c3630	0.19942546
70	0x3e876c08	0.2644961
71	0x3e851fec	0.26000917
72	0xbe88dbbb	-0.2673014
73	0x3ea67737	0.3251283
74	0xbeaa4187	-0.33253118
75	0xbe89c184	-0.26905453
76	0xbe2c377c	-0.1681804
77	0xbc3849a3	-0.011248025
78	0xbe45bdf6	-0.19310746
79	0x3e037152	0.12836197
80	0xbeeea09b	-0.46606907
81	0xbc605728	-0.013692655
82	0x3ed28055	0.41113535
83	0xbaf7b544	-0.0018898626
84	0xbe77dcf9	-0.24205388
85	0x3ddb4d94	0.10708156
86	0xbe8e4c4d	-0.27792588
87	0x3eedb220	0.4642496
88	0xbe8a987d	-0.27069464
89	0x3e306973	0.17227726
90	0xbe541194	-0.2070983
91	0xbf019d08	-0.50630236
92	0x3f124328	0.5713372
93	0x3f7329ee	0.94985855
94	0x3da9e361	0.08295322
95	0x3f436e3b	0.76340073
96	0x3f24b7b6	0.6434282
97	0xbf0a5f7b	-0.5405194
98	0x3eb344df	0.35013482
99	0xbda9a0ad	-0.082825996
100	0x3e17c2ea	0.14820448
101	0x3eea29ef	0.45735118
102	0x3ee69b98	0.45040584
103	0xbce65ca7	-0.028120352
104	0xbecb6e23	-0.39732465
105	0xbf4d9ed6	-0.8032049
106	0xbec3537e	-0.38149637
107	0x3ebe83b7	0.37209865
108	0x3e430757	0.19045769
109	0xbe14f1ae	-0.14545318
110	0xbe82e3a1	-0.25564292
111	0xbf20eef9	-0.62864643
112	0x3e4da8de	0.20083949
113	0xbe842f85	-0.25817505
114	0x3f33278e	0.6998223
115	0xbea04892	-0.31305367
116	0xbe0267d8	-0.12734926
117	0xbd50b84f	-0.05095702
118	0xbf6fb47c	-0.9363477
119	0x3e20faa4	0.15720612
120	0xbe70005a	-0.23437634
121	0x3e166701	0.1468773
122	0xbd69afc3	-0.057052385
123	0x3e6f39a1	0.23361827
124	0xbde6643c	-0.11249587
125	0x3d848f8a	0.064726904
126	0x3e60057b	0.2187709
127	0x3e8da390	0.2766385
128	0x3e0ada4a	0.13559833
129	0xbf18185d	-0.59412175
130	0x3f53dad0	0.82755756
131	0x3f493183	0.78591174
132	0xbee50142	-0.44727522
133	0x3e4270c9	0.18988337
134	0x3e1fff56	0.15624747
135	0xbf3940c1	-0.7236443
136	0xbdcacbb2	-0.09902133
137	0xbf206c4b	-0.6266524
138	0xbe427a25	-0.18991907
139	0x3ee8b715	0.4545218
140	0xbe1330c1	-0.14374067
141	0xbf2d8c25	-0.6779197
142	0x3e98a0f4	0.29810297
143	0xbf3ae20b	-0.73001164
144	0xbed47e73	-0.41502723
145	0xbf378c74	-0.7169869
146	0x3ead2860	0.33819866
147	0x3e87340e	0.26406902
148	0xbedb15a1	-0.4278994
149	0x3ec4d4a3	0.3844348
150	0xbd0b55e1	-0.034017447
151	0xbf11ffab	-0.57030743
152	0xbe3cea12	-0.18448666
153	0x3e7ecf32	0.24883726
154	0x3e79cf8a	0.24395576
155	0xbe2d7c8c	-0.16942042
156	0x3f3fa740	0.7486458
157	0x3e240b75	0.16019996
158	0x3f19f34c	0.60136867
159	0x3d1da1af	0.03848427
160	0xbf340908	-0.7032628
161	0xbe9cbfbf	-0.3061504
162	0x3f2dd487	0.67902416
163	0x3e7f2e50	0.2492001
164	0xbef3d145	-0.47620597
165	0x3d19c8ef	0.03754514
166	0xbe978520	-0.29593754
167	0xbf3d172a	-0.7386347
168	0x3e89e270	0.2693057
169	0xbe56440e	-0.20924398
170	0x3baa0251	0.0051882644
171	0x3e1a175b	0.15047972
172	0x3e356b13	0.17716627
173	0x3e97f38e	0.29678005
174	0x3d792a06	0.060831092
175	0xbf61cba5	-0.8820136
176	0x3d93d8cf	0.07219087
177	0xbf94abd2	-1.1614935
178	0x3d8bc4a6	0.06824617
179	0x3cc5f9c3	0.024166947
180	0x3ed3b1fa	0.41346723
181	0x3e87c539	0.26517656
182	0xbc6f0921	-0.014589579
183	0x3e91c2a5	0.28468814
184	0x3f32c525	0.6983207
185	0xbf9118b4	-1.1335664
186	0x3f088818	0.5333266
187	0xbf2d8b65	-0.67790824
188	0xbd6d7ad1	-0.057978455
189	0x3ebd9311	0.37026265
190	0x3eb8d169	0.36097267
191	0xbda91fc7	-0.08258014
192	0x3f5f881a	0.8731705
193	0xbcfa2b96	-0.030538362
194	0xbe28462a	-0.16433015
195	0x3e111250	0.14167142
196	0x3f3c3db0	0.7353163
197	0x3f10018f	0.5625238
198	0x3f6309be	0.8868674
199	0x3ebfddfc	0.37474048
200	0xbf2754ec	-0.65363955
201	0xbea4873e	-0.32134432
202	0xbe77f413	-0.242142
203	0xbeeab57f	-0.45841596
204	0xbe950cb3	-0.2911125
205	0x3d6a74b2	0.057240196
206	0xbf451d4e	-0.7699784
207	0x3e37b312	0.17939404
208	0xbdb2237e	-0.08698176
209	0x3e84e894	0.25958693
210	0x3bc360ee	0.0059624827
211	0x3edd80ff	0.4326248
212	0x3d9abb8f	0.07555305
213	0x3f0363f2	0.5132438
214	0x3f2b6e66	0.6696533
215	0x3de09466	0.10965805
216	0x3eb1ad35	0.3470246
217	0x3e8f5bdc	0.2799977
218	0x3f21c6a5	0.6319373
219	0x3e9d2911	0.30695394
220	0xbe059e4e	-0.1304867
221	0xbf283349	-0.65703255
222	0x3dbdacbc	0.09261462
223	0xbf185844	-0.5950968
224	0xbf99d6a3	-1.2018627
225	0xbfa0a1e4	-1.2549405
226	0xbf6ac935	-0.9171327
227	0x3c0fdf6c	0.008781295
228	0xbf255afb	-0.6459195
229	0xbe3fef87	-0.18743716
230	0x3da16db6	0.07882254
231	0x3f117ba3	0.5682928
232	0xbecd3e58	-0.40086627
233	0x3e778ebb	0.24175541
234	0x3ebd4cd6	0.36972684
235	0xbf881ff3	-1.063475
236	0x3f0d1a54	0.551183
237	0x3d69fe69	0.05712739
238	0xbc2a7e47	-0.010406083
239	0xbe79e907	-0.24405299
240	0xbf83be38	-1.0292425
241	0xbf176f4a	-0.5915419
242	0xbf2f52d0	-0.68485737
243	0x3dd9a62a	0.106273964
244	0x3e128455	0.14308293
245	0xbdc477c8	-0.09593159
246	0x3eb744ed	0.35794774
247	0xbe5de50d	-0.21669407
248	0xbf0361e6	-0.51321256
249	0x3e5dfe91	0.2167914
250	0xbedfe732	-0.43731076
251	0x3e0b211b	0.13586847
252	0xbe261e37	-0.16222464
253	0xbe7fbae9	-0.24973644
254	0x3f76459c	0.96199965
255	0x3dc1a49e	0.09455226

network_body._body_endoder.seq_layers.2.bias f4 [16]
0	0xbe4bbdb0	-0.19896579
1	0xbe91cfa8	-0.28478742
2	0xbf0862fb	-0.5327603
3	0xbeabef08	-0.33580804
4	0x3d4e2f98	0.050338358
5	0xbe8788e4	-0.26471627
6	0xbe1dbf6f	-0.15405057
7	0xbe94ceb6	-0.29063958
8	0xbe6ba08d	-0.23010464
9	0xbe8647e1	-0.26226714
10	0xbec4f6df	-0.38469598
11	0xbdbdf2bf	-0.09274816
12	0xbd8db23b	-0.069187604
13	0xbda7e737	-0.081983976
14	0x3db496b7	0.08817809
15	0xbd35fd4d	-0.04443102

network_body._body_endoder.seq_layers.4.weight f4 [16, 16]
0	0x3e4b4722	0.19851354
1	0x3f476056	0.7788137
2	0x3e57d0fb	0.21075813
3	0x3c929f76	0.017898303
4	0xbe8a54f9	-0.27017954
5	0x3eb6d171	0.35706666
6	0x3e8d61b4	0.27613604
7	0xbe7556a7	-0.23958836
8	0xbe14c95d	-0.14529939
9	0xbe86e933	-0.26349792
10	0x3ef61c2e	0.48068374
11	0xbf328328	-0.6973138
12	0x3e36d2e5	0.17853887
13	0xbe09d86e	-0.13461468
14	0xbed77fc9	-0.4208968
15	0xbf02634b	-0.5093276
16	0x3e793fc4	0.24340731
17	0x3e484d14	0.19560653
18	0xbf137eaf	-0.5761518
19	0xbd1508ef	-0.036385473
20	0x3eec2d88	0.46128488
21	0xbd9f7ce8	-0.07787496
22	0xbde153af	-0.110022895
23	0x3ed4b7cd	0.4154648
24	0x3dd7183d	0.1050267
25	0x3e865bbc	0.26241863
26	0x3c919218	0.017769858
27	0x3e1402a9	0.1445414
28	0xbfb568dd	-1.4172627
29	0xbe9086f6	-0.28227967
30	0xbe932610	-0.28739977
31	0xbe28e8f8	-0.1649512
32	0x3e86cfd4	0.26330435
33	0xbf2d70e8	-0.67750406
34	0xbe43b2ed	-0.19111224
35	0xbdd0b5a8	-0.10190898
36	0xbe70d8ba	-0.23520175
37	0xbf388dce	-0.72091377
38	0xbf15fdcd	-0.58590394
39	0xbed03eab	-0.40672812
40	0xbebd79fd	-0.37007132
41	0xbef98a5a	-0.48738366
42	0xbf0b8650	-0.5450182
43	0x3f1a139a	0.6018616
44	0xbf31dff0	-0.69482327
45	0x3ed69f9a	0.4191864
46	0x3d37c3e1	0.04486454
47	0x3ec107cf	0.3770127
48	0xbdf8f1c9	-0.12155492
49	0x3ec7cfa6	0.3902561
50	0x3f12d3f5	0.5735467
51	0x3e2e4734	0.1701935
52	0xbea04c2e	-0.3130812
53	0xbe848378	-0.25881553
54	0xbeb4fbb3	-0.3534828
55	0xbcf09710	-0.029368907
56	0x3e80da00	0.2516632
57	0x3e86e15c	0.2634381
58	0xbd00098d	-0.03125911
59	0xbed2c552	-0.41166168
60	0xbe031300	-0.12800217
61	0xbe45ede9	-0.19329037
62	0xbe7332a6	-0.2374979
63	0x3e0310f7	0.1279944
64	0x3f90d73a	1.1315682
65	0x3ee4017e	0.44532388
66	0x3e46dd42	0.1942034
67	0x3df6602b	0.12030061
68	0x3e3977ab	0.18112056
69	0x3e85a87c	0.26105106
70	0x3d82588e	0.06364547
71	0xbd838f2e	-0.06423794
72	0xbe95f7ad	-0.29290524
73	0xbd694cf4	-0.056958154
74	0xbdbdf065	-0.09274367
75	0x3f267811	0.65026957
76	0x3e1da857	0.15396248
77	0x3ea53f0b	0.3227466
78	0x3f22dd1b	0.6361863
79	0xbf16507d	-0.58716565
80	0xbea0d1f7	-0.3141019
81	0xbeb172d8	-0.3465793
82	0x3d8d6148	0.069033206
83	0xbed91384	-0.42397702
84	0xbeaa0ad8	-0.33211398
85	0xbe518193	-0.20459585
86	0x3e62d01d	0.22149701
87	0x3ddb9e64	0.1072357
88	0x3f0288d6	0.50990045
89	0x3e7f0040	0.24902439
90	0x3f10a6b2	0.56504357
91	0xbeba39f6	-0.36372346
92	0xbc5cc298	-0.013474129
93	0x3e5e767c	0.21724886
94	0xbeabe894	-0.3357588
95	0xbe870929	-0.26374176
96	0x3dc558d4	0.09636083
97	0xbdfd0090	-0.12353623
98	0x3ee435f7	0.44572422
99	0xbe7f58cd	-0.24936219
100	0xbf2e7199	-0.68142086
101	0x3e999a49	0.30000523
102	0x3d99846e	0.07495962
103	0x3ea26497	0.3171737
104	0x3baa2cf5	0.0051933476
105	0x3ee307d5	0.44341913
106	0x3f18e20b	0.59719914
107	0x3ec5c212	0.38624626
108	0xbeebbe7a	-0.4604376
109	0x3da035af	0.07822739
110	0xbef81aa2	-0.4845782
111	0xbe4c4994	-0.19949943
112	0x3b1297d0	0.002236832
113	0xbe4e5d6d	-0.20152827
114	0x3def510f	0.116853826
115	0xbe8221b2	-0.25416332
116	0xbf0f5453	-0.55988044
117	0xbdf33a38	-0.11876339
118	0x3dd72c21	0.10506464
119	0x3be4c811	0.0069818576
120	0x3e6abf4e	0.2292454
121	0x3ea3f4ed	0.320228
122	0x3ebf6d6d	0.37388173
123	0xbebb53b1	-0.3658729
124	0xbe2815d8	-0.16414583
125	0xbd8ec582	-0.069712654
126	0xbf39bab9	-0.7255054
127	0xbf40587e	-0.7513503
128	0xbc01c1f0	-0.007919773
129	0x3f2bdfe6	0.67138517
130	0x3e8f7fe5	0.28027263
131	0x3f2f8cbe	0.6857413
132	0x3d92dedc	0.07171413
133	0x3ebfa495	0.37430254
134	0xbf175f3d	-0.591297
135	0x3edf208f	0.43579528
136	0xbe938fb1	-0.28820565
137	0x3da7df82	0.081969276
138	0x3f1992a8	0.59989405
139	0xbf09f80a	-0.538941
140	0xbeaa5a43	-0.3327199
141	0xbf0b4ac8	-0.5441098
142	0xbd8584a4	-0.0651944
143	0xbd1337a3	-0.03594173
144	0xbed7eaa7	-0.42171213
145	0x3ee546b9	0.4478052
146	0x3da8d811	0.082443364
147	0x3f006c57	0.50165313
148	0x3e8b5550	0.27213526
149	0x3e88ab89	0.2669337
150	0xbe1daef8	-0.15398777
151	0x3e812b84	0.25228512
152	0xbf0e5a3b	-0.5560643
153	0x3cade7c3	0.021228677
154	0x3de3fd40	0.11132288
155	0x3e41e520	0.1893506
156	0x3ec40f76	0.38293046
157	0xbec8ad93	-0.39194927
158	0x3e988cd5	0.29794946
159	0x3ee87a4f	0.45405814
160	0xbcdd2fc4	-0.027000315
161	0x3e8703a9	0.2636998
162	0x3ef2c8e7	0.474189
163	0x3f1ebbac	0.62005115
164	0xbe3d4a9d	-0.18485494
165	0x3ddd2e3a	0.10799833
166	0xbf4094e9	-0.7522722
167	0x3e20ecf6	0.15715393
168	0xbe2d52fe	-0.1692619
169	0x3e41437c	0.188734
170	0x3e9aea86	0.30257052
171	0xbecb2c3b	-0.39682183
172	0xbf23d9a6	-0.6400398
173	0xbe86bf37	-0.2631776
174	0x3e455940	0.19272327
175	0x3f4ff9b6	0.81240404
176	0x3e86b942	0.26313215
177	0x3f25a3b8	0.6470294
178	0x3e63d8f3	0.22250728
179	0x3d025c14	0.031826094
180	0xbd5c202f	-0.05374163
181	0x3e7a2188	0.24426854
182	0x3c22d87d	0.00993931
183	0x3e99a35d	0.3000745
184	0xbd36ee2f	-0.044660743
185	0x3ce3391a	0.02773719
186	0x3efedead	0.49779263
187	0xbebff0a2	-0.37488276
188	0xbe3bf072	-0.18353441
189	0xbedd761f	-0.43254182
190	0xbec10ffd	-0.3770751
191	0xbe096a73	-0.13419513
192	0xbeff5d9e	-0.49876112
193	0xbec0c65b	-0.37651333
194	0xbbb3c8ef	-0.0054865996
195	0xbe093821	-0.13400318
196	0x3f014395	0.50493747
197	0xbc8839af	-0.016629068
198	0x3f0f5dfc	0.56002784
199	0x3dc2d445	0.095131435
200	0x3f2e093f	0.6798286
201	0x3f23e0ed	0.64015085
202	0x3d9b64aa	0.075875595
203	0xbe941673	-0.28923377
204	0x3e9902c8	0.29884934
205	0x3ead5c70	0.33859587
206	0x3f356f12	0.70872605
207	0x3e65c8ec	0.22439927
208	0xbe9b0351	-0.30275968
209	0xbe23e286	-0.1600438
210	0xbb4d3e49	-0.0031317642
211	0x3e455a36	0.19272694
212	0x3f2670dd	0.65015966
213	0xbd5e7593	-0.054311346
214	0x3e675d74	0.22594243
215	0xbdc35e88	-0.09539515
216	0xbf19ae8d	-0.6003197
217	0x3e27fd4f	0.16405223
218	0xbec336aa	-0.38127643
219	0x3e47bc03	0.19505315
220	0xbcf6a280	-0.030106783
221	0xbe7047f0	-0.23464942
222	0x3d86b1c5	0.065768756
223	0x3e5d1686	0.21590623
224	0x3f01d733	0.5071899
225	0xbe885c76	-0.26633042
226	0x3de3e7fb	0.11128231
227	0x3daaa757	0.08332699
228	0xbd7f7323	-0.062365662
229	0xbed8ace6	-0.4231941
230	0xbf2d9a82	-0.67813885
231	0xbbb1c225	-0.005424755
232	0x3e8d578d	0.27605858
233	0xbe36da96	-0.17856821
234	0x3e551289	0.20807852
235	0x3e4592f7	0.19294344
236	0xbfbd515f	-1.4790457
237	0x3eb9ff97	0.36327812
238	0xbf61d195	-0.8821042
239	0x3f44194b	0.76601094
240	0x3e16daea	0.14731947
241	0x3e228a1f	0.15873002
242	0x3e933e10	0.28758287
243	0xbd0fbd6e	-0.035092764
244	0xbd652893	-0.055946898
245	0x3e88009f	0.26562974
246	0xbe925d25	-0.2858669
247	0xbea06cc2	-0.31332976
248	0x3de2d62f	0.110760085
249	0x3e56873b	0.20950024
250	0x3e31f0d7	0.1737703
251	0xbf0ba940	-0.5455513
252	0x3e9802b0	0.2968955
253	0xbe9cb643	-0.30607805
254	0xbefde1d8	-0.49586368
255	0xbe6baa7d	-0.23014255

network_body._body_endoder.seq_layers.4.bias f4 [16]
0	0xbe9f7eef	-0.3115153
1	0xbce20400	-0.027589798
2	0x3db5d2b2	0.088780776
3	0xbec98c68	-0.39364934
4	0x3cba917a	0.022774447
5	0xbd45566f	-0.048178133
6	0xbe4b5143	-0.19855218
7	0xbe0c4b83	-0.1370068
8	0xbe9b1c92	-0.30295235
9	0xbdc08e9c	-0.094022006
10	0xbeb302a6	-0.34962958
11	0xbec3bf96	-0.38232106
12	0x3e31156c	0.17293328
13	0xbcc099e9	-0.02351089
14	0xbd2c471c	-0.042060003
15	0xbe8a1639	-0.2697008

action_model._discrete_distribution.branches.0.weight f4 [10, 16]
0	0xbb69f505	-0.0035699022
1	0x3c9a43d7	0.018831177
2	0x3c02455e	0.007951109
3	0x3cac927c	0.021065943
4	0x3d74a8d0	0.059731305
5	0xba6aa423	-0.000895085
6	0xbc13abd9	-0.00901314
7	0xbd28e3cb	-0.041232865
8	0xbc77b90f	-0.015119805
9	0xbd330334	-0.043704227
10	0x3b252794	0.0025200592
11	0x3c28d7e0	0.010305375
12	0xbc96517e	-0.018349405
13	0x3a6b0e62	0.0008966682
14	0x3c995183	0.018715626
15	0xbc8f69f2	-0.017506573
16	0x3e8d18d8	0.27558017
17	0x3e7f9666	0.24959716
18	0x3e75f7b2	0.2402027
19	0x3d626dad	0.055280376
20	0x3e9f7ee0	0.31151485
21	0xbed3f619	-0.41398695
22	0x3c391bc6	0.011298126
23	0xbe9aa9fc	-0.30207813
24	0x3e48abcf	0.1959679
25	0x3db02ccd	0.08602295
26	0x3e19cb78	0.15019023
27	0x3ea4a360	0.32155895
28	0xbf1579e7	-0.58389133
29	0xbe3626b2	-0.17788199
30	0xbdf12d41	-0.117762096
31	0x3e003dd0	0.1252358
32	0x3eaa247f	0.3323097
33	0x3e4bc435	0.19899066
34	0xbeb20591	-0.34769872
35	0x3e86d548	0.26334596
36	0x3b5c0602	0.0033572917
37	0xbd87ea2f	-0.06636464
38	0x3e7ac090	0.2448752
39	0x3db74f19	0.089506336
40	0x3f0407d9	0.51574475
41	0x3d2de29d	0.042452443
42	0x3df624c4	0.12018731
43	0x3f1d7e98	0.6152129
44	0xbed00131	-0.4062591
45	0xbe272e0a	-0.16326156
46	0x3d804197	0.0626251
47	0x3e871e36	0.26390237
48	0x3e31955c	0.17342132
49	0xbed62fae	-0.41833252
50	0xbd17bcf5	-0.037045438
51	0xbd9225ad	-0.07136092
52	0x3e64c45a	0.22340527
53	0xbce1dff7	-0.027572615
54	0xbd4de3be	-0.05026602
55	0x3e18b053	0.14911012
56	0x3dff2361	0.1245792
57	0x3d7b7d2a	0.061398663
58	0x3e8126b3	0.25224838
59	0xbb87178c	-0.00412268
60	0x3ca2611f	0.019821702
61	0x3d44a1bf	0.048005816
62	0xbf5c28c5	-0.8599971
63	0x3d702bb0	0.058635414
64	0xbeb8285b	-0.3596829
65	0x3e1afa2c	0.15134495
66	0x3f0bddc8	0.54635286
67	0xbd7c18e5	-0.06154718
68	0x3c0a1173	0.008427012
69	0xbe89389b	-0.26801
70	0x3e1ce742	0.15322593
71	0xbe998a7e	-0.29988474
72	0xbe895777	-0.26824543
73	0xbe3e0abc	-0.18558782
74	0x3b9dd7dc	0.004816992
75	0xbe920689	-0.2852061
76	0xbe845bea	-0.25851375
77	0x3dd57457	0.10422581
78	0x3f237ab1	0.6385909
79	0xbe6bc3b3	-0.23023872
80	0x3ae9eba4	0.0017846716
81	0xbf26b6f2	-0.651229
82	0xbea122fa	-0.31471997
83	0xbe744058	-0.2385267
84	0xbe0396fa	-0.12850562
85	0x3e68cfd0	0.22735524
86	0xbe962cc2	-0.29331023
87	0x3e0e3416	0.13887057
88	0xbd8826d7	-0.06648033
89	0x3ee38fea	0.44445735
90	0x3e42e667	0.19033204
91	0xbebc0e68	-0.3672974
92	0x3f086b02	0.5328828
93	0x3e3c8bb6	0.1841267
94	0xbeb3b998	-0.35102534
95	0xbcee08f0	-0.029056996
96	0xbc118b8c	-0.008883368
97	0x3c8f92d7	0.017526073
98	0xbf045306	-0.51689184
99	0x3e917b75	0.28414503
100	0xbe415d9c	-0.18883365
101	0xbeb064ec	-0.34451997
102	0x3df26953	0.11836495
103	0xbe454c73	-0.19267444
104	0x3e8c939e	0.27456373
105	0x3eb19a6c	0.34688127
106	0x3edddce2	0.43332583
107	0x3ea81d84	0.3283502
108	0xbe80ef67	-0.2518265
109	0x3e507ac3	0.2035933
110	0x3d4ff5c9	0.05077151
111	0x3d30f3ae	0.04320114
112	0xbe5be3ab	-0.21473567
113	0x3dbefd14	0.093256146
114	0x3ee2a967	0.4426987
115	0xbeb60685	-0.3555185
116	0x3eddea9e	0.4334306
117	0x3e08e48b	0.13368432
118	0xbe8a5ec2	-0.2702542
119	0xbc690959	-0.01422342
120	0xbecc5d94	-0.39915144
121	0xbdee1dd9	-0.11626787
122	0xbeafca74	-0.34334147
123	0xbeb654d1	-0.35611585
124	0x3e848fe3	0.25891027
125	0x3c420376	0.011841645
126	0x3e6b09c4	0.22952944
127	0xbe4f6d6c	-0.20256585
128	0xbe3b40db	-0.18286459
129	0x3e7edbe9	0.24888577
130	0xbe5ee5c3	-0.21767335
131	0x3e432f8c	0.19061106
132	0xbf15e369	-0.58550125
133	0x3e9f58a0	0.31122303
134	0x3f1371d9	0.5759559
135	0x3eaa731e	0.33290952
136	0xbea5cfe6	-0.32385176
137	0xbf045030	-0.51684856
138	0xbea15e76	-0.3151738
139	0x3e34a9cd	0.17642899
140	0x3dcd90de	0.10037397
141	0xbeccaf55	-0.39977518
142	0x3e904c7b	0.2818335
143	0xbd975770	-0.07389724
144	0xbde7ded8	-0.11321801
145	0x3b578286	0.0032884195
146	0xbe4d93ee	-0.20075962
147	0xbde5edaa	-0.112269714
148	0xbe84973b	-0.2589663
149	0x3e3b680c	0.1830141
150	0xbe9fae00	-0.3118744
151	0xbcd7b238	-0.026330099
152	0xbdcbb9a0	-0.099475145
153	0x3bdc7ee0	0.006728992
154	0xbe125e1c	-0.14293712
155	0xbe3149d3	-0.17313318
156	0x3ebde1d6	0.37086362
157	0x3e10c8e9	0.14139141
158	0xbd5b99c3	-0.053613435
159	0xbdd1f19c	-0.102511615

action_model._discrete_distribution.branches.0.bias f4 [10]
0	0x00000000	0.0
1	0xbdd9f76c	-0.10642895
2	0xbedf37da	-0.435973
3	0x3dede7d6	0.11616485
4	0xbdefac81	-0.117028244
5	0x3eb8882d	0.36041394
6	0xbefc2ef9	-0.49254587
7	0x3ee74bae	0.45174927
8	0xbe60d727	-0.21957074
9	0x3e3e3925	0.18576486
