Assets/onnx/TTT_26/O_Behavior.onnx (onnx, 4530 bytes, 6 tensors)

network_body._body_endoder.seq_layers.0.weight f4 [16, 9]
-1.3203396 0.5976214 -0.74781096 -0.56922215 0.22540149 -0.39140913 1.2593575 1.1657369
0.520781 -0.95878476 1.0604823 -0.81741625 -1.33535 1.3865812 -1.0082556 0.7264843
0.9408016 0.041913547 -0.20771602 -0.5093499 0.5968888 -0.47289875 -1.1958518 1.6738937
-0.17749059 0.5282499 0.9035436 0.0040815487 -0.6315746 -0.42020926 -0.15104514 0.059601378
-0.6588422 0.11946652 -0.6375128 0.21981867 0.61142886 -0.551808 0.00469307 0.58391416
0.7098656 -0.95171064 0.143901 -0.6054289 -0.33443755 -1.4207444 -0.021154778 -0.9604534
0.8730767 1.1526241 0.56835675 -1.1563853 0.3105971 0.29204163 0.072600506 1.7575946
1.3228704 -0.82651746 -0.46307936 0.8806201 -0.9305056 -0.41555762 -0.28122228 0.95432097
-0.4894276 -0.012970366 -1.1029432 0.84964824 0.13121942 -1.7777634 0.32669127 -0.07380067
0.44747972 0.2787002 0.62896883 -0.7160499 -1.812564 -0.13629588 -0.19092014 0.3809679
0.9656196 0.30926856 0.15876237 1.3034602 -0.4689933 -0.15932566 -0.60324454 -0.7967771
-0.31838506 -1.1463733 0.40158638 -0.47833854 -0.30595005 0.6883739 -1.0815642 0.07383849
1.1031752 -0.3762454 -0.7467303 -0.15895028 0.7360294 -0.35624203 -0.7573048 0.13904719
-0.5864947 -0.28036204 1.1914722 -0.7719842 0.50390804 -0.7301302 0.40327448 0.11063248
0.4985427 -0.8580239 0.67842025 -0.74225533 0.71256906 -0.59083396 -0.84545743 -0.78235334
1.318198 0.65604794 0.6637399 -0.06336684 -1.4804184 -0.60102516 -0.24131356 -1.7635841
-0.53105974 0.006962822 -1.3239588 -0.6782206 0.5325783 1.3143644 0.5993095 -0.05258085
-0.04708935 0.48523188 -0.71755755 -0.24886641 0.8136842 0.46237323 -0.5736298 -0.9107759
00000000: e300 a9bf b7fd 183f 8a70 3fbf 8bb8 11bf
00000010: a6cf 663e c766 c8be a032 a13f de36 953f
00000020: e751 053f eb72 75bf e2bd 873f 3142 51bf
00000030: c0ec aabf 7e7b b13f 850e 81bf e0fa 393f
00000040: 60d8 703f 8aad 2b3d 82b3 54be c164 02bf
00000050: b4cd 183f c91f f2be ac11 99bf 2642 d63f
00000060: 18c0 35be 633b 073f a24e 673f 83be 853b
00000070: dfae 21bf ab25 d7be 94ab 1abe 9320 743d
00000080: e2a9 28bf ddaa f43d 0a34 23bf 2518 613e
00000090: 9a86 1c3f 4a43 0dbf 53c8 993b 667b 153f
000000a0: c1b9 353f 4fa3 73bf c95a 133e 63fd 1abf
000000b0: 663b abbe f4da b5bf c94c adbc 46e0 75bf
000000c0: f481 5f3f 3089 933f d47f 113f 6f04 94bf
000000d0: 9506 9f3e 7b86 953e 93af 943d dcf8 e03f
000000e0: d153 a93f a696 53bf bd18 edbe 5270 613f
000000f0: 9d35 6ebf f8c3 d4be 5efc 8fbe 614e 743f
00000100: 4196 fabe a881 54bc 3e2d 8dbf 8c82 593f
00000110: 625e 063e c08d e3bf 1444 a73e ce24 97bd
00000120: 101c e53e cbb1 8e3e 1a04 213f 0c4f 37bf
00000130: 1902 e8bf 2691 0bbe 9280 43be 390e c33e
00000140: d932 773f 7358 9e3e 9a92 223e c9d7 a63f
00000150: e41f f0be 4426 23be 3c6e 1abf 96f9 4bbf
00000160: 5e03 a3be 5cbc 92bf bb9c cd3e cae8 f4be
00000170: 7ca5 9cbe 4639 303f b270 8abf a238 973d
00000180: d834 8d3f 3da3 c0be b829 3fbf ddc3 22be
00000190: 6c6c 3c3f 5b65 b6be bade 41bf 6362 0e3e
000001a0: 8424 16bf 9d8b 8fbe 2982 983f c2a0 45bf
000001b0: 1e00 013f d0e9 3abf fe79 ce3e 4893 e23d
000001c0: fd40 ff3e 74a7 5bbf f3ac 2d3f 7204 3ebf
000001d0: ed6a 363f e540 17bf e66f 58bf 4f48 48bf
000001e0: b6ba a83f c2f2 273f dcea 293f 79c6 81bd
000001f0: 5a7e bdbf c9dc 19bf e71a 77be 20bd e1bf
00000200: 88f3 07bf 6228 e43b 7b77 a9bf de9f 2dbf
00000210: 0d57 083f 183d a83f 596c 193f 045f 57bd
00000220: c3e0 40bd 5070 f83e dab1 37bf d6d6 7ebe
00000230: 9c4d 503f 2fbc ec3e 67d9 12bf 9c28 69bf

network_body._body_endoder.seq_layers.0.bias f4 [16]
-0.11749033 -0.2932907 -0.25328434 0.1628763 -0.38500717 -0.4085225 -0.09704887 -0.12683417
-0.15073793 -0.18974282 0.23380427 0.09062465 -0.049002588 -0.0727259 -0.2934176 -0.33860585
00000000: c59e f0bd 332a 96be 7cae 81be 0bc9 263e
00000010: a91f c5be dc29 d1be 8fc1 c6bd d1e0 01be
00000020: 0b5b 1abe f14b 42be 636a 6f3e 6b99 b93d
00000030: f0b6 48bd 51f1 94bd d53a 96be bf5d adbe

network_body._body_endoder.seq_layers.2.weight f4 [16, 16]
-0.6002382 -0.27074426 0.15592317 -0.16207351 0.5691016 0.5076178 -1.4032503 -0.027234497
0.4140203 -0.59420604 -0.18123718 0.25741878 -0.18227239 1.1537948 -0.6428704 -0.16851106
0.27079338 -0.7488021 0.2982127 0.3831572 -0.30235606 -0.35624018 -0.4272499 0.29056132
-0.68714 -0.81663513 0.29415244 -0.09325645 0.592352 0.35492563 -0.098922074 -0.6365422
-0.68256515 -1.6381265 0.37643367 0.30718485 -1.1866688 0.43701044 -0.68968254 0.00441434
0.33087233 -0.42139333 -0.42922816 0.2931462 -0.51632565 0.8949664 0.11709815 0.21924318
0.256142 -1.096343 0.28073326 0.44006363 0.33165807 -0.59395903 -0.48270017 -0.9570826
0.7683236 0.35819703 0.09036581 -0.2719455 0.45512024 0.23583253 1.2962792 0.102377646
-0.39336097 -1.6942486 0.42812908 -0.5691954 -0.0615794 -0.84417504 0.027538572 1.0533866
-0.6711643 0.7189491 -0.50115097 -0.60861963 -0.05678281 -0.4273241 1.0690416 0.21161221
-0.17619188 -0.20721175 0.6306623 -0.32661408 0.08025505 -0.11654406 0.6594891 0.69467884
-0.4042351 -0.70018476 -0.30748823 -0.52008396 -0.020040596 -1.1618012 0.09356194 1.1009917
-0.2676313 -0.071117505 -0.20207153 0.21915078 -0.8972495 0.99591297 -0.724435 0.5965366
0.61950386 -0.98050624 0.3439682 -0.22374152 0.011038919 0.59207946 -0.9759975 0.67933065
-0.096221566 -0.30143875 -1.5210049 0.02472889 0.0044814455 -0.32104698 0.47626558 -1.1216322
0.008812425 0.14022446 0.90057236 0.0039390395 0.7185593 -0.2573961 0.5847112 0.49380887
-0.73972005 -0.69996583 -1.6051583 0.32474694 -0.43441314 -0.40711665 -0.056858234 -0.93812793
-0.16295958 0.25253922 0.64105254 -0.66434854 0.21021585 0.12104456 -0.9095678 -0.06398944
-1.1156923 -0.63687444 0.74537605 -0.121258706 -0.83123684 -0.09188836 1.8491417 -0.6572854
1.070705 0.6174356 -0.17000233 -0.485685 0.51221746 -1.2929821 0.20629844 0.15903962
0.32365283 0.5544026 -0.10553922 0.53168243 0.43377718 -0.28746107 -0.3100517 0.816568
-0.6846046 -0.0020681568 -0.34736758 -0.4788873 0.768479 -0.620574 -0.71882445 -0.5124584
-1.487726 -1.5911402 -0.22129063 -0.12858671 0.069576204 0.44083875 -0.8031939 0.16921018
-0.47164032 -0.28266856 0.23679832 -0.43556586 -0.53338623 0.5629403 -0.926606 0.13184732
0.20098385 -1.3807368 -0.51678497 0.06508703 0.37525097 -0.7486082 -1.4022374 -0.46116254
0.28864413 0.43341833 0.79649305 0.3968032 -0.2512404 0.35789764 1.3327132 0.3348551
0.22391784 0.89209497 0.054961067 -1.1160713 -0.7954597 0.9061593 1.2389278 0.63072073
-0.5924424 0.20635621 -0.9863364 0.041854344 -2.2262776 -1.1526651 -0.6653798 0.72838145
1.4281529 1.0657643 0.1021704 -0.19192487 -0.5901186 0.3986667 0.5024268 1.0534061
-0.8902621 -0.22416045 -0.3252434 -0.5024794 -0.41320142 -0.52378666 0.32375854 -0.4593391
-0.26421005 -0.5594905 1.3921382 0.3352826 -0.38473132 0.15169439 0.065203585 -0.6533848
0.8531315 -1.4652152 -0.66493857 0.09506136 -0.32643753 -0.20350806 0.77512854 -1.0123147
00000000: 36a9 19bf fe9e 8abe 53aa 1f3e 99f6 25be
00000010: a4b0 113f 3df3 013f b59d b3bf e11a dfbc
00000020: 78fa d33e e31d 18bf 3d96 39be 65cc 833e
00000030: 9da5 3abe 8caf 933f 2893 24bf 2a8e 2cbe
00000040: 6ea5 8a3e 7fb1 3fbf 56af 983e 2e2d c43e
00000050: 6ace 9abe 1d65 b6be 80c0 dabe 74c4 943e
00000060: 68e8 2fbf 000f 51bf 269b 963e 3dfd bebd
00000070: 61a4 173f d0b8 b53e a897 cabd 6ef4 22bf
00000080: 97bc 2ebf 21ae d1bf eabb c03e 5547 9d3e
00000090: c3e4 97bf d5bf df3e 098f 30bf 2ba6 903b
000000a0: 1968 a93e dec0 d7be cbc3 dbbe 4217 963e
000000b0: eb2d 04bf 851c 653f 28d1 ef3d 4981 603e
000000c0: 0b25 833e f854 8cbf 45bc 8f3e 0550 e13e
000000d0: 16cf a93e b30d 18bf 7a24 f7be 5e03 75bf
000000e0: dbb0 443f 9a65 b73e b611 b93d 713c 8bbe
000000f0: 8505 e93e 157e 713e 7aec a53f 5fab d13d
00000100: 9c66 c9be 23dd d8bf bc33 db3e cab6 11bf
00000110: ae3a 7cbd db1b 58bf 9298 e13c 5fd5 863f
00000120: 6cd1 2bbf 0c0d 383f 6e4b 00bf 7fce 1bbf
00000130: 1795 68bd 39ca dabe 5bd6 883f dfb0 583e
00000140: a56b 34be 512f 54be 1673 213f f639 a7be
00000150: c25c a43d a7ae eebd 47d4 283f 79d6 313f
00000160: e7f7 cebe 4f3f 33bf 196f 9dbe 3924 05bf
00000170: 2d2c a4bc e7b5 94bf 679d bf3d 4ced 8c3f
00000180: f806 89be 0ea6 91bd d7eb 4ebe 1069 603e
00000190: 25b2 65bf 27f4 7e3f 9274 39bf 9fb6 183f
000001a0: ce97 1e3f 7502 7bbf 9a1c b03e 7f1c 65be
000001b0: 95dc 343c 8592 173f f9da 79bf 9de8 2d3f
000001c0: d00f c5bd 2e56 9abe 4ab0 c2bf 3e94 ca3c
000001d0: 17d9 923b 4560 a4be 15d9 f33e a591 8fbf
000001e0: fd61 103c 0097 0f3e e98b 663f 0f13 813b
000001f0: 81f3 373f 6cc9 83be a2af 153f 84d4 fc3e
00000200: 4b5e 3dbf f630 33bf d475 cdbf 3b45 a63e
00000210: 666b debe 9871 d0be 2ee4 68bd 2729 70bf
00000220: e0de 26be d24c 813e 051c 243f bf12 2abf
00000230: d342 573e 36e6 f73d 6fd9 68bf e50c 83bd
00000240: 01cf 8ebf 340a 23bf f7d0 3e3f 7c56 f8bd
00000250: f0cb 54bf f72f bcbd adb0 ec3f db43 28bf
00000260: dd0c 893f 4210 1e3f 1715 2ebe b4ab f8be
00000270: af20 033f 7080 a5bf e63f 533e 48db 223e
00000280: d3b5 a53e 54ed 0d3f f224 d8bd 571c 083f
00000290: 0b18 de3e 192e 93be 19bf 9ebe 9a0a 513f
000002a0: 3f42 2fbf ea89 07bb 2ada b1be b730 f5be
000002b0: 0abb 443f f0dd 1ebf e104 38bf 7930 03bf
000002c0: ce6d bebf 7baa cbbf 039a 62be 3cac 03be
000002d0: f87d 8e3d 9eb5 e13e 1e9e 4dbf 6f45 2d3e
000002e0: d77a f1be efb9 90be 427b 723e 7d02 dfbe
000002f0: 008c 08bf db1c 103f 0d36 6dbf fc02 073e
00000300: b6ce 4d3e fcbb b0bf 054c 04bf 594c 853d
00000310: e520 c03e c9a4 3fbf 847c b3bf 7f1d ecbe
00000320: 2ac9 933e 02e9 dd3e f8e6 4b3f ca29 cb3e
00000330: 95a2 80be 5c3e b73e 5996 aa3f 2172 ab3e
00000340: b84a 653e 5660 643f db1e 613d 6ddb 8ebf
00000350: 3fa3 4bbf 0efa 673f 3095 9e3f ea76 213f
00000360: 4eaa 17bf 0b4f 533e 8b80 7cbf 766f 2b3d
00000370: 557b 0ec0 888a 93bf 5556 2abf 3577 3a3f
00000380: b7cd b63f f76a 883f b73e d13d f487 44be
00000390: 0312 17bf 0b1e cc3e 0b9f 003f 03d6 863f
000003a0: 38e8 63bf 518a 65be 4e86 a6be 7da2 00bf
000003b0: 238f d3be e216 06bf aec3 a53e 7f2e ebbe
000003c0: 8a46 87be c53a 0fbf 9631 b23f 29aa ab3e
000003d0: 81fb c4be c655 1b3e 7589 853d 3a44 27bf
000003e0: d366 5a3f 2c8c bbbf 6a39 2abf 88af c23d
000003f0: d222 a7be 6b64 50be d36e 463f 8793 81bf

network_body._body_endoder.seq_layers.2.bias f4 [16]
0.29171005 0.2893821 0.2915005 -0.2789466 -0.24076441 -0.47581178 0.10750142 0.18390715
0.65228343 -0.57776254 0.10245604 0.52993387 0.19828336 -0.83590615 -0.06271831 -0.10746987
00000000: 055b 953e e429 943e 8e3f 953e 17d2 8ebe
00000010: f28a 76be 9a9d f3be b429 dc3d 2852 3c3e
00000020: 0cfc 263f 3fe8 13bf 79d4 d13d bfa9 073f
00000030: cb0a 4b3e f2fd 55bf 7572 80bd 2a19 dcbd

action_model._discrete_distribution.branches.0.weight f4 [10, 16]
-0.009154202 -0.0008991612 -0.040329836 -0.020588784 -0.025930125 0.004379394 0.005696576 -0.014993595
-0.027962422 -0.0048128827 -0.02250601 -0.005112369 0.01360664 0.002258336 0.039353862 0.017111229
0.06059381 0.18215136 -1.2284026 -0.066493094 -0.6587028 0.19403033 0.35094437 0.753513
0.18653435 0.6839228 0.74864984 -0.4992942 0.34659103 -0.40267447 0.3076939 -0.42726582
-0.045000188 -0.2690111 -0.45297638 0.84825325 -0.2755454 0.0070382305 0.33088726 0.13993518
0.16132307 0.940519 -0.1793755 -0.58462673 -0.5177912 0.9925878 0.32433775 -0.63192207
-0.08292156 -0.5629459 0.2968778 -0.47660092 -0.18522878 0.49755284 0.18892309 -0.31096828
-0.23810217 0.93023133 0.03444717 -0.769726 -0.39818996 -0.6242089 -0.36548558 0.8351981
-0.009666012 0.19814643 0.7576178 -0.1586061 -0.87497854 -0.5149604 0.16734405 0.29095316
0.91550624 -0.4926043 -0.51866037 0.53636116 0.13828714 0.022013502 -0.75042415 -0.49063364
0.73434424 0.36692825 0.09013356 -0.3777433 0.51282835 0.066309184 0.5363044 -0.6642726
0.050248567 -0.76174897 0.381486 0.9065004 -0.46703452 0.010239839 0.30449113 0.23211008
0.71056765 0.13192548 0.42368427 0.32307124 -0.32354024 0.27623835 0.3566386 -0.56016093
-0.8655831 0.28868306 0.0765174 0.1779401 -0.14312792 -0.22949855 0.32499662 0.23031959
0.068389416 -0.03732569 -0.023758084 -0.061005868 -0.04879061 -0.76676154 -0.67730296 0.70285755
0.5355258 -1.0257215 -0.21326526 0.34459776 0.87701064 -0.28707218 -0.7201165 0.100758046
-1.0233223 -0.39094523 0.13264668 0.65384877 1.067674 0.25933158 -0.39206585 0.16355887
-0.5426619 0.03269783 -0.21799621 -0.36945337 0.5477974 1.0646456 0.597631 0.15191494
-0.4391779 0.26886538 -0.07975533 -0.12741648 0.8759078 0.3336124 -0.70540786 -0.3486148
-0.6196861 -0.24665017 0.33033448 0.28916636 -0.40121046 -0.24180822 0.36029917 -0.17172071
00000000: 82fb 15bc b0b5 6bba e630 25bd cfa9 a8bc
00000010: 6a6b d4bc 0581 8f3b 58aa ba3b b2a7 75bc
00000020: 7311 e5bc 63b5 9dbb 865e b8bc a985 a7bb
00000030: 62ee 5e3c 9700 143b 8431 213d d92c 8c3c
00000040: 3731 783d e385 3a3e 4c3c 9dbf 882d 88bd
00000050: bfa0 28bf e3af 463e fbae b33e 3ae6 403f
00000060: dc02 3f3e 9115 2f3f 84a7 3f3f 7da3 ffbe
00000070: 6174 b13e 592b cebe 0e8a 9d3e 96c2 dabe
00000080: 1e52 38bd d3bb 89be 85ec e7be 2027 593f
00000090: 4914 8dbe f5a0 e63b 0e6a a93e 2b4b 0f3e
000000a0: e031 253e dac5 703f 36ae 37be 19aa 15bf
000000b0: f78d 04bf 3c1a 7e3f 990f a63e a5c5 21bf
000000c0: c7d2 a9bd 391d 10bf 5e00 983e 0905 f4be
000000d0: 9dac 3dbe 3fbf fe3e 0e75 413e 3c37 9fbe
000000e0: 0ed1 73be a423 6e3f 7a18 0d3d c30c 45bf
000000f0: 8edf cbbe 28cc 1fbf ed20 bbbe 8bcf 553f
00000100: 315e 1ebc e6e6 4a3e 3df3 413f a369 22be
00000110: 98fe 5fbf 72d4 03bf 3d5c 2b3e d0f7 943e
00000120: 9e5e 6a3f a136 fcbe edc6 04bf f74e 093f
00000130: 259b 0d3e a955 b43c cc1b 40bf 5534 fbbe
00000140: fcfd 3b3f 05de bb3e f297 b83d 9267 c1be
00000150: b848 033f 1ccd 873d 3f4b 093f c50d 2abf
00000160: 71d1 4d3d fb01 43bf 2252 c33e 6910 683f
00000170: 261f efbe ffc4 273c 43e6 9b3e 44ae 6d3e
00000180: c3e7 353f 7917 073e 25ed d83e 9869 a53e
00000190: 11a7 a5be 1d6f 8d3e 5699 b63e b566 0fbf
000001a0: db96 5dbf 44ce 933e 28b5 9c3d ee35 363e
000001b0: 2090 12be ab01 6bbe f565 a63e e6d8 6b3e
000001c0: c00f 8c3d d3e2 18bd 50a0 c2bc 4ae1 79bd
000001d0: aad8 47bd 7c4a 44bf ba63 2dbf 79ee 333f
000001e0: 3818 093f d84a 83bf 3562 5abe 1e6f b03e
000001f0: c583 603f 20fb 92be 8e59 38bf 3c5a ce3d
00000200: 3afc 82bf f929 c8be 88d4 073e a262 273f
00000210: 8ba9 883f 1cc7 843e dbbc c8be fa7b 273e
00000220: e4eb 0abf 29ee 053d 663a 5fbe fe28 bdbe
00000230: 733c 0c3f 4f46 883f 58fe 183f 978f 1b3e
00000240: eddb e0be b9a8 893e c356 a3bd 7779 02be
00000250: 7e3b 603f 3fcf aa3e 9c95 34bf a47d b2be
00000260: c0a3 1ebf dd91 7cbe 9a21 a93e 9d0d 943e
00000270: 756b cdbe 939c 77be 2279 b83e 8ed7 2fbe

action_model._discrete_distribution.branches.0.bias f4 [10]
0.0 0.3217596 -0.64071065 0.15268572 0.07783144 0.5794408 -0.25893545 0.17286977
-0.6611668 -0.09009329
00000000: 0000 0000 adbd a43e 9d05 24bf a559 1c3e
00000010: 1766 9f3d 3b56 143f 3093 84be c604 313e
00000020: 3a42 29bf d582 b8bd
