Assets/onnx/TTT_29/O_Behavior/O_Behavior-100005.pt (torch, 28423 bytes, 33 tensors)

network_body._body_endoder.seq_layers.0.weight f4 [16, 9]
-0.32514748 -1.2634299 -0.9767084 1.4933188 0.6663714 1.1668837 0.030580856 0.9393372
0.12693346 -0.40227696 0.16270275 -0.23974569 -0.62632626 0.3307848 0.19129941 0.6583283
0.10266827 0.47394803 0.14042395 0.6630278 0.35504788 0.33407256 -0.53050834 0.86720467
-1.6507593 0.83281916 -1.0161448 0.5318003 0.25994182 -1.1244491 0.16645144 1.5270108
-1.2925171 -0.64675575 -0.6321797 0.7901903 0.020511871 0.09186202 0.5575895 -0.24917075
-1.2585729 -0.116388336 -0.6457154 -0.9099331 0.2401705 -0.35059282 0.3196946 -1.045838
-0.7166871 -0.75411355 -0.29329902 1.1703544 0.59093785 1.7170341 1.256954 0.46285006
1.1857147 -0.8143191 -0.4316457 -0.22629914 -1.3692431 -0.50887364 -1.0019188 -1.4833881
0.3708716 -0.63926774 2.0356655 0.6037797 0.68872046 -0.29169998 -0.05419042 -0.4697615
-0.85337293 -0.37336543 -0.22251076 -0.8571198 0.22750722 0.30368105 0.30221164 0.53837496
1.0941684 0.07265427 -0.47041413 0.4546222 -0.6890608 -1.2317351 0.022257917 0.47794902
-0.83222836 0.85162306 0.2696972 -0.66044945 0.1352943 -1.1503092 -0.40017256 -0.23285809
1.5908968 -0.46832514 0.3411256 0.14163384 -1.2839019 0.40530103 -1.1154542 -0.88585883
0.23254861 1.6603646 -0.49104118 0.30765885 0.356822 0.8148804 0.4919666 1.0674326
-1.2046101 -1.0284302 -0.25508037 0.3732162 -1.0774809 0.6133087 -1.3161552 -0.22000676
-1.1561277 0.3866578 -1.2653712 1.0107691 0.5403269 -0.14042962 0.36287776 -0.70707864
0.76554894 0.8369356 -0.26975885 -0.061629977 -1.2111322 -0.2632417 0.56331223 -1.0502077
-0.080517724 0.73892725 0.18098986 0.15252861 1.3197781 -1.6358349 -0.25414768 2.1724055
00000000: bb79 a6be 12b8 a1bf 9009 7abf 1225 bf3f
00000010: 5197 2a3f 725c 953f b484 fa3c 6778 703f
00000020: d8fa 013e 3ff7 cdbe 8d9b 263e e57f 75be
00000030: eb56 20bf a05c a93e fee3 433e 3488 283f
00000040: be43 d23d 51a9 f23e 4ccb 0f3e 31bc 293f
00000050: d6c8 b53e 8f0b ab3e 65cf 07bf 2001 5e3f
00000060: 154c d3bf a333 553f 0811 82bf 1124 083f
00000070: 1817 853e f3ed 8fbf 3f72 2a3e 1775 c33f
00000080: 3371 a5bf c991 25bf 87d6 21bf e949 4a3f
00000090: 8308 a83c 2822 bc3d 2fbe 0e3f 9e26 7fbe
000000a0: eb18 a1bf 025d eebd 9b4d 25bf 60f1 68bf
000000b0: 41ef 753e e780 b3be 03af a33e 05de 85bf
000000c0: ce78 37bf 960d 41bf 4a2b 96be 2cce 953f
000000d0: b447 173f c6c7 db3f dee3 a03f affa ec3e
000000e0: 80c5 973f 3777 50bf aa00 ddbe f6ba 67be
000000f0: 5c43 afbf 8b45 02bf e03e 80bf a9df bdbf
00000100: e2e2 bd3e 0da7 23bf 5848 0240 4e91 1a3f
00000110: fc4f 303f b359 95be c6f6 5dbd 9484 f0be
00000120: a676 5abf c129 bfbe dcd9 63be 346c 5bbf
00000130: a7f7 683e 157c 9b3e 7cbb 9a3e f1d2 093f
00000140: b60d 8c3f c3cb 943d 1fda f0be 3ec4 e83e
00000150: 4a66 30bf 7fa9 9dbf 3c56 b63c bcb5 f43e
00000160: eb0c 55bf f803 5a3f c015 8a3e 3713 29bf
00000170: 978a 0a3e 553d 93bf 6be3 ccbe 5a72 6ebe
00000180: 82a2 cb3f 50c8 efbe 04a8 ae3e 7608 113e
00000190: e656 a4bf 9e83 cf3e 34c7 8ebf a5c7 62bf
000001a0: 3921 6e3e d486 d43f c069 fbbe 7685 9d3e
000001b0: 60b1 b63e 009c 503f 0ce3 fb3e a2a1 883f
000001c0: aa30 9abf 9aa3 83bf e599 82be 3216 bf3e
000001d0: e5ea 89bf cd01 1d3f c677 a8bf 7449 61be
000001e0: fefb 93bf 03f8 c53e aff7 a1bf e260 813f
000001f0: dd52 0a3f c8cc 0fbe 1dcb b93e 1b03 35bf
00000200: 04fb 433f 6941 563f d51d 8abe b76f 7cbd
00000210: 6106 9bbf 9ec7 86be 3b35 103f 356d 86bf
00000220: 7ae6 a4bd 562a 3d3f 6855 393e 7630 1c3e
00000230: 7dee a83f 0a63 d1bf a51f 82be b108 0b40

network_body._body_endoder.seq_layers.0.bias f4 [16]
0.4272615 -0.08224562 -0.41304314 1.1062433 -0.2891191 0.04151805 0.121275336 0.07964563
0.30748054 -0.636686 -0.25934398 0.2710197 -0.09954134 0.65464824 0.0029039306 -0.01672269
00000000: 05c2 da3e 6470 a8bd 647a d3be 6199 8d3f
00000010: 6b07 94be d50e 2a3d 345f f83d 401d a33d
00000020: 176e 9d3e dbfd 22bf bcc8 84be 18c3 8a3e
00000030: 54dc cbbd 0797 273f df4f 3e3b 06fe 88bc

network_body._body_endoder.seq_layers.2.weight f4 [16, 16]
-0.36081263 -0.9482419 0.32147315 -1.1945151 0.48334754 -2.1265938 1.2280669 0.14221042
-1.945688 -0.27089626 -0.62494177 0.067002326 1.7932645 0.35165113 -0.33914864 -1.2031478
-0.0119077545 -0.015873777 0.24062714 -0.11358697 -1.0129527 0.40458676 -0.78656477 -0.22284062
-0.13247572 0.11661989 -0.21413015 -0.72439784 -0.4374907 -0.59794116 0.58752364 -0.10557907
-0.3753802 0.2097422 -0.6289846 0.4392533 -1.0045128 0.34510273 -0.41531435 -1.134297
0.64351755 0.024201633 0.06747006 -0.8863128 -0.33337855 -1.3557985 0.9017233 0.59389263
-1.7542884 -0.21226011 -1.3408185 -0.007719735 0.5864064 0.6943526 -0.19639477 -0.4533248
0.03528819 0.20034555 -0.07077685 -0.17344993 0.6253762 -0.30211475 0.7069608 0.3033031
-1.1211903 -0.47850978 0.09871525 -0.76934206 1.0874331 -0.73443997 0.7102181 -0.6725993
0.19746877 0.8907928 -0.66756046 -0.00088211865 -0.07743973 -1.0604504 0.7356601 1.0848539
-1.014301 -0.05028871 -0.044403944 -1.5175045 -0.17449877 1.014339 -0.719984 -0.2633193
0.3714154 0.15057208 -0.33313406 0.42213917 0.012401351 -0.7733993 -0.64867336 0.60636944
1.5807488 0.56605685 1.0554134 0.1655217 -0.50407094 -0.3375458 -1.2632406 1.0025829
-0.6226682 -0.20695066 0.41558298 -0.99938804 0.19650212 -0.64386016 -0.11203293 -0.24208717
0.60875684 -0.25822315 -0.65977234 0.38392657 -0.73255855 1.3081454 -0.05104793 -1.0496309
0.52858484 -0.5395497 0.6431838 0.699478 -0.77058864 0.5598305 0.040702455 -0.8720602
1.1637427 0.033167277 0.8776025 -0.27765667 -0.665243 -0.43867114 -1.1116507 1.0797213
-0.014749419 -0.5382245 -0.5342118 -1.0310051 0.00351266 -0.91628873 -0.027922813 -0.076202214
-0.31386107 -0.5694173 0.0772897 0.82060343 -0.09223013 -0.86493415 1.1419393 -1.1857748
-0.28595728 -0.39026508 0.06540913 0.74674064 -0.5052779 0.5580265 -0.4592359 -0.4428325
0.43575218 0.462599 -0.81083995 1.4978774 -0.39987326 0.42685068 -0.7370261 0.36684096
1.092553 -1.7223573 -1.0079408 -0.501897 -0.57311785 0.56321824 -0.95514494 1.054599
-0.28399178 -0.11177985 0.30790764 0.81707484 0.68008536 -0.70773447 1.0583675 -0.4191669
-0.6052512 1.252716 1.0270777 0.6801691 -0.0641615 0.07012235 0.67455614 -0.97902185
0.250571 -0.04736289 0.28407437 -0.08233215 -1.085496 -0.7896562 -0.21955313 -0.017668424
-0.052194092 0.026171185 0.16881225 -0.89382935 0.3199908 -1.1773052 0.6073048 -0.08509128
-0.72297215 -0.07861567 -0.5829999 -1.0025914 0.5892437 -0.1429208 0.25628504 0.109749354
-0.84098095 1.0543714 1.1591475 0.822369 0.67409116 0.91757786 -0.4850542 -2.336316
0.4200696 0.625183 0.3427417 -1.2539752 0.673296 0.31461135 0.35977533 -0.56566805
0.3406035 1.2204334 1.359787 1.0421002 -1.2304419 0.4241662 -0.78551704 -0.18197928
-0.26225534 0.039857782 -0.07370428 -0.45724937 -0.7294568 -1.0216893 -0.12865028 0.18942185
0.2593037 -0.20445389 0.13495088 -1.3194132 -0.29440364 -0.84635127 0.5840631 0.13295004
00000000: 6fbc b8be fbbf 72bf 2198 a43e dfe5 98bf
00000010: 5479 f73e 1d1a 08c0 4c31 9d3f 9c9f 113e
00000020: 4e0c f9bf eab2 8abe 2ffc 1fbf 8438 893d
00000030: b189 e53f 9e0b b43e e4a4 adbe bf00 9abf
00000040: be18 43bc b909 82bc f666 763e 49a0 e8bd
00000050: 6fa8 81bf ff25 cf3e 4f5c 49bf 5530 64be
00000060: b7a7 07be 69d6 ee3d ef44 5bbe 2372 39bf
00000070: c8fe dfbe ac12 19bf f367 163f d739 d8bd
00000080: d531 c0be a9c6 563e 2205 21bf cfe5 e03e
00000090: e093 80bf 4eb1 b03e 15a4 d4be a530 91bf
000000a0: 91bd 243f 8142 c63c be2d 8a3d 65e5 62bf
000000b0: 98b0 aabe ce8a adbf 57d7 663f 5909 183f
000000c0: 868c e0bf b75a 59be f19f abbf d5f5 fcbb
000000d0: bb1e 163f 18c1 313f b61b 49be 301a e8be
000000e0: 598a 103d 6227 4d3e 74f3 90bd dc9c 31be
000000f0: a818 203f c9ae 9abe 62fb 343f 8b4a 9b3e
00000100: 2a83 8fbf 3cff f4be 392b ca3d 9af3 44bf
00000110: 0231 8b3f 4204 3cbf dad0 353f 782f 2cbf
00000120: 4135 4a3e ff0a 643f 3ee5 2abf fb3d 67ba
00000130: b998 9ebd d7bc 87bf 3854 3c3f 7edc 8a3f
00000140: 9dd4 81bf 89fb 4dbd e9e0 35bd 963d c2bf
00000150: ceaf 32be dcd5 813f df50 38bf cad1 86be
00000160: 292a be3e 912f 1a3e 8c90 aabe a022 d83e
00000170: 092f 4b3c 7ffd 45bf 750f 26bf 073b 1b3f
00000180: fa55 ca3f 1ae9 103f c917 873f 857e 293e
00000190: cb0a 01bf ced2 acbe deb1 a1bf a354 803f
000001a0: 2f67 1fbf e0ea 53be 4bc7 d43e e5d7 7fbf
000001b0: da37 493e 05d4 24bf 8571 e5bd b3e5 77be
000001c0: 7dd7 1b3f d335 84be d7e6 28bf 0692 c43e
000001d0: f588 3bbf 4f71 a73f a217 51bd 4e5a 86bf
000001e0: 5651 073f ee1f 0abf b2a7 243f fd10 333f
000001f0: 4c45 45bf 0d51 0f3f 9eb7 263d 563f 5fbf
00000200: 85f5 943f 69da 073d 8faa 603f 0429 8ebe
00000210: 5e4d 2abf 8199 e0be 924a 8ebf 4f34 8a3f
00000220: 8ca7 71bc 15c9 09bf 1bc2 08bf faf7 83bf
00000230: a834 663b e691 6abf 62be e4bc e80f 9cbd
00000240: 66b2 a0be 55c5 11bf 104a 9e3d 1113 523f
00000250: 27e3 bcbd 536c 5dbf 112b 923f 78c7 97bf
00000260: fe68 92be d3d0 c7be 39f5 853d 652a 3f3f
00000270: e459 01bf d3da 0e3f f820 ebbe f1ba e2be
00000280: e91a df3e c7d9 ec3e 3593 4fbf 72ba bf3f
00000290: 30bc ccbe 2c8c da3e bead 3cbf 94d2 bb3e
000002a0: c7d8 8b3f 3476 dcbf 3404 81bf 527c 00bf
000002b0: dab7 12bf 122f 103f 6184 74bf 1afd 863f
000002c0: 5f67 91be d6ec e4bd 12a6 9d3e d12b 513f
000002d0: 131a 2e3f 162e 35bf 9678 873f 0b9d d6be
000002e0: bef1 1abf ff58 a03f 4877 833f 901f 2e3f
000002f0: 1b67 83bd 4e9c 8f3d b6af 2c3f 2da1 7abf
00000300: d84a 803e 97ff 41bd 3272 913e c29d a8bd
00000310: 88f1 8abf e926 4abf 89d2 60be 5fbd 90bc
00000320: 79c9 55bd f464 d63c 1edd 2c3e 00d2 64bf
00000330: d6d5 a33e f0b1 96bf 5478 1b3f 5644 aebd
00000340: b414 39bf 4101 a1bd 7b3f 15bf ea54 80bf
00000350: add8 163f d559 12be cb37 833e 45c4 e03d
00000360: 874a 57bf a4f5 863f f25e 943f c686 523f
00000370: 3d91 2c3f 62e6 6a3f 0659 f8be 3486 15c0
00000380: 5d13 d73e fe0b 203f d77b af3e 4282 a0bf
00000390: 205d 2c3f bd14 a13e 7934 b83e 9fcf 10bf
000003a0: 9563 ae3e 2937 9c3f 800d ae3f 8a63 853f
000003b0: 1f7f 9dbf 502c d93e a517 49bf c758 3abe
000003c0: 5546 86be ea41 233d 45f2 96bd 971c eabe
000003d0: aebd 3abf b7c6 82bf e6bc 03be cdf7 413e
000003e0: 74c3 843e 5c5c 51be 9030 0a3e 88e2 a8bf
000003f0: 13bc 96be 7aaa 58bf 2985 153f 0e24 083e

network_body._body_endoder.seq_layers.2.bias f4 [16]
0.24627957 -1.0106593 -0.51152444 -1.1476238 -0.3866033 -0.26195318 -0.62197065 0.23481113
-0.6464959 1.0121516 0.6994497 -0.13133 -0.7336531 -0.54461676 -0.5173729 -0.75905967
00000000: b630 7c3e 495d 81bf 44f3 02bf 56e5 92bf
00000010: def0 c5be ba1e 86be 7839 1fbf 5472 703e
00000020: c180 25bf 2f8e 813f 230f 333f 5f7b 06be
00000030: b1d0 3bbf 016c 0bbf 8d72 04bf bc51 42bf

action_model._discrete_distribution.branches.0.weight f4 [10, 16]
0.0076140957 0.009925599 -0.014625515 0.012023688 0.04658781 0.02881657 0.009327119 0.0129091935
-0.03886563 -0.0087954225 -0.005771671 -0.0140369 -0.00064265623 0.029526336 0.04516527 0.00636571
0.77165914 -0.34917417 0.29211244 0.10765063 0.36741906 -0.8731868 0.4634612 0.09523059
0.44044802 -0.15460175 0.8919861 -0.1355516 -0.0870525 0.5737749 -0.9829055 0.2849683
0.6094628 0.1469436 -0.1559781 0.38628626 0.6049677 -0.5282412 0.054539897 -0.69359016
-0.042435642 0.5967762 -0.8154947 1.1623548 -0.33032212 0.37426442 0.32284176 -0.1902659
0.724183 -0.2552031 -1.2496958 -0.56512606 0.4389902 0.4949584 0.17654122 -0.48982513
-0.14827713 0.21403344 0.6675443 0.23452157 -0.7867403 -0.10753772 0.7807191 -0.7988465
-0.96600765 0.8839613 0.8399139 0.80100274 -0.5663312 -0.07866206 0.52303505 -0.76599306
0.790551 -1.1923364 -0.6695982 -0.71746254 0.9489561 0.46529886 -0.4660463 1.3372016
0.72470546 -0.26695153 0.4695469 0.17856812 -0.41541293 0.2780039 0.3984332 0.49253732
0.44609007 0.9496171 0.28500107 -0.22065558 0.09675182 0.5752498 1.1751133 -0.09499328
-1.9208083 -0.17329435 0.26468724 1.1636233 1.0991952 0.71007115 0.55522126 -0.19759884
0.7209611 -1.4185336 -0.34524554 -1.5050182 0.98950195 -0.8849693 0.34296063 0.5580731
-0.45573214 0.19054879 0.15654023 -0.47057432 -0.3078369 -0.027984003 -0.49190027 1.0379543
-0.32897332 -0.23860322 -0.6047578 -0.056827374 -0.2133052 -0.19590266 0.36591336 0.56151336
0.38980275 0.712085 0.39839962 0.10985229 -0.5079999 -0.3657732 0.10903567 0.38103995
0.24604614 -0.2507418 -1.5899438 1.0923293 0.999439 0.82460785 0.24759722 0.26377246
-0.58007944 -0.8373205 -1.430387 -1.0895495 -0.08738918 -0.0013217495 -1.3728443 0.28154117
-1.7481499 0.8293671 1.0869725 -0.426732 -1.1306987 -2.1157997 -1.4794724 -1.1294234
00000000: aa7f f93b fb9e 223c db9f 6fbc 01ff 443c
00000010: dcd2 3e3d ba10 ec3c c6d0 183c 1581 533c
00000020: 9131 1fbd ad1a 10bc 4920 bdbb 07fb 65bc
00000030: ee77 28ba 37e1 f13c 38ff 383d 7297 d03b
00000040: 748b 453f f5c6 b2be c38f 953e ef77 dc3d
00000050: 5a1e bc3e 2c89 5fbf c94a ed3e 4108 c33d
00000060: 6782 e13e ec4f 1ebe 3359 643f 0ace 0abe
00000070: 9548 b2bd e9e2 123f b29f 7bbf 5de7 913e
00000080: c105 1c3f 6278 163e b9b8 1fbe 50c7 c53e
00000090: 2adf 1a3f d13a 07bf 3a65 5f3d 208f 31bf
000000a0: ffd0 2dbd 53c6 183f 43c4 50bf 0bc8 943f
000000b0: fb1f a9be 969f bf3e 844b a53e 10d5 42be
000000c0: 0f64 393f fba9 82be 08f6 9fbf 1aac 10bf
000000d0: 53c3 e03e 306b fd3e 39c7 343e 5cca fabe
000000e0: f6d5 17be 952b 5b3e 2fe4 2a3f 6c26 703e
000000f0: d067 49bf bc3c dcbd 35dd 473f 3481 4cbf
00000100: 474c 77bf 4a4b 623f 9904 573f 840e 4d3f
00000110: 15fb 10bf 9319 a1bd a0e5 053f 1f18 44bf
00000120: 8d61 4a3f 7b9e 98bf ca6a 2bbf a0ab 37bf
00000130: c9ee 723f a73b ee3e 9f9d eebe 6c29 ab3f
00000140: 4c86 393f dfad 88be 7468 f03e 90da 363e
00000150: 01b1 d4be 8756 8e3e 70ff cb3e da2d fc3e
00000160: eb65 e43e 1b1a 733f a9eb 913e 89f3 61be
00000170: d125 c63d 9243 133f 1d6a 963f d68b c2bd
00000180: 0cdd f5bf 1374 31be 1685 873e 9cf1 943f
00000190: 6eb2 8c3f 39c7 353f fb22 0e3f 5a57 4abe
000001a0: e890 383f 8292 b5bf 06c4 b0be 70a4 c0bf
000001b0: 0050 7d3f 598d 62bf 8998 af3e e1dd 0e3f
000001c0: b955 e9be 391f 433e 154c 203e 1eef f0be
000001d0: cc9c 9dbe b53e e5bc 5ada fbbe b0db 843f
000001e0: 316f a8be 6754 74be 68d1 1abf d2c3 68bd
000001f0: ae6c 5abe b59a 48be ff58 bb3e 57bf 0f3f
00000200: 3a94 c73e 344b 363f 09fb cb3e 3dfa e03d
00000210: 480c 02bf a046 bbbe 184e df3d ab17 c33e
00000220: 85f3 7b3e 3b61 80be 4783 cbbf 72d1 8b3f
00000230: 3cdb 7f3f 8019 533f 208a 7d3e 2f0d 873e
00000240: 1680 14bf a35a 56bf ec16 b7bf 5c76 8bbf
00000250: 19f9 b2bd 8e3e adba 5db9 afbf 2a26 903e
00000260: 60c3 dfbf 6751 543f ea21 8b3f 9e7c dabe
00000270: bcba 90bf 4369 07c0 5a5f bdbf f290 90bf

action_model._discrete_distribution.branches.0.bias f4 [10]
0.0 -0.05117733 -0.44916698 0.4939479 -1.3139161 0.47839624 -0.19542328 0.10836208
-0.8331729 1.1740019
00000000: 0000 0000 529f 51bd 37f9 e5be bde6 fc3e
00000010: 672e a8bf 5af0 f43e 0a1d 48be f0ec dd3d
00000020: d24a 55bf b245 963f

exp_avg f4 [16, 9]
-0.0034892622 0.00034631696 -0.00024594122 5.788369e-33 0.003453794 -9.187057e-05 -6.2123313e-06 5.16161e-06
-0.0073692743 -0.0010207393 -8.441497e-05 -1.0437682e-05 -1.4679901e-32 0.0008654671 0.00024846906 6.9581845e-05
-7.10294e-05 -0.003849166 0.0004918302 0.00021074363 -0.00021237515 -1.169471e-33 -0.00043416044 -5.4717886e-05
2.8088966e-08 -1.4663118e-06 0.00046913663 0.00010724487 -0.0005457806 -0.0004351158 -6.786532e-32 3.8789763e-05
0.000820638 -0.00021611039 0.00022546493 -0.008429215 0.0126130385 0.0006840052 0.0005551362 5.730164e-32
-0.0128152985 -0.0010142425 -0.0001739232 0.00015587547 0.011453213 -0.015180911 -0.0005496427 -4.816876e-05
-4.976276e-32 0.015741128 1.6148206e-05 0.00048794193 -0.00047493595 -0.01145448 0.009502809 0.0012696767
-0.00026050315 1.5042562e-32 -0.009362999 -0.0011309542 -4.901898e-05 4.1250758e-05 0.009911804 0.00024175936
4.824383e-05 -2.411792e-05 -3.7364528e-32 -0.00013892105 -0.00013108243 7.741245e-06 -8.051207e-06 -0.0031798221
-0.004283903 -0.00030188562 -0.00011007079 -9.5574444e-32 0.004391395 0.00029660107 0.00018665398 -0.00018588368
-0.0061603584 0.012872549 0.0017512364 0.00034264615 1.1278417e-31 -0.0130817145 -0.001851009 -0.0003078744
0.00029320474 0.016150713 0.0002621798 0.0010166417 -3.907399e-05 2.0293378e-33 -0.0001244647 -0.0011091708
-0.00024053606 0.00024285352 0.0036489104 0.00075653335 0.0006503734 -0.00018093373 4.1423833e-34 -0.00050281227
-0.00072137016 -4.1568226e-05 4.238762e-05 0.00656983 0.0034865371 0.00016176552 0.00074120425 1.3930156e-31
-0.0036483787 -0.00073872326 -0.0001685596 0.00016518123 0.0034257558 -0.0034134635 5.685561e-05 -8.035922e-05
2.3617808e-33 0.0035436049 -0.000118957025 -0.00010178403 0.00010272579 -0.0054947142 0.0060851574 0.0005781787
4.9323622e-05 1.5794368e-31 -0.005967575 -0.00073759275 -1.1178459e-05 1.0932257e-05 0.006764128 0.0009669415
-0.0010151312 0.000490597 -1.5273185e-31 -0.0010812248 0.0006340852 9.472001e-06 -1.3794753e-05 -0.005638793
00000000: 1bac 64bb e091 b539 acf1 80b9 7f70 f009
00000010: 0c59 623b a3aa c0b8 8573 d0b6 e431 ad36
00000020: f479 f1bb 54ca 85ba f107 b1b8 811d 2fb7
00000030: df71 988a 84e0 623a f444 8239 78ec 9138
00000040: 9ef5 94b8 4a42 7cbb 2aee 003a 10fb 5c39
00000050: 05b1 5eb9 cc4f c288 07a0 e3b9 e280 65b8
00000060: 4a48 f132 17ce c4b5 74f6 f539 a7e8 e038
00000070: b712 0fba 4120 e4b9 3e30 b08b 31b2 2238
00000080: 1520 573a b19b 62b9 c86a 6c39 b11a 0abc
00000090: eba6 4e3c d04e 333a 8f86 113a 79c3 940b
000000a0: 42f7 51bc 55f0 84ba 275f 36b9 8172 2339
000000b0: 42a6 3b3c 5bb9 78bc e615 10ba d008 4ab8
000000c0: 0731 818b 8af3 803c 0276 8737 75d2 ff39
000000d0: d300 f9b9 92ab 3bbc abb1 1b3c 486b a63a
000000e0: 2494 88b9 fd35 9c0a 4467 19bc 873c 94ba
000000f0: bb99 4db8 aa04 2d38 1f65 223c c980 7d39
00000100: 6b59 4a38 d750 cab7 fa01 428b 56ab 11b9
00000110: 2c73 09b9 65e0 0137 ac13 07b7 9064 50bb
00000120: fc5f 8cbb 6746 9eb9 ced5 e6b8 1d20 f88b
00000130: b1e5 8f3b 1f81 9b39 8cb8 4339 c5e9 42b9
00000140: d5dc c9bb 62e7 523c be89 e53a 30a5 b339
00000150: f866 120c b054 56bc 8e9d f2ba 346a a1b9
00000160: 46b9 9939 804e 843c 2d75 8939 d640 853a
00000170: 61e3 23b8 3e97 2809 bd82 02b9 9961 91ba
00000180: 6838 7cb9 7fa6 7e39 8f22 6f3b 1852 463a
00000190: d27d 2a3a 07b9 3db9 80a7 0908 29cf 03ba
000001a0: 551a 3dba 8b59 2eb8 5cc9 3138 ba47 d73b
000001b0: 637e 643b 9a9f 2939 604d 423a e2d2 340c
000001c0: a319 6fbb e1a6 41ba 60bf 30b9 8034 2d39
000001d0: a582 603b 6ab4 5fbb 3f78 6e38 8786 a8b8
000001e0: 8635 4409 d33b 683b 9178 f9b8 e374 d5b8
000001f0: 7d6e d738 010d b4bb 0066 c73b ea90 173a
00000200: d6e0 4e38 ca05 4d0c a68b c3bb 035b 41ba
00000210: 1e8b 3bb7 b069 3737 9ea5 dd3b 587a 7d3a
00000220: 270e 85ba 689b 003a dd41 468c e2b7 8dba
00000230: bd38 263a efe9 1e37 0370 67b7 a0c5 b8bb

exp_avg_sq f4 [16, 9]
0.00011913138 9.668406e-06 2.6706564e-05 4.9299234e-07 0.0001479823 5.8393457e-06 1.793742e-06 4.0816426e-06
0.00045451886 1.2494964e-05 1.5269718e-06 9.092817e-06 9.991465e-08 1.5590946e-05 3.6797396e-06 2.120447e-06
8.759978e-07 8.832988e-05 1.2577198e-05 5.405994e-06 6.84101e-06 8.7620506e-08 1.4077504e-05 2.1609453e-06
7.546162e-07 7.0609485e-07 1.2606723e-05 0.00022058551 3.1944364e-05 7.816537e-05 6.1218643e-06 0.00024401229
0.0001071704 8.634514e-06 9.331572e-06 0.0021393562 0.0010908186 2.467544e-05 5.4704447e-05 5.8044026e-07
0.0011057297 2.240697e-05 6.068676e-06 1.3670119e-05 0.0011459178 0.002263126 4.983645e-05 0.00015820214
2.2853312e-06 0.0023445566 0.0002134625 2.3075716e-05 4.3358472e-05 0.0032431437 0.0005770186 2.3842329e-05
0.00011086549 4.449656e-07 0.00059837685 2.6732603e-05 3.0295703e-06 9.846254e-06 0.00058932684 3.052009e-05
1.2241159e-06 3.431379e-05 1.7339514e-07 5.196581e-05 3.3528206e-05 3.0718502e-06 5.8808655e-07 0.00034451892
0.0001675784 7.275621e-06 5.8068905e-05 7.475796e-07 0.00018787244 1.37049665e-05 6.971096e-06 6.532286e-06
0.0002614531 0.000977224 3.241954e-05 0.00016333717 3.820162e-06 0.0010623201 9.4555566e-05 1.1157823e-05
2.7847882e-05 0.0012962843 0.00047450358 1.6421553e-05 7.080553e-05 7.36346e-06 0.0005124995 8.987295e-05
1.5131991e-05 1.1344246e-05 0.0008488819 0.00013214408 1.4675818e-05 0.00010812058 9.323831e-06 0.00020059207
9.359998e-05 7.1556683e-06 9.909631e-06 0.0013840833 0.00014781597 4.630507e-05 0.000101831116 4.4501644e-07
0.00018743548 8.15561e-06 2.8177315e-06 1.4812767e-05 0.00017554409 0.00039941646 2.25352e-05 5.1563326e-05
3.375053e-06 0.0004132061 3.9796254e-05 4.94424e-06 2.0229683e-05 0.00048537346 0.00025833215 5.357878e-06
2.7979575e-05 1.2091258e-06 0.00028392914 3.8915638e-05 7.953025e-07 2.249677e-06 0.00034726234 0.0013518248
8.069086e-05 0.00022947228 9.281701e-06 0.0014551841 9.147772e-05 1.2145196e-05 5.4563716e-05 0.0018530837
00000000: 2cd6 f938 7d35 2237 e907 e037 2d56 0435
00000010: b22b 1b39 99ef c336 81c0 f035 0bf5 8836
00000020: 7d4c ee39 76a1 5137 5af2 cc35 5a8d 1837
00000030: a990 d633 4dc9 8237 72f1 7636 014d 0e36
00000040: 1c26 6b35 be3d b938 a702 5337 2365 b536
00000050: d48b e536 e229 bc33 6b2e 6c37 c204 1136
00000060: d590 4a35 788a 3d35 7781 5337 f94c 6739
00000070: 00fc 0538 b7ec a338 6a6a cd36 8ddd 7f39
00000080: acc0 e038 f5dc 1037 cc8e 1c37 7134 0c3b
00000090: ccf9 8e3a 1bfe ce37 7472 6538 8dcf 1b35
000000a0: 22ee 903a 9af6 bb37 88a1 cb36 b758 6537
000000b0: 9f32 963a f450 143b 7b07 5138 10e3 2539
000000c0: b15d 1936 22a7 193b e7d4 5f39 b992 c137
000000d0: cedb 3538 ec8a 543b 1043 173a 0301 c837
000000e0: 7580 e838 9be3 ee34 64dc 1c3a d43f e037
000000f0: 9f4f 4b36 5731 2537 0e7d 1a3a b202 0038
00000100: 4d4c a435 27ec 0f38 7e2e 3a34 ddf5 5938
00000110: a3a0 0c38 fc25 4e36 00dd 1d35 8ca0 b439
00000120: fcb7 2f39 1c21 f436 038f 7338 47ad 4835
00000130: a0ff 4439 62ee 6537 42e9 e936 e92f db36
00000140: a413 8939 3216 803a 37fa 0738 7d45 2b39
00000150: f12e 8036 8c3d 8b3a 224c c638 7c32 3b37
00000160: df9a e937 15e8 a93a cbc6 f839 04c1 8937
00000170: 6e7d 9438 a413 f736 4259 063a 2c7a bc38
00000180: 68df 7d37 2a53 3e37 8087 5e3a 2890 0a39
00000190: 2938 7637 cbbe e238 8d6d 1c37 0656 5239
000001a0: 1b4b c438 b91a f036 8b41 2637 216a b53a
000001b0: 0cff 1a39 b137 4238 2a8e d538 98ea ee34
000001c0: 548a 4439 14d4 0837 4218 3d36 5a84 7837
000001d0: 4212 3839 c568 d139 f909 bd37 b345 5838
000001e0: f87e 6236 95a3 d839 e7ea 2638 b3e6 a536
000001f0: eab2 a937 b979 fe39 c170 8739 d2c7 b336
00000200: aeb5 ea37 3f49 a235 53dc 9439 5939 2338
00000210: c67c 5535 28f9 1636 c310 b639 b72f b13a
00000220: 9338 a938 7f9e 7039 9ab8 1b37 e0bb be3a
00000230: bad7 bf38 38c3 4b37 58db 6438 2ce3 f23a

exp_avg f4 [16]
-0.0073493836 -0.0038447422 0.0005038202 -0.008528459 0.011457933 -0.011488634 0.009893389 -0.003136563
-0.00622872 0.016178396 0.0036641068 0.006518208 0.0034731792 -0.0056107594 0.006825996 -0.005651534
00000000: 19d3 f0bb 12f8 7bbb cd12 043a f3ba 0bbc
00000010: 0eba 3b3c d33a 3cbc e217 223c cc8e 4dbb
00000020: 4a1a ccbb 8e88 843c 8321 703b b196 d53b
00000030: 479e 633b 76da b7bb 9bac df3b 8130 b9bb

exp_avg_sq f4 [16]
0.00048609052 0.00010999118 1.8492576e-05 0.002216275 0.0011844779 0.0032948065 0.0007408723 0.00041977564
0.00035308686 0.0013355111 0.0008756476 0.0014656379 0.00023181505 0.000558934 0.000369416 0.002042477
00000000: f7d9 fe39 11ab e638 8120 9b37 ed3e 113b
00000010: 7c40 9b3a aeed 573b 1937 423a 5515 dc39
00000020: 841e b939 510c af3a b78b 653a a61a c03a
00000030: 6113 7339 6d85 123a 2dae c139 14db 053b

exp_avg f4 [16, 16]
2.1833395e-05 1.5792528e-05 2.6178e-05 -0.00010814347 -0.00011552783 -0.00023687968 -8.093631e-05 2.1418013e-05
-9.731191e-06 -0.00013043733 -5.001487e-05 -0.000113944996 -7.373892e-05 -4.9920178e-05 -8.825399e-05 -5.4868473e-05
3.6430667e-06 1.5267906e-05 -3.3680255e-05 0.00018201591 5.8031746e-05 0.00030895675 -9.384656e-06 -2.9825987e-05
8.9013076e-05 0.00010241466 5.3279487e-05 0.00012897562 -3.3210385e-05 3.9246883e-05 6.747772e-05 0.00017030817
0.0004225433 0.00026253937 -0.00029769153 0.0020943205 -0.00020586612 0.0013505267 -0.00032085742 -0.0001529196
0.0012664924 -0.000104835366 -4.1509364e-05 0.00019849328 -0.00033954805 0.0005520871 0.00036199993 0.0020810084
-0.0003632919 -0.00037883336 -0.00074951176 0.0025611154 0.0026212076 0.0048882095 0.0018320275 -0.00049769226
0.00070651143 0.0034634536 0.0016054586 0.0038307426 0.0008870824 0.002131415 0.0028655326 0.0021889098
-0.00068335125 -0.0005442715 -0.0007168712 0.0016996157 0.0031646101 0.006017253 0.0019401088 -0.000591955
0.00026247234 0.004067295 0.0016441868 0.004252555 0.0008765918 0.001550534 0.0029233282 0.0016680307
0.0014454232 0.0010246853 -0.00073781627 0.0051950584 -0.0010339759 0.0033440853 -0.001516125 -0.0003565677
0.0038307952 -0.00068586896 -0.00012885699 0.00021868409 -0.001273155 0.00069346506 0.00035052947 0.0061917533
3.0635998e-05 1.9412024e-05 -1.221305e-05 0.00011159086 -3.161898e-05 9.397322e-05 -4.4003355e-05 -4.292525e-06
6.139974e-05 -3.6721172e-05 -2.261033e-05 -2.3439929e-05 -3.0563475e-05 -1.0516461e-05 -2.3992066e-05 7.981525e-05
0.0018249736 0.0015503301 0.0005029612 0.003080712 -0.005616137 -0.005222961 -0.0041192174 0.0004923497
0.0022799135 -0.0067996914 -0.002621496 -0.006569114 -0.0022567522 -0.001255377 -0.004235278 0.0015262347
4.939412e-06 3.791632e-06 -4.375949e-06 3.9940798e-05 8.049995e-07 5.417107e-05 -6.3180155e-06 -4.6830257e-07
1.15642115e-05 -2.816855e-06 -5.7367224e-06 -3.8763346e-06 3.350895e-07 -6.287866e-06 -7.8516505e-06 1.1641422e-05
0.000700322 0.0004384006 -0.0016027703 0.008549951 0.0022046976 0.010502507 0.000535056 -0.0010878491
0.004369043 0.0034166668 0.0014418729 0.0044985586 -0.0003955916 0.0029887056 0.0036595962 0.008274743
-0.001351933 -0.00088230416 0.0013432998 -0.008704191 -0.00049789593 -0.007961813 0.00041359302 0.0007808269
-0.004690506 -0.00088284764 -0.0002826137 -0.001604932 0.00013764459 -0.001902984 -0.0018013433 -0.00804011
-0.00060746475 -0.0005831618 -0.000960644 0.002924297 0.0038920562 0.008005862 0.002538059 -0.000735377
0.000610274 0.0045197518 0.0015405145 0.004321378 0.0019305889 0.0014973076 0.0032347764 0.002435142
-4.6119956e-05 -2.7562577e-05 2.4983505e-05 -0.00021581135 3.0762636e-05 -8.681764e-05 2.093079e-05 8.3561445e-06
-0.00011187984 3.6988284e-05 1.1500404e-05 2.1357659e-05 -3.2308408e-06 -5.2938914e-05 -1.3172087e-05 -0.00017188088
-0.00017495474 -0.00028795673 -0.00031415327 0.0011596945 0.0012639802 0.0021062768 0.0011424612 -0.00019477625
0.00011013064 0.0011659962 0.0001914688 0.0008892396 0.0011233562 0.00066847936 0.0010932778 0.0006276242
0.00017433193 0.00018772112 -0.00016973766 0.0011484969 7.158808e-05 0.0013162068 -0.0001862883 -0.00011807714
0.0006385804 0.00025527214 0.00023196009 0.0004082818 -0.00014554834 0.00015047009 0.00014660707 0.0010723926
7.5582735e-05 4.9761104e-05 -7.358723e-05 0.00039725157 3.5250854e-05 0.0004302844 -3.923687e-05 -4.4846955e-05
0.00027175527 8.143145e-05 3.068735e-05 0.00014162193 -5.582267e-05 8.513829e-05 0.000120948076 0.00048570003
00000000: dc26 b737 327a 8437 d498 db37 15cb e2b8
00000010: 8847 f2b8 e862 78b9 5abc a9b8 d5aa b337
00000020: 2643 23b7 01c6 08b9 0fc7 51b8 c1f5 eeb8
00000030: 48a4 9ab8 6261 51b8 0015 b9b8 9322 66b8
00000040: 697b 7436 9413 8037 e643 0db8 86db 3e39
00000050: 1d67 7338 79fb a139 ca72 1db7 d232 fab7
00000060: 88ac ba38 74c7 d638 6a78 5f38 a13d 0739
00000070: 614b 0bb8 059d 2438 d382 8d38 c094 3239
00000080: cd88 dd39 70a5 8939 7b13 9cb9 de40 093b
00000090: c4dd 57b9 2804 b13a c138 a8b9 0b59 20b9
000000a0: 6f00 a63a 0fdb dbb8 571a 2eb8 a222 5039
000000b0: 5e05 b2b9 f0b9 103a cfca bd39 8761 083b
000000c0: 3778 beb9 279e c6b9 e27a 44ba 63d8 273b
000000d0: 91c8 2b3b 462d a03b a420 f03a 9077 02ba
000000e0: 2e35 393a 1cfb 623b 406e d23a 320d 7b3b
000000f0: 188b 683a 36af 0b3b a9cb 3b3b d073 0f3b
00000100: ed22 33ba 71ad 0eba 69ec 3bba a4c5 de3a
00000110: 5965 4f3b 602c c53b 404b fe3a 6d2d 1bba
00000120: 719c 8939 f246 853b c181 d73a 0459 8b3b
00000130: 14cb 653a 4a3b cb3a 4f95 3f3b d3a1 da3a
00000140: 5b74 bd3a bc4e 863a 036a 41ba 4f3b aa3b
00000150: 7986 87ba 7128 5b3b b7b8 c6ba b5f1 bab9
00000160: 140e 7b3b e3cb 33ba c91d 07b9 904e 6539
00000170: fedf a6ba a7c9 353a 45c7 b739 31e4 ca3b
00000180: 277f 0038 01d7 a237 a6e6 4cb7 e305 ea38
00000190: 9f9e 04b8 7d13 c538 3e90 38b8 8208 90b6
000001a0: bcc3 8038 0f05 1ab8 50ab bdb7 dda0 c4b7
000001b0: 4831 00b8 db6f 30b7 9242 c9b7 7c62 a738
000001c0: f433 ef3a 7234 cb3a 28d9 033a c5e5 493b
000001d0: 9207 b8bb 5f25 abbb 80fa 86bb 0711 013a
000001e0: 9a6a 153b f2cf debb 68cd 2bbb b941 d7bb
000001f0: 05e6 13bb 768b a4ba 16c8 8abb f00b c83a
00000200: 3abd a536 be73 7e36 1ed5 92b6 1b86 2738
00000210: 2517 5835 be35 6338 57ff d3b6 046b fbb4
00000220: e903 4237 3309 3db6 127e c0b6 7611 82b6
00000230: 5ae6 b334 5cfc d2b6 95ba 03b7 874f 4337
00000240: d095 373a 22d9 e539 0c14 d2ba 1815 0c3c
00000250: b07c 103b b512 2c3c 0043 0c3a 2996 8eba
00000260: 302a 8f3b 28ea 5f3b 3afd bc3a a568 933b
00000270: 6867 cfb9 29de 433b d6d5 6f3b ca92 073c
00000280: 5833 b1ba 6e4a 67ba a911 b03a 069c 0ebc
00000290: 3b85 02ba 4472 02bc 84d7 d839 68b0 4c3a
000002a0: d1b2 99bb e76e 67ba c52b 94b9 955c d2ba
000002b0: b054 1039 8c6d f9ba 0d1b ecba aaba 03bc
000002c0: 453e 1fba 53df 18ba bad3 7bba 90a5 3f3b
000002d0: de11 7f3b 052b 033c 9055 263b 51c6 40ba
000002e0: cbfa 1f3a 6d1a 943b 17eb c93a 599a 8d3b
000002f0: d00b fd3a 4e41 c43a 8bfe 533b e796 1f3b
00000300: ed70 41b8 2f36 e7b7 ab93 d137 6b4b 62b9
00000310: 2107 0138 de11 b6b8 8794 af37 5e31 0c37
00000320: 08a1 eab8 de23 1b38 dcf1 4037 3929 b337
00000330: 6cd1 58b6 ba0a 5eb8 affd 5cb7 ec3a 34b9
00000340: 0e74 37b9 e6f8 96b9 f0b4 a4b9 e400 983a
00000350: 23ac a53a 7609 0a3b a3be 953a da3c 4cb9
00000360: f0f5 e638 57d4 983a 04c5 4839 dc1b 693a
00000370: 943d 933a e43c 2f3a 514c 8f3a 2687 243a
00000380: dfcc 3639 01d7 4439 9bfb 31b9 2989 963a
00000390: 8f21 9638 9284 ac3a 6256 43b9 2fa0 f7b8
000003a0: 6866 273a 0cd6 8539 503a 7339 a80e d639
000003b0: 569e 18b9 82c7 1d39 89ba 1939 868f 8c3a
000003c0: 2c82 9e38 94b6 5038 d852 9ab8 3446 d039
000003d0: 51da 1338 cb97 e139 4592 24b8 0d1a 3cb8
000003e0: 607a 8e39 2dc6 aa38 4bb6 0038 5980 1439
000003f0: 2323 6ab8 458c b238 81a5 fd38 8ea5 fe39

exp_avg_sq f4 [16, 16]
2.9482198e-06 1.4741613e-06 2.887416e-06 1.0177297e-05 0.00011292349 8.745764e-06 2.560614e-05 2.5281863e-06
1.0528272e-06 3.6119007e-05 1.8656606e-06 5.7987756e-05 8.696887e-06 3.486947e-05 3.0832612e-06 8.5655614e-05
6.529011e-08 3.617855e-08 6.029354e-08 9.627522e-07 7.633628e-07 4.099379e-06 3.0835477e-07 5.2229595e-08
1.6998776e-07 1.3521171e-06 3.1599728e-07 1.6569761e-06 1.8764703e-07 4.363842e-07 6.184595e-07 5.8474086e-07
1.3205447e-05 8.365354e-06 7.1324407e-06 0.0003339799 8.511598e-06 0.000251098 8.819016e-06 4.4548783e-06
0.00015386134 1.769228e-05 3.0657002e-06 2.9935085e-05 8.42487e-06 2.206526e-05 1.6838325e-05 0.000370059
5.1976654e-06 4.318927e-06 5.275508e-06 0.00017110631 7.7917415e-05 0.00050428486 2.4043113e-05 4.6925297e-06
3.5427835e-05 0.0001206764 2.0201365e-05 0.00012911625 1.7903083e-05 3.299187e-05 5.901329e-05 0.00012060412
7.749048e-06 7.3134042e-06 1.3714757e-05 9.883262e-05 0.000179122 0.00073985517 7.392507e-05 8.43118e-06
3.263949e-05 0.0003109392 5.038265e-05 0.00037604108 2.4918581e-05 6.7848334e-05 0.00016117335 0.0001788713
5.1753967e-05 1.9569e-05 3.909328e-05 0.0011905971 4.6342222e-05 0.0013439006 4.044647e-05 1.737194e-05
0.00062560313 7.229485e-05 1.6646132e-05 0.00015578601 4.1569383e-05 4.8091937e-05 8.331507e-05 0.0017890525
8.9153355e-06 1.3305939e-06 8.72212e-07 4.7779406e-05 7.639169e-07 1.1087916e-05 2.8065443e-07 4.5654733e-06
1.0531594e-05 8.4197893e-07 3.430754e-07 7.967822e-07 7.7733023e-07 2.6202983e-06 1.8661864e-07 1.0073042e-05
5.6763143e-05 2.7757542e-05 3.617998e-05 0.0010330372 0.0003227954 0.001987597 0.0001380581 2.8407167e-05
0.00035365426 0.0005569082 0.00010910078 0.00063922984 9.8246695e-05 0.0002617606 0.0003204008 0.0009615081
2.79114e-06 5.5957884e-07 6.8871464e-07 9.4496145e-06 3.4801545e-07 3.982496e-06 2.6645617e-07 2.421963e-06
4.232424e-06 1.930139e-07 7.2408035e-08 2.1697774e-07 6.559597e-07 2.6287123e-07 1.1142686e-07 5.2394494e-06
3.85159e-05 1.7039869e-05 3.4365643e-05 0.0010455005 0.00011639966 0.0013021625 7.5633805e-05 1.5020731e-05
0.00043612826 0.00019481672 4.250122e-05 0.00027640956 7.605684e-05 0.00018120921 0.00014506375 0.0012351567
5.8303292e-05 1.550958e-05 1.8758925e-05 0.0006577571 1.15537805e-05 0.00071863766 2.1702823e-05 1.0020697e-05
0.00033797498 2.7807899e-05 4.565969e-06 6.882456e-05 2.2555634e-05 4.4124314e-05 3.33556e-05 0.00092281325
7.2478288e-06 4.4786334e-06 1.3482023e-05 9.716263e-05 0.00012478737 0.00060025946 7.414108e-05 6.811643e-06
7.373271e-06 0.0002222172 4.45312e-05 0.00027348255 3.2818047e-05 5.7311303e-05 0.000111541296 6.9589885e-05
4.1148772e-07 3.06545e-07 1.6839338e-07 3.0716137e-06 4.7404313e-07 2.925987e-06 3.681761e-07 5.219572e-07
2.3376595e-06 7.820383e-07 1.5208037e-07 8.5551903e-07 2.2999563e-07 2.3523205e-07 5.950298e-07 5.6365734e-06
4.6163245e-06 2.716103e-06 5.340395e-06 7.6027995e-05 7.5799006e-05 0.00037305467 3.570654e-05 3.2922076e-06
3.5915693e-06 0.00014235072 3.7129463e-05 0.00017305932 1.9460882e-05 6.010283e-05 6.9140515e-05 3.4297067e-05
3.1304673e-05 7.0517917e-06 9.328471e-06 0.00025362073 2.3086144e-05 0.0003883741 1.5768112e-05 5.2939204e-06
0.00016140493 3.2177948e-05 8.6576165e-06 6.408867e-05 1.13805445e-05 2.478501e-05 2.2039554e-05 0.00044786156
3.0334112e-07 2.2724086e-07 1.8916292e-07 5.247245e-06 5.3529527e-07 3.6998365e-06 3.5256622e-07 5.6288235e-07
3.1387744e-06 2.7404212e-07 5.545382e-08 3.7294456e-07 3.4244664e-07 2.2074897e-07 7.296053e-07 1.1367765e-05
00000000: 08da 4536 ccdb c535 6ec5 4136 28bf 2a37
00000010: 56d1 ec38 c5ba 1237 c4cc d637 e9a9 2936
00000020: de4e 8d35 7d7e 1738 9c67 fa35 e137 7338
00000030: d8e8 1137 cf40 1238 06ea 4e36 02a2 b338
00000040: 9e35 8c33 bd62 1b33 b97a 8133 ea37 8135
00000050: e4e9 4c35 668d 8936 f58b a534 0c53 6033
00000060: e185 3634 647a b535 56a6 a934 4465 de35
00000070: 067c 4934 3048 ea34 3704 2635 16f7 1c35
00000080: f78c 5d37 ec58 0c37 3353 ef36 061a af39
00000090: 09cd 0e37 cea5 8339 63f5 1337 1d7b 9536
000000a0: d755 2139 e269 9437 54bc 4d36 1b1d fb37
000000b0: 8b58 0d37 c918 b937 0740 8d37 7a04 c239
000000c0: 9b67 ae36 4deb 9036 4504 b136 006b 3339
000000d0: 9867 a338 fc31 043a 31b0 c937 8674 9d36
000000e0: 5998 1438 a613 fd38 1a76 a937 6163 0739
000000f0: 942e 9637 c060 0a38 0a85 7738 d8ec fc38
00000100: e801 0237 aa65 f536 6f18 6637 5c44 cf38
00000110: b2d2 3b39 d7f2 413a 3808 9b38 a473 0d37
00000120: 63e6 0838 8e05 a339 f551 5338 6127 c539
00000130: 3f08 d137 cc49 8e38 a400 2939 668f 3b39
00000140: 6612 5938 1c28 a437 17f8 2338 cf0d 9c3a
00000150: 955f 4238 d225 b03a 11a5 2938 f5b9 9137
00000160: 84ff 233a 019d 9738 4ca3 8b37 7d5a 2339
00000170: c95a 2e38 53b6 4938 70b9 ae38 a47e ea3a
00000180: 1393 1537 dc96 b235 f421 6a35 bf66 4838
00000190: f80f 4d35 3d06 3a37 daac 9634 1e31 9936
000001a0: dab0 3037 5a04 6235 ed2f b834 75e2 5535
000001b0: baa9 5035 62d8 2f36 5761 4834 63ff 2837
000001c0: f614 6e38 ded8 e837 f5bf 1738 fa66 873a
000001d0: dd3c a939 5842 023b b0c3 1039 ed4b ee37
000001e0: ac6a b939 7afd 113a 09cd e438 fd91 273a
000001f0: cb09 ce38 ea3c 8939 78fb a739 b70d 7c3a
00000200: 6c4f 3b36 f735 1635 1ce0 3835 c989 1e37
00000210: e1d6 ba34 61a1 8536 750d 8f34 0289 2236
00000220: 3f04 8e36 423f 4f34 bd7e 9b33 63fa 6834
00000230: 3515 3035 bf20 8d34 9049 ef33 87ce af36
00000240: 228c 2138 d7f0 8e37 d423 1038 2d09 893a
00000250: 971b f438 53ad aa3a 979d 9e38 8c01 7c37
00000260: 25a8 e439 b747 4c39 5643 3238 10eb 9039
00000270: b480 9f38 fa02 3e39 411c 1839 fbe4 a13a
00000280: af8a 7438 921a 8237 7c5c 9d37 556d 2c3a
00000290: 1cd7 4137 f562 3c3a 750e b637 911e 2837
000002a0: 3c32 b139 0245 e937 6035 9936 e755 9038
000002b0: db35 bd37 1f12 3938 4ee7 0b38 f3e8 713a
000002c0: 6032 f336 2b47 9636 d930 6237 cac3 cb38
000002d0: 5bd9 0239 bb5a 1d3a 307c 9b38 918f e436
000002e0: ea67 f736 fa02 6939 03c7 3a38 3562 8f39
000002f0: 1ca6 0938 8b61 7038 47eb e938 c9f0 9138
00000300: 71ea dc34 3993 a434 9fcf 3434 ec21 4e36
00000310: fe7f fe34 135c 4436 bda9 c534 a01c 0c35
00000320: afe0 1c36 43ed 5135 894b 2334 d2a6 6535
00000330: b8f4 7634 1894 7c34 23ba 1f35 cc21 bd36
00000340: ede5 9a36 4b46 3636 a531 b336 3871 9f38
00000350: 48f6 9e38 8d96 c339 9bc3 1538 b2ef 5c36
00000360: b106 7136 fb43 1539 75bb 1b38 4277 3539
00000370: ed3f a337 ec16 7c38 88ff 9038 32da 0f38
00000380: 234d 0338 6e9e ec36 7a81 1c37 66f8 8439
00000390: 1ea9 c137 b09e cb39 c345 8437 6ea2 b136
000003a0: ce3e 2939 cff6 0638 2e40 1137 5867 8638
000003b0: 11ef 3e37 67e9 cf37 95e1 b837 f6ce ea39
000003c0: e3da a234 7eff 7334 b51c 4b34 7e11 b036
000003d0: 36b1 0f35 b54a 7836 5548 bd34 fb18 1735
000003e0: bca3 5236 1020 9334 1f2c 6e33 1c39 c834
000003f0: 82d9 b734 0407 6d34 18da 4335 2eb8 3e37

exp_avg f4 [16]
-0.00010226472 0.00014472882 0.0010628456 0.0029098156 0.0030156267 0.0025375786 6.193007e-05 -0.0023075098
2.722351e-05 0.006175344 -0.004960355 0.0039092484 -8.072085e-05 0.0011593639 0.00066172075 0.00026861668
00000000: f476 d6b8 59c2 1739 2e4f 8b3a 9bb2 3e3b
00000010: d2a1 453b 814d 263b 74e0 8138 9739 17bb
00000020: 0b5e e437 8a5a ca3b 798a a2bb 2719 803b
00000030: ad48 a9b8 ccf5 973a 5477 2d3a 1fd5 8c39

exp_avg_sq f4 [16]
5.2418036e-05 9.714765e-07 0.00011968282 9.799298e-05 0.00021289437 0.00052328466 1.0503416e-05 0.0005956655
1.8218997e-06 0.0005055552 0.0002875262 0.00016054916 1.3848434e-06 9.0714864e-05 0.00013379286 2.3627601e-06
00000000: 70db 5b38 ae63 8235 3afe fa38 9581 cd38
00000010: 663c 5f39 0a2d 093a d437 3037 6f26 1c3a
00000020: ff87 f435 3c87 043a 1dbf 9639 1659 2839
00000030: dbde b935 2c3e be38 bf4a 0c39 e98f 1e36

exp_avg f4 [10, 16]
0.0 0.0 0.0 0.0 0.0 0.0 0.0 0.0
0.0 0.0 0.0 0.0 0.0 0.0 0.0 0.0
-5.3817703e-06 0.0017816751 -0.017286811 -0.0010323338 0.0018838149 0.0003307589 0.0015671396 -0.019084612
0.0013833189 0.0003438708 -0.050283253 0.001578861 0.0011321884 1.7876373e-05 0.0019058363 0.0009665004
-0.00012668638 -0.00061656936 -0.0008792359 0.0069131404 0.0031503006 0.0010311535 -9.791018e-05 0.009015463
-3.6362955e-05 0.0015623594 -0.00095136976 0.010466612 -0.000148577 0.0021381688 0.008797513 -7.4515454e-05
1.2982015e-05 4.6167537e-05 0.00038733633 -0.00031940418 3.9080962e-05 2.5283633e-05 9.125239e-06 -0.0019465663
-2.7399261e-05 -0.0018657064 -0.0016903349 -0.0017040656 -9.298636e-06 0.00010622494 0.00019767626 -1.9479474e-05
1.4897965e-06 3.7160436e-05 1.9110372e-05 -0.00034824517 9.797547e-06 -0.0001733336 1.3466843e-05 -0.0011255218
8.1388987e-07 -1.4517587e-05 1.906004e-06 -0.00063685054 1.8448321e-06 -0.0005214348 -0.0007844474 2.0288867e-07
-1.8953939e-05 -0.0018548863 0.016838208 0.0011205234 -0.00187363 -0.0003463685 -0.0015979342 0.021199916
-0.001383476 0.0017753183 0.052286673 5.9973376e-05 -0.0011484604 -0.00015811822 -0.0019407911 -0.0009745967
8.30957e-07 2.4570974e-05 -0.00043731247 -0.00044526957 2.6487807e-05 5.739101e-05 5.13718e-05 -0.0003545143
2.7066526e-05 5.670459e-05 -0.0013022294 0.0006356364 2.0468236e-05 0.0005844997 0.0008583401 5.5826954e-06
0.00018066623 0.00044173351 0.001231021 -0.0055493745 -0.002284149 -0.0005974506 3.3741857e-05 -0.006224424
1.2097782e-06 -0.0016362028 0.0018178127 -0.009249161 0.00010762974 -0.002097433 -0.006671725 5.0252787e-05
-7.601604e-05 0.00010830768 0.000100922654 -0.00036948264 -0.0009793368 -0.0003550348 -7.7547365e-06 -0.0013460388
3.3775505e-06 -1.180678e-05 0.0004587683 -0.0011492779 1.2151327e-05 -0.00010127021 -0.0023936322 1.5045858e-05
3.1069605e-05 3.1841508e-05 2.6756361e-05 3.0442821e-05 2.7634276e-05 2.760143e-05 2.8754852e-05 -0.00013371679
3.1452586e-05 -0.00021002606 -0.0003379904 -1.7395566e-06 3.2054184e-05 3.1485182e-05 3.1230942e-05 3.1007505e-05
00000000: 0000 0000 0000 0000 0000 0000 0000 0000
00000010: 0000 0000 0000 0000 0000 0000 0000 0000
00000020: 0000 0000 0000 0000 0000 0000 0000 0000
00000030: 0000 0000 0000 0000 0000 0000 0000 0000
00000040: 0e95 b4b6 1987 e93a 129d 8dbc 604f 87ba
00000050: 57ea f63a b569 ad39 7b68 cd3a 5557 9cbc
00000060: 7b50 b53a 8f49 b439 d0f5 4dbd c9f1 ce3a
00000070: f065 943a 38f5 9537 41cd f93a be5c 7d3a
00000080: 1ed7 04b9 45a1 21ba 867c 66ba a087 e23b
00000090: 4675 4e3b c527 873a 2155 cdb8 98b5 133c
000000a0: 6d84 18b8 15c8 cc3a 5865 79ba 277c 2b3c
000000b0: 56cb 1bb9 8520 0c3b 7223 103c 2e45 9cb8
000000c0: 54cd 5937 04a4 4138 6713 cb39 b475 a7b9
000000d0: ddea 2338 3018 d437 9a18 1937 ed23 ffba
000000e0: 77d7 e5b7 b88a f4ba 3a8e ddba f45a dfba
000000f0: 5601 1cb7 15c5 de38 5147 4f39 da67 a3b7
00000100: 05f5 c735 b7dc 1b38 364f a037 ad94 b6b9
00000110: 2560 2437 e2c0 35b9 a6ef 6137 3f86 93ba
00000120: 167a 5a35 9090 73b7 ccd1 ff35 51f2 26ba
00000130: f39b f735 e6b0 08ba 60a3 4dba 9dd9 5934
00000140: 46ff 9eb7 a81f f3ba 48f0 893c 87de 923a
00000150: 9794 f5ba cb98 b5b9 c671 d1ba 72ab ad3c
00000160: c055 b5ba ccb1 e83a 8d2a 563d ec8b 7b38
00000170: f087 96ba 89cc 25b9 2562 feba 147c 7fba
00000180: ee0e 5f35 c41d ce37 1647 e5b9 1273 e9b9
00000190: 2232 de37 21b7 7038 0d78 5738 1bde b9b9
000001a0: ec0c e337 17d6 6d38 91af aaba d6a0 263a
000001b0: 34b3 ab37 1c39 193a 3b02 613a fd52 bb36
000001c0: 3971 3d39 7898 e739 365a a13a 87d7 b5bb
000001d0: a9b1 15bb 3b9e 1cba 0b86 0d38 41f6 cbbb
000001e0: aa5f a235 db75 d6ba ac43 ee3a cb89 17bc
000001f0: 47b7 e138 1675 09bb 7c9e dabb 85c6 5238
00000200: cd6a 9fb8 3e23 e338 70a6 d338 1fb7 c1b9
00000210: 175d 80ba f723 bab9 571a 02b7 916d b0ba
00000220: e0a9 6236 bc15 46b7 d786 f039 5ea3 96ba
00000230: 8ddd 4b37 0861 d4b8 7cde 1cbb 786d 7c37
00000240: bc50 0238 8f8d 0538 d972 e037 765f ff37
00000250: 28d0 e737 9f89 e737 9336 f137 5436 0cb9
00000260: f5eb 0338 713a 5cb9 4e34 b1b9 b67a e9b5
00000270: eb71 0638 f50e 0438 f8fd 0238 0e0e 0238

exp_avg_sq f4 [10, 16]
0.0 0.0 0.0 0.0 0.0 0.0 0.0 0.0
0.0 0.0 0.0 0.0 0.0 0.0 0.0 0.0
0.00016191686 4.6047953e-05 0.0055846907 7.2717005e-05 0.00021214131 0.00020234936 3.80927e-05 0.0067786667
2.921474e-05 7.2800656e-05 0.03276617 7.2448376e-05 1.8892577e-05 9.342376e-06 0.0001369878 1.832335e-05
5.2285264e-05 5.73232e-06 1.7466522e-05 0.0008550052 0.00017942367 8.1793194e-05 1.1684584e-06 0.001714752
5.230064e-07 0.0002433959 2.9871298e-05 0.0025182192 7.513509e-07 0.00056456134 0.0012048443 5.5419247e-07
1.9412317e-05 4.508006e-06 0.0001397717 5.6027227e-05 5.6989586e-05 0.000110149296 4.856889e-06 0.0003683474
2.9640435e-06 0.00020655495 0.0010181055 0.00015584906 3.1188865e-06 3.4654615e-05 0.00032957888 2.9179182e-06
1.531946e-06 4.6140312e-07 5.5851615e-05 3.4689565e-05 1.5951438e-05 5.024218e-05 6.754713e-07 0.0002203327
5.012411e-07 4.4570447e-06 0.00044523692 4.3292242e-05 2.2419192e-07 2.8477623e-05 0.00010960379 2.9932738e-07
9.6178255e-06 5.074065e-05 0.0056077344 7.1704046e-05 6.47174e-05 0.00012542184 4.0549327e-05 0.00686978
3.387402e-05 0.00037716405 0.03290923 4.678058e-05 2.36528e-05 5.711323e-06 6.107125e-05 2.3038776e-05
7.1323334e-06 9.0681823e-07 4.9508395e-05 5.7558165e-05 0.00013714092 5.379372e-05 3.0538965e-06 0.00026118022
5.9893284e-07 2.107857e-05 0.00058584695 3.4609206e-05 2.0696942e-07 4.503239e-05 0.00027175492 1.6620872e-07
0.00013189684 4.100818e-06 0.000169594 0.0003232772 0.00011674146 0.00017713271 4.2156867e-06 0.0008619351
1.54601e-06 0.00030501874 0.0012939849 0.0006627853 6.945295e-07 0.0001666206 0.0009416715 9.579684e-07
0.00028760041 7.022943e-06 2.7208729e-05 0.00097498886 0.00024719423 0.00013026147 6.687347e-07 0.0021796045
3.8083726e-07 0.0004861629 0.0002066556 0.0028294513 7.661906e-07 0.00069834176 0.001661284 9.635164e-07
3.470929e-05 8.0397895e-06 7.29365e-06 8.478824e-06 4.1342813e-05 7.8849e-06 9.131534e-06 0.00018397064
8.142379e-06 0.00053541263 0.000552619 8.148071e-06 8.384297e-06 8.390219e-06 9.197656e-06 8.178359e-06
00000000: 0000 0000 0000 0000 0000 0000 0000 0000
00000010: 0000 0000 0000 0000 0000 0000 0000 0000
00000020: 0000 0000 0000 0000 0000 0000 0000 0000
00000030: 0000 0000 0000 0000 0000 0000 0000 0000
00000040: 3ac8 2939 9d23 4138 c8ff b63b a57f 9838
00000050: 4072 5e39 be2d 5439 bac5 1f38 941f de3b
00000060: 2d12 f537 8eac 9838 d235 063d 6def 9738
00000070: 807b 9e37 33bd 1c37 62a4 0f39 18b5 9937
00000080: e04c 5b38 4158 c036 1285 9237 6d22 603a
00000090: ad23 3c39 6388 ab38 edd3 9c35 88c1 e03a
000000a0: ba64 0c35 1738 7f39 2094 fa37 b508 253b
000000b0: 71b0 4935 12ff 133a deeb 9d3a d1c3 1435
000000c0: a2d7 a237 7a43 9736 ae8f 1239 c7fe 6a38
000000d0: 1a08 6f38 f4ff e638 5cf8 a236 c01e c139
000000e0: e1e9 4636 ac96 5839 f471 853a 6a6b 2339
000000f0: 104e 5136 1c5a 1138 54cb ac39 74d1 4336
00000100: 449d cd35 c3b6 f734 3742 6a38 a37f 1138
00000110: 74cf 8537 21bb 5238 0952 3535 1c09 6739
00000120: 078d 0635 b98d 9536 b06e e939 b194 3538
00000130: 68b9 7034 3be3 ee37 16db e538 3eb3 a034
00000140: 3f5c 2137 5cd2 5438 16c1 b73b d15f 9638
00000150: e4b8 8738 ab83 0339 8213 2a38 e41b e13b
00000160: f413 0e38 1abe c539 d4cb 063d 4436 4438
00000170: 006a c637 e4a3 bf36 6113 8038 6543 c137
00000180: 4752 ef36 136c 7335 3ca7 4f38 9c6a 7138
00000190: 7ccd 0f39 91a0 6138 8bf1 4c36 04ef 8839
000001a0: 5ac6 2035 e2d1 b037 8693 193a 5a29 1138
000001b0: 523b 5e34 29e1 3c38 547a 8e39 1b77 3234
000001c0: ca4d 0a39 c299 8936 0bd5 3139 887d a939
000001d0: 18d3 f438 b3bc 3939 7974 8d36 7cf3 613a
000001e0: 8080 cf35 ecea 9f39 ee9a a93a c5be 2d3a
000001f0: b46f 3a35 e0b6 2e39 81da 763a 8b93 8035
00000200: 13c9 9639 9fa6 eb36 4d3e e437 6596 7f3a
00000210: d999 8139 cc96 0839 1983 3335 b2d7 0e3b
00000220: e075 cc34 aee3 fe39 b1b1 5839 516e 393b
00000230: 38ac 4d35 ec10 373a 71bf d93a 2c52 8135
00000240: d194 1138 a2e2 0637 fabb f436 4640 0e37
00000250: 8267 2d38 6349 0437 a433 1937 3ee8 4039
00000260: 409b 0837 ef5a 0c3a a2dd 103a b3b3 0837
00000270: 48aa 0c37 b7c3 0c37 a24f 1a37 c935 0937

exp_avg f4 [10]
0.0 -0.0069190245 0.0034261572 -0.00031043094 -0.00015208616 0.0073012454 -0.00016780937 -0.0026225809
-0.00043998996 -0.00011548537
00000000: 0000 0000 fcb8 e2bb 6189 603b 56c1 a2b9
00000010: 5179 1fb9 493f ef3b fcf5 2fb9 9bdf 2bbb
00000020: 74ae e6b9 bc30 f2b8

exp_avg_sq f4 [10]
0.0 0.0007537748 0.00019537717 7.2373994e-05 8.61039e-06 0.0008109277 2.0706788e-05 0.00010251965
0.0002337729 0.000111558664
00000000: 0000 0000 f898 453a 29de 4c39 7ec7 9738
00000010: 5875 1037 7094 543a 7db3 ad37 d1ff d638
00000020: ef20 7539 9af4 e938

exp_avg f4 [16, 9]
0.0011485072 0.00011755626 -0.0003949099 8.130127e-06 0.00024976188 -0.0009723679 4.0022223e-05 9.424737e-05
0.0015207758 -8.372783e-05 8.805534e-05 -0.00024632172 1.220188e-06 0.00019812553 -0.00013722433 0.00025957008
0.00016709282 0.00057510036 -0.00032825753 -3.6182824e-05 0.000498347 5.265768e-07 -0.00021200762 8.36366e-05
1.6948186e-05 3.150826e-05 -0.0016359388 0.00013892209 -3.9535957e-05 0.00014753456 -1.05357085e-05 3.715825e-05
-3.1448533e-05 -0.00015206328 9.3906114e-05 -0.0018440989 0.00022428397 1.8058467e-05 -3.9579718e-05 -6.740277e-06
-0.00021042599 2.8770139e-05 -9.686942e-06 -0.00023715795 -0.0013834612 -0.00010755959 9.106986e-06 -8.9585876e-05
8.287357e-07 9.787888e-05 3.690131e-05 -9.512554e-06 1.4803658e-05 -0.00012977901 0.00042657222 -5.5877554e-05
-9.516012e-05 -3.923779e-06 -0.0002326039 -2.1186697e-06 8.4925074e-07 -0.00029141523 -0.00121816 9.753562e-06
1.2223123e-06 -4.1872645e-05 -3.7369125e-07 3.1325962e-06 3.6235706e-06 -2.9368923e-06 -4.0697723e-05 -0.00044899507
-0.00012417896 0.0002017424 -2.3680408e-05 -1.5266856e-05 -0.00043291596 0.0003519251 -0.00014488936 -0.00019076948
-0.0039534336 -0.0004116856 -0.00017366101 -0.00019109379 1.309096e-06 0.00023740811 0.00040384886 2.8163564e-05
-9.830454e-07 -0.00089825667 0.0005419043 2.9136809e-05 -3.0335206e-05 7.8844465e-08 -0.00022661469 -0.00031010734
1.4134982e-05 -0.00025622992 0.00041713554 0.0012369242 2.9553703e-05 -0.00015479788 3.5085357e-08 -0.0005261468
-0.0006660128 -1.1652186e-05 -0.00055647054 -0.00095328223 -8.36095e-05 0.00010852948 5.0152812e-05 -3.966184e-07
-9.280488e-05 0.00015530801 -9.612549e-05 -1.0873144e-05 -0.00028038456 4.6353092e-05 1.1257318e-05 -4.9053662e-05
3.7546874e-07 1.1302356e-05 -6.2135034e-05 2.8550694e-05 5.019084e-06 0.00014369136 9.499879e-06 -1.1732921e-05
-2.4331124e-05 3.6664304e-07 -5.595495e-05 8.9448804e-05 4.2305246e-06 -7.865837e-05 -0.0003885976 -8.54366e-05
-3.9337843e-05 7.2036295e-05 8.949635e-07 -4.9454335e-05 1.0995582e-05 5.8952595e-05 -2.3913167e-06 1.1952392e-06
00000000: 8289 963a 8988 f638 e90b cfb9 a166 0837
00000010: 79f2 8239 81e6 7eba 89dd 2738 aca6 c538
00000020: c554 c73a 0997 afb8 5aaa b838 be24 81b9
00000030: 57c5 a335 ebbf 4f39 e0e3 0fb9 e816 8839
00000040: a335 2f39 55c2 163a fb19 acb9 03c3 17b8
00000050: 80a3 023a 155a 0d35 5d4e 5eb9 0f66 af38
00000060: f42b 8e37 bd27 0438 ff6c d6ba 9dab 1139
00000070: 69d3 25b8 82b3 1a39 86c2 30b7 5eda 1b38
00000080: 9be7 03b8 2d73 1fb9 76ef c438 b1b5 f1ba
00000090: c52d 6b39 437c 9737 6602 26b8 8a2a e2b6
000000a0: cca5 5cb9 6757 f137 1985 22b7 9aad 78b9
000000b0: 4155 b5ba 9d91 e1b8 35ca 1837 0de0 bbb8
000000c0: 4976 5e35 5344 cd38 7bc6 1a38 1c98 1fb7
000000d0: 3a5d 7837 4a15 08b9 8ea5 df39 115e 6ab8
000000e0: b390 c7b8 01a9 83b6 22e7 73b9 782e 0eb6
000000f0: 11f8 6335 17c9 98b9 abaa 9fba 3ba3 2337
00000100: 550e a435 69a0 2fb8 bc9f c8b4 9839 5236
00000110: 782c 7336 6d17 45b6 d9b2 2ab8 1967 ebb9
00000120: 0936 02b9 d08a 5339 4aa5 c6b7 5311 80b7
00000130: fff8 e2b9 9682 b839 71ed 17b9 4b09 48b9
00000140: ce8b 81bb 82d7 d7b9 c618 36b9 5960 48b9
00000150: 32b4 af35 c1f0 7839 adbb d339 cb40 ec37
00000160: 2ff1 83b5 fc78 6bba 950e 0e3a d26a f437
00000170: 5c78 feb7 3451 a933 6b9f 6db9 e795 a2b9
00000180: 4925 6d37 9956 86b9 fcb2 da39 4a20 a23a
00000190: 18ea f737 3d51 22b9 c2b0 1633 1ded 09ba
000001a0: 5d97 2eba c27d 43b7 1be0 11ba b0e5 79ba
000001b0: 8257 afb8 529a e338 2c5b 5238 d1ee d4b4
000001c0: 3ea0 c2b8 2dda 2239 fb96 c9b8 cc6b 36b7
000001d0: 9400 93b9 416b 4238 d0dd 3c37 f8be 4db8
000001e0: 0894 c934 409f 3d37 7e4e 82b8 2680 ef37
000001f0: 9a69 a836 dbab 1639 ab61 1f37 83d8 44b7
00000200: b11a ccb7 09d7 c434 2cb1 6ab8 7696 bb38
00000210: eef3 8d36 64f5 a4b8 b0bc cbb9 6d2c b3b8
00000220: b0fe 24b8 3112 9738 6c3d 7035 306d 4fb8
00000230: aa79 3837 de43 7738 827a 20b6 1b6c a035
