Assets/onnx/Self_TTT_1/O_Behavior/O_Behavior-150001.onnx (onnx, 2542 bytes, 4 tensors)

network_body._body_endoder.seq_layers.0.weight f4 [9, 9]
1.8705722 -1.1061615 -1.6172036 2.0782502 -1.218852 0.050762348 2.333894 -0.0734675
-0.03161275 1.0032043 -0.5230912 0.9422127 0.09960785 1.1637493 -0.28098202 -0.86677706
-0.18900815 -1.5099859 -1.8216916 -1.0007288 -0.1773033 -0.90723336 0.50685936 -0.5451544
0.7337203 0.6721096 2.2426805 -2.2796845 1.4717565 0.71542 -1.0156711 -1.1898867
0.23309857 -0.20928164 0.5554025 -0.7201182 2.580649 0.96273595 1.7395799 -0.8160365
-2.079282 -1.6354048 -0.33260214 -1.0528736 -1.2594764 -0.8466978 2.6585624 -0.6480158
-0.96259695 2.637418 -0.6925288 -0.04749699 0.5731995 -0.59710526 -0.97019345 0.37412935
-1.436664 -0.6238831 -2.1017988 -0.22554272 -0.13833328 1.5167046 0.4701852 -0.3366476
-1.1402974 2.2277534 -0.6391637 -2.6557553 1.1389147 0.44919068 -1.0991119 0.87357885
-0.5921102 -1.5182434 -0.17453729 -0.3875361 -1.6185068 -0.029934606 2.2205544 -2.331717
1.9641532
00000000: e96e ef3f b396 8dbf 8700 cfbf 0d02 0540
00000010: 5803 9cbf 2eec 4f3d 855e 1540 2176 96bd
00000020: 5f7c 01bd 0069 803f 4ee9 05bf da34 713f
00000030: 33ff cb3d bdf5 943f e0dc 8fbe 1ae5 5dbf
00000040: 5a8b 41be 3847 c1bf 312d e9bf e217 80bf
00000050: ff8e 35be 7240 68bf 89c1 013f 3d8f 0bbf
00000060: 18d5 3b3f 600f 2c3f 1488 0f40 5ae6 11c0
00000070: 8462 bc3f c425 373f 8301 82bf 354e 98bf
00000080: 64b1 6e3e ed4d 56be dc2e 0e3f ab59 38bf
00000090: 5a29 2540 dd75 763f 8eaa de3f c5e7 50bf
000000a0: f512 05c0 f254 d1bf d44a aabe 90c4 86bf
000000b0: 8636 a1bf 30c1 58bf e325 2a40 5de4 25bf
000000c0: c16c 76bf 75cb 2840 9149 31bf 348c 42bd
000000d0: 34bd 123f e4db 18bf 995e 78bf e28d bf3e
000000e0: 9be4 b7bf ceb6 1fbf df83 06c0 acf4 66be
000000f0: 3da7 0dbe 6023 c23f 1dbc f03e 135d acbe
00000100: 44f5 91bf 8393 0e40 3ba0 23bf e5f7 29c0
00000110: f5c7 913f 52fc e53e b3af 8cbf dda2 5f3f
00000120: 8994 17bf cd55 c2bf e7b9 32be 226b c6be
00000130: 3b2b cfbf 6b39 f5bc 901d 0e40 da3a 15c0
00000140: 5f69 fb3f

network_body._body_endoder.seq_layers.0.bias f4 [9]
-0.04132117 -1.2900405 0.1244743 -1.1423932 -0.49898756 0.48242152 2.2636611 -0.49509156
-1.1931773
00000000: 6340 29bd 0c20 a5bf 62ec fe3d f139 92bf
00000010: 4c7b ffbe f4ff f63e d3df 1040 a47c fdbe
00000020: 09ba 98bf

action_model._discrete_distribution.branches.0.weight f4 [10, 9]
-0.028082853 -0.007880761 -0.03654251 0.029359126 -0.015008806 0.004114216 -0.027107155 -0.020562885
-0.0234126 0.8967423 0.18298428 -0.27832007 1.6559228 2.1262076 -0.9015444 0.20669909
-1.2003943 -1.6719328 -1.1474009 0.40675157 0.20805891 -1.8924755 1.7130328 2.5723577
-1.0522155 0.55601066 -0.08515561 -1.3974363 1.070081 -0.44503918 0.50241894 1.1667536
-1.4715846 -0.20707397 -0.26459235 -0.65825546 2.0223937 -1.2993745 -0.39850935 0.44056186
0.63574976 -0.3618264 -1.6100826 -0.35637566 -0.17647153 -1.0493897 -1.327217 -1.7023072
0.90777516 -0.37226367 2.0163705 0.9205396 -1.1287261 1.2376704 -0.765101 -0.91328037
-0.12652612 -0.28853482 -0.5903043 -0.34465083 -1.4018061 2.27248 -0.59024227 1.8658769
1.1331826 2.2290888 -0.3621625 -1.622797 -1.74461 0.95114857 -0.85512894 -0.61251366
-0.2910953 1.116413 0.47019458 -0.55193585 -1.3012456 1.2551789 -0.46146742 -0.3087885
2.614072 -0.65967697 -1.0694252 0.5547331 -0.067202464 -1.8068036 -0.9716702 2.1288369
0.4404906 -0.71331674
00000000: 030e e6bc 4f1e 01bc 99ad 15bd 8d82 f03c
00000010: 7fe7 75bc 8cd0 863b d30f debc 7f73 a8bc
00000020: c8cb bfbc e790 653f 3b60 3b3e f87f 8ebe
00000030: 47f5 d33f c913 0840 9dcb 66bf eda8 533e
00000040: 85a6 99bf e501 d6bf 08de 92bf be41 d03e
00000050: 650d 553e a33c f2bf a944 db3f 82a1 2440
00000060: ffae 86bf b756 0e3f 1166 aebd 31df b2bf
00000070: 6af8 883f 2ddc e3be 879e 003f 2f58 953f
00000080: e25c bcbf 330b 54be a678 87be 6e83 28bf
00000090: e66e 0140 e751 a6bf 6b09 ccbe 5391 e13e
000000a0: 7fc0 223f 4f41 b9be 3017 cebf df76 b6be
000000b0: f4b4 34be 6752 86bf 3fe2 a9bf 34e5 d9bf
000000c0: f463 683f 5899 bebe 370c 0140 7ca8 6b3f
000000d0: 197a 90bf fc6b 9e3f a9dd 43bf becc 69bf
000000e0: 1090 01be d6ba 93be 2f1e 17bf 1376 b0be
000000f0: 626e b3bf 5070 1140 1e1a 17bf 0ed5 ee3f
00000100: 210c 913f 64a9 0e40 5d6d b9be d0b7 cfbf
00000110: 614f dfbf 797e 733f bbe9 5abf b2cd 1cbf
00000120: 710a 95be 9fe6 8e3f 58bd f03e ab4b 0dbf
00000130: 378f a6bf b4a9 a03f 7545 ecbe 8719 9ebe
00000140: f54c 2740 97e0 28bf ede2 88bf fd02 0e3f
00000150: 72a1 89bd 5745 e7bf 61bf 78bf dd3e 0840
00000160: fc87 e13e ed9b 36bf

action_model._discrete_distribution.branches.0.bias f4 [10]
0.0 -0.06492499 -0.33861375 0.11013493 0.3663678 1.3183132 -0.0119292755 0.06189827
-1.600107 1.2843934
00000000: 0000 0000 65f7 84bd c85e adbe 6c8e e13d
00000010: 8f94 bb3e 7dbe a83f 0273 43bc 0a89 7d3d
00000020: 4ed0 ccbf 0167 a43f
