Assets/onnx/Self_TTT_1/O_Behavior/O_Behavior-4909.pt (torch, 14695 bytes, 21 tensors)

network_body._body_endoder.seq_layers.0.weight f4 [9, 9]
-0.02674963 0.053480506 0.2573026 0.28267917 0.5283713 -0.2638456 0.6903816 -0.50243
-0.26256442 0.13832958 -0.4020795 -0.5065883 0.52191496 0.09208311 0.12281631 0.14898701
0.0670002 0.16970707 0.7274999 0.11634504 0.42975712 -0.10145879 0.88297415 0.052697286
-0.2162993 -0.051454227 -0.045186125 0.1422133 0.23093137 0.14148161 -0.104804404 0.21406244
0.13172622 -0.50047004 -0.052905217 -0.44825175 0.019232897 0.25507656 0.12487878 0.09780199
0.30494103 0.19424474 0.24859665 0.42422968 0.33845738 -0.11026043 -0.00931354 0.12087967
-0.29821885 0.78205657 0.3889829 0.040366698 0.085943 -0.522899 0.27309477 -0.4848754
-0.32189754 0.0022133056 0.26665214 -0.26033646 0.59082747 0.0008814471 -0.31619263 -0.47815016
-0.34225443 0.4137469 -0.18589061 0.4393047 0.16339706 0.25519642 -0.1878434 -0.6800792
0.29907048 0.3253393 -0.034904245 -0.44055846 0.040127438 -0.23728015 0.15375629 0.2655767
-0.1502949
00000000: 0a22 dbbc 600e 5b3d 2bbd 833e 53bb 903e
00000010: 5743 073f c516 87be d9bc 303f 419f 00bf
00000020: d86e 86be 45a6 0d3e 5ddd cdbe c5af 01bf
00000030: 389c 053f 1296 bc3d 1e87 fb3d 0d90 183e
00000040: 6737 893d b1c7 2d3e 6f3d 3a3f 4f46 ee3d
00000050: 2009 dc3e a0c9 cfbd 980a 623f 1cd9 573d
00000060: 907d 5dbe abc1 52bd 1615 39bd 5da0 113e
00000070: 4679 6c3e 8ee0 103e b1a3 d6bd 2f33 5b3e
00000080: 3de3 063e ce1e 00bf 24b3 58bd 4181 e5be
00000090: 4f8e 9d3c 6599 823e 72c0 ff3d 694c c83d
000000a0: 3b21 9c3e 18e8 463e 1f90 7e3e a234 d93e
000000b0: 494a ad3e 38d0 e1bd d197 18bc c38f f73d
000000c0: 24b0 98be dc34 483f c428 c73e 8d57 253d
000000d0: e202 b03d b5dc 05bf 14d3 8b3e 9741 f8be
000000e0: c1cf a4be 1b0d 113b a186 883e d24a 85be
000000f0: 7840 173f ea10 673a 00e4 a1be 19d0 f4be
00000100: f93b afbe a2d6 d33e 1c5a 3ebe 8cec e03e
00000110: 8f51 273e 1ba9 823e 055a 40be ac19 2ebf
00000120: c41f 993e df92 a63e c1f7 0ebd e190 e1be
00000130: ab5c 243d 91f9 72be 4a72 1d3e abf9 873e
00000140: e8e6 19be

network_body._body_endoder.seq_layers.0.bias f4 [9]
0.028206762 -0.026239507 -0.0061010695 0.013711546 -0.04827675 0.0057750493 0.05595788 0.037726097
-0.046769314
00000000: de11 e73c 3cf4 d6bc 7beb c7bb 64a6 603c
00000010: d7bd 45bd a03c bd3b 1734 653d ae86 1a3d
00000020: 2e91 3fbd

action_model._discrete_distribution.branches.0.weight f4 [10, 9]
0.034958947 0.07656517 -0.0067765536 -0.02508663 -0.042668648 0.014817749 -0.044471428 0.034536656
-0.019075159 -0.004679662 0.0031716295 0.02368024 0.044673953 0.045001026 0.04950579 0.038057514
-0.009361153 -0.02532547 -0.04511224 0.027854133 0.0027902501 0.023202833 0.0015604064 -0.009748001
-0.00010708516 -0.02635298 0.040307194 0.016459066 -0.0070721954 -0.025954638 -0.0061345603 -0.0043294146
0.033366457 0.0091647785 0.0061558504 0.001286573 -0.042887304 -0.020409007 -0.012063842 -0.022163887
0.0001894538 -0.0039956756 -0.03241576 -0.0074532153 0.03701169 -0.008369192 0.021330904 -0.018307686
0.015859982 -0.121076144 0.016047735 0.09451512 0.014501926 -0.02947004 0.027891353 0.0084374035
-0.036722824 -0.04542072 0.06594258 0.06565147 0.013357799 0.009686374 -0.012526086 0.026921194
-0.0076017138 0.06426424 0.016304731 0.04041255 -0.021971341 0.06402015 0.00816302 0.029635778
0.0038539276 -0.006558525 -0.011838752 0.017579459 0.036229495 -0.019612418 0.033762988 -0.020761302
-0.0312372 -0.06460776 0.013359038 0.01038871 0.06559966 0.03000216 -0.018145528 -0.0072099795
-0.0070339916 0.014240986
00000000: 1d31 0f3d 33ce 9c3d da0d debb 7a82 cdbc
00000010: 52c5 2ebd 25c6 723c ac27 36bd 4f76 0d3d
00000020: 8243 9cbc da57 99bb 1ddb 4f3b 10fd c13c
00000030: 09fc 363d ff52 383d 95c6 4a3d 32e2 1b3d
00000040: 855f 19bc 5c77 cfbc 9dc7 38bd 5a2e e43c
00000050: a1dc 363b de13 be3c 8d86 cc3a 14b6 1fbc
00000060: e892 e0b8 34e2 d7bc 2819 253d 2ad5 863c
00000070: e0bd e7bb d29e d4bc 6c04 c9bb c3dd 8dbb
00000080: 44ab 083d de27 163c 04b7 c93b 3aa2 a83a
00000090: 99aa 2fbd ca30 a7bc 6ca7 45bc 0a91 b5bc
000000a0: 1ea8 4639 28ee 82bb 63c6 04bd 1a3a f4bb
000000b0: 9299 173d ef1e 09bc 26be ae3c 00fa 95bc
000000c0: cbec 813c c5f6 f7bd 8a76 833c 2591 c13d
000000d0: 7c99 6d3c 276b f1bc 687c e43c 093d 0a3c
000000e0: ac6a 16bd 140b 3abd e70c 873d 4774 863d
000000f0: abda 5a3c 99b3 1e3c 363a 4dbc d689 dc3c
00000100: cc17 f9bb f89c 833d 8091 853c a187 253d
00000110: 3efd b3bc ff1c 833d 30be 053c bbc6 f23c
00000120: 2d92 7c3b e5e8 d6bb 53f7 41bc cc02 903c
00000130: 6165 143d 39aa a0bc 0f4b 0a3d 9b13 aabc
00000140: 28e5 ffbc 1351 84bd dedf 5a3c 6835 2a3c
00000150: 1d59 863d 17c7 f53c eea5 94bc b141 ecbb
00000160: 667d e6bb 0653 693c

action_model._discrete_distribution.branches.0.bias f4 [10]
0.0 -0.0022834514 -0.04960794 0.015957447 -0.03555396 0.055727288 -0.014467759 0.02924777
-0.008147992 0.0024678719
00000000: 0000 0000 f5a5 15bb b231 4bbd 31b9 823c
00000010: 07a1 11bd 4c42 643d 2e0a 6dbc 0599 ef3c
00000020: 287f 05bc 05bc 213b

exp_avg f4 [9, 9]
-1.3707141e-06 -3.7206144e-05 -0.00036430106 5.0924446e-05 0.0002763217 -0.00076690584 0.00048075628 0.00081519794
-0.00035810744 0.00014789321 6.0199985e-05 0.00013640188 -8.373526e-06 -0.00037884354 0.00011670236 -0.00010365184
-0.00017029411 -0.00015720057 0.00010965975 -4.0318475e-05 -0.00036250497 5.2893152e-05 6.125e-05 -0.00016395157
-0.00030626956 0.00024185206 0.00031604705 0.00027579803 -0.000214624 -0.00052957 0.00041101192 0.00028484935
-0.00017154346 -0.00043110523 -0.00055440445 0.00018833937 0.00094096793 0.0010051951 -0.00022560864 -0.001061299
-0.00021573307 0.00041008208 -0.00022156672 0.0004215897 0.0009275086 4.936964e-05 -0.00033477886 0.00018974779
0.00055194536 -0.00019994896 -0.00093061867 0.00014281702 0.00012819075 -6.0982955e-05 -0.0009461411 9.230062e-05
-0.00038665195 0.0010282882 0.00032031306 -0.00069781026 0.000101465346 9.1744194e-05 -0.00043670475 -0.00010155322
-1.114938e-05 -0.00013341595 0.0003384299 -1.6751972e-05 -0.00018389134 4.8057507e-05 0.0001267955 -0.00017836082
0.0004775302 -8.6493084e-05 0.0002281893 -0.0009227449 0.00025254645 0.0001667502 -0.00025604255 0.0003776756
0.00027594782
00000000: 61f9 b7b5 cb0d 1cb8 a9ff beb9 b597 5538
00000010: 45df 9039 2e0a 49ba 040e fc39 02b3 553a
00000020: 5ec0 bbb9 c813 1b39 3e7f 7c38 1a07 0f39
00000030: 057c 0cb7 859f c6b9 1abe f438 a85f d9b8
00000040: fa90 32b9 35d6 24b9 21f9 e538 a21b 29b8
00000050: 980e beb9 97d9 5d38 5873 8038 6aea 2bb9
00000060: ce92 a0b9 ab99 7d39 1eb3 a539 fc98 9039
00000070: b10c 61b9 d7d2 0aba 167d d739 d557 9539
00000080: 59e0 33b9 f705 e2b9 7455 11ba f77c 4539
00000090: 4aab 763a c0c0 833a 5c91 6cb9 491b 8bba
000000a0: 6836 62b9 4900 d739 5d54 68b9 d008 dd39
000000b0: 0c24 733a 3f12 4f38 4285 afb9 09f7 4639
000000c0: 6db0 103a 64a9 51b9 c3f4 73ba 27c1 1539
000000d0: f16a 0639 f3c7 7fb8 7406 78ba 8591 c138
000000e0: 8cb7 cab9 a0c7 863a b1ef a739 41ed 36ba
000000f0: cbc9 d438 ca66 c038 85f5 e4b9 f8f8 d4b8
00000100: 390e 3bb7 92e5 0bb9 4b6f b139 9686 8cb7
00000110: f5d2 40b9 5b91 4938 68f4 0439 5e06 3bb9
00000120: 055d fa39 9f63 b5b8 1946 6f39 5de4 71ba
00000130: 3668 8439 aad9 2e39 733d 86b9 c302 c639
00000140: 17ad 9039

exp_avg_sq f4 [9, 9]
9.2763673e-07 7.6869105e-07 9.006564e-07 9.724713e-07 1.0616006e-06 1.0226859e-06 9.0194237e-07 9.1091914e-07
5.925824e-07 3.522068e-07 1.9298173e-07 3.116716e-07 3.9246822e-07 4.0248483e-07 3.917863e-07 3.0184208e-07
3.669754e-07 3.8863826e-07 1.1698615e-06 8.6355675e-07 1.0501572e-06 9.3977275e-07 8.531952e-07 7.7460663e-07
4.338755e-07 1.0380708e-06 1.0509189e-06 7.156569e-07 7.7767845e-07 7.4537337e-07 5.526356e-07 7.4079276e-07
4.912511e-07 7.4674347e-07 7.962669e-07 4.0886604e-07 4.013104e-06 3.6580734e-06 3.1007296e-06 3.3959566e-06
6.342469e-07 3.0772735e-06 3.4769153e-06 3.557108e-06 3.7775246e-06 6.344015e-07 8.8158794e-07 8.6845404e-07
7.3673084e-07 9.711501e-07 6.254871e-07 7.1816584e-07 9.092517e-07 7.6984537e-07 1.4581608e-06 1.0717874e-06
1.1541301e-06 1.1366113e-06 7.201321e-07 1.1069923e-06 1.5452911e-06 1.4484876e-06 9.671778e-07 1.6848229e-07
9.4973224e-08 2.3625554e-07 2.215278e-07 1.4166942e-07 1.8816135e-07 2.0423353e-07 1.900258e-07 2.2943534e-07
9.4592633e-07 5.639394e-07 6.9555955e-07 7.809469e-07 4.1137517e-07 7.757898e-07 7.730773e-07 7.424943e-07
9.1956065e-07
00000000: b602 7935 0c58 4e35 a3c4 7135 dc85 8235
00000010: 527c 8e35 3843 8935 021d 7235 e385 7435
00000020: f411 1f35 ef16 bd34 6a36 4f34 d253 a734
00000030: 6cb4 d234 1815 d834 b356 d234 dc0c a234
00000040: b704 c534 09a6 d034 2304 9d35 2bcf 6735
00000050: 20f3 8c35 b144 7c35 2107 6535 90ee 4f35
00000060: 65ef e834 d753 8b35 4c0d 8d35 911b 4035
00000070: a8c1 5035 ab15 4835 d458 1435 e4da 4635
00000080: 85de 0335 d273 4835 0bbf 5535 1f82 db34
00000090: 4da8 8636 397d 7536 2116 5036 17e6 6336
000000a0: 1d41 2a35 2883 4e36 f354 6936 a6b6 6e36
000000b0: 6181 7d36 bd4b 2a35 43a6 6c35 b51f 6935
000000c0: c2c3 4535 7758 8235 25e7 2735 fbc7 4035
000000d0: 4d13 7435 5fa7 4e35 06b6 c335 56da 8f35
000000e0: 9ce7 9a35 ab8d 9835 1a4f 4135 f793 9435
000000f0: cc67 cf35 a869 c235 facf 8135 0fe8 3434
00000100: 15f4 cb33 6ead 7d34 19dd 6d34 cb1d 1834
00000110: 6609 4a34 494b 5b34 e509 4c34 b55a 7634
00000120: 90eb 7d35 9f61 1735 7db6 3a35 43a2 5135
00000130: f9da dc34 de3f 5035 7885 4f35 d24f 4735
00000140: bad7 7635

exp_avg f4 [9]
-0.0002635303 -0.00032250996 -0.00018267725 -0.0008921392 0.0027070767 -0.0005993192 -0.0017947158 -0.0005479878
0.0010390575
00000000: 702a 8ab9 8e16 a9b9 0d8d 3fb9 73de 69ba
00000010: 3669 313b a11b 1dba ab3c ebba d7a6 0fba
00000020: fc30 883a

exp_avg_sq f4 [9]
2.4499805e-06 9.0228593e-07 2.377725e-06 2.0535306e-06 9.915379e-06 2.032348e-06 3.8577396e-06 5.156091e-07
2.339114e-06
00000000: 586a 2436 9e34 7235 0191 1f36 63cf 0936
00000010: 3b5a 2637 7963 0836 bb71 8136 6368 0a35
00000020: acf9 1c36

exp_avg f4 [10, 9]
0.0 0.0 0.0 0.0 0.0 0.0 0.0 0.0
0.0 0.005738696 0.005750663 -0.0005197907 -0.0027192344 -0.0013735781 -0.007514514 0.002604048
-0.003381478 -0.003675095 -0.009823518 -0.0021494785 0.0042206254 0.002982527 -0.001052471 0.0016467598
-0.0029472525 -0.0027380707 0.004464036 -0.0015238235 0.00092160446 0.006670439 0.0009032575 0.0005161064
0.00027137832 0.0061817076 -0.00083030126 0.0023590834 0.005943447 0.001505017 0.0053204875 0.00246039
0.0015228592 0.0066701006 0.0011580396 0.0073829303 -0.0029897986 0.00068966486 0.0010060084 -0.007978854
-0.0037447186 -0.002421306 -0.0024978993 -0.00023339028 0.0006040043 -0.007003346 0.00023451463 -0.0029179123
-0.0040979087 -0.0013931589 0.0009620647 4.89869e-05 -0.0011411482 0.00070652954 0.0034632594 -0.003284223
-0.0039699674 -0.0003343967 0.0005118525 0.0026279145 0.00012504478 0.00096277695 -0.00095041626 0.0042292736
0.0023461797 0.0012699907 -0.0034614431 -0.0016367886 0.0021506394 -4.0596417e-05 -0.0005727824 -0.0007720582
0.0021140578 -0.00032093583 -0.001415926 0.00018084144 0.0026358743 -0.002932229 0.0012907394 -0.0060119955
-2.1135917e-05 -0.00296147
00000000: 0000 0000 0000 0000 0000 0000 0000 0000
00000010: 0000 0000 0000 0000 0000 0000 0000 0000
00000020: 0000 0000 ac0b bc3b 0f70 bc3b 9042 08ba
00000030: 2f35 32bb a209 b4ba 503c f6bb ada8 2a3b
00000040: c99b 5dbb ddd9 70bb d2f2 20bc 44de 0cbb
00000050: 2c4d 8a3b 8076 433b 11f3 89ba 17d8 d73a
00000060: b126 41bb 3471 33bb 0c47 923b 08bb c7ba
00000070: d497 713a b393 da3b 96c8 6c3a 504b 073a
00000080: c847 8e39 ec8f ca3b 93a8 59ba da9a 1a3b
00000090: 3fc1 c23b fe43 c53a 7c57 ae3b 7f3e 213b
000000a0: ad9a c73a dc90 da3b 5cc9 973a 82ec f13b
000000b0: 7ff0 43bb a0ca 343a 0adc 833a bdb9 02bc
000000c0: f469 75bb c6ae 1ebb ccb3 23bb 3aba 74b9
000000d0: 0b56 1e3a 537c e5bb 0be8 7539 723a 3fbb
000000e0: c047 86bb a89a b6ba 1233 7c3a 4977 4d38
000000f0: 9492 95ba 6536 393a daf7 623b 1e3c 57bb
00000100: 8016 82bb f751 afb9 d72d 063a 1739 2c3b
00000110: 741e 0339 de62 7c3a 5b25 79ba b895 8a3b
00000120: 5dc2 193b d175 a63a 61d9 62bb 8389 d6ba
00000130: bef1 0c3b 1246 2ab8 c726 16ba f363 4aba
00000140: 018c 0a3b 4743 a8b9 9896 b9ba 41a0 3d39
00000150: a2be 2c3b a42a 40bb 072e a93a 4600 c5bb
00000160: 094d b1b7 3915 42bb

exp_avg_sq f4 [10, 9]
0.0 0.0 0.0 0.0 0.0 0.0 0.0 0.0
0.0 0.00017406298 0.00017826165 0.00010599965 5.0997583e-05 1.8031087e-05 0.00010843572 0.00019005506
0.00012545333 4.0452163e-05 0.00020882394 7.019343e-05 0.00016269523 4.1767045e-05 2.2165756e-05 0.00015714447
0.00010315528 0.00017965668 4.3106927e-05 0.00015096311 6.4435604e-05 0.00013056344 6.217541e-05 2.3255187e-05
0.00013268157 9.926606e-05 9.9936e-05 5.5146764e-05 0.0001404802 4.0358416e-05 0.00013160419 4.7661546e-05
2.1519054e-05 0.00013305485 0.000101950725 0.00018821718 2.6584225e-05 0.00016063798 8.3114566e-05 9.7650074e-05
4.1797924e-05 2.088822e-05 6.887098e-05 8.665029e-05 0.00017284199 6.6942725e-05 0.00011672707 9.288671e-05
0.00012112512 3.8332728e-05 1.669759e-05 8.4270636e-05 0.00011990586 0.00013004652 3.4893153e-05 0.00010061451
0.00010172078 0.00014881502 3.866995e-05 2.9440655e-05 0.00015524634 5.2929092e-05 0.00016862129 5.3569674e-05
0.00013245233 0.00012487225 0.00010171788 5.3785538e-05 1.4726015e-05 0.00011087686 0.00012766033 0.00011049366
3.776705e-05 0.00014827524 0.00010238336 0.00015442277 4.486283e-05 1.992285e-05 7.174098e-05 0.0001428882
8.12685e-05 5.282314e-05
00000000: 0000 0000 0000 0000 0000 0000 0000 0000
00000010: 0000 0000 0000 0000 0000 0000 0000 0000
00000020: 0000 0000 ad84 3639 bfeb 3a39 214c de38
00000030: 3de6 5538 7741 9737 fc67 e338 8449 4739
00000040: 1f8c 0339 2eab 2938 c0f7 5a39 d034 9338
00000050: 2b99 2a39 062f 2f38 99f0 b937 26c7 2439
00000060: 1255 d838 3962 3c39 b6cd 3438 da4b 1e39
00000070: 9a21 8738 dbe7 0839 2b64 8238 2214 c337
00000080: 7020 0b39 0f2d d038 bb94 d138 634d 6738
00000090: de4d 1339 8546 2938 3bff 0939 32e8 4738
000000a0: d183 b437 a484 0b39 61ce d538 2a5c 4539
000000b0: 3001 df37 ee70 2839 cb4d ae38 7cc9 cc38
000000c0: 2e50 2f38 1c39 af37 d36e 9038 05b8 b538
000000d0: eb3c 3539 9a63 8c38 5ecb f438 2ccc c238
000000e0: 8e04 fe38 74c7 2038 cd11 8c37 74ba b038
000000f0: f875 fb38 195d 0839 3d5a 1238 0101 d338
00000100: ee52 d538 3a0b 1c39 8b31 2238 53f7 f637
00000110: 9fc9 2239 2e00 5e38 efcf 3039 00b0 6038
00000120: e7e2 0a39 24f0 0239 5f51 d538 c897 6138
00000130: c10f 7737 9086 e838 8fdc 0539 d5b8 e738
00000140: 1068 1e38 557a 1b39 a6b6 d638 8cec 2139
00000150: 192b 3c38 ff1f a737 a573 9638 42d4 1539
00000160: b26e aa38 6a8e 5d38

exp_avg f4 [10]
0.0 -0.0086941635 0.020099727 -0.0037552565 0.017374681 -0.036072906 0.008659618 -0.005865434
0.02289091 -0.01463717
00000000: 0000 0000 f771 0ebc 2fa8 a43c c01a 76bb
00000010: 5955 8e3c 2fc1 13bd 12e1 0d3c d432 c0bb
00000020: b885 bb3c bed0 6fbc

exp_avg_sq f4 [10]
0.0 0.0008261764 0.0009908095 0.00092193607 0.0007954018 0.001084787 0.0007232479 0.00096081564
0.0007883047 0.0008712128
00000000: 0000 0000 c293 583a 0dde 813a 15ae 713a
00000010: 8382 503a 692f 8e3a 5898 3d3a 3fdf 7b3a
00000020: 3ca6 4e3a 1a62 643a

exp_avg f4 [9, 9]
-0.0015664578 -0.0010723199 -9.190162e-05 0.00015272375 -0.0001190422 0.001283842 0.0012331104 0.00085719087
-0.0023293667 -0.005937044 -0.0033603837 0.0016329507 0.0020709569 -0.0011064347 0.0026050424 0.0055611227
0.0014695283 -0.0070230947 0.021846471 0.0085463645 0.0010048677 -0.0026013588 0.0010064354 -0.016226536
-0.010129993 -0.007238104 0.020192537 -0.012144163 -0.0033016447 -0.0012051688 0.002762781 0.0018162853
0.012020863 0.011820706 0.0019302992 -0.015143535 -0.013772844 -0.0065009654 0.002024537 0.0026877318
-0.0022014352 0.010412202 0.010397209 0.006312121 -0.017080182 0.0009942092 0.0003665285 0.00040817488
-7.240337e-05 -0.0001344298 -0.0013282716 -0.0009588519 -0.0005780498 0.0017061468 0.0041707237 0.004555334
-0.001168616 -0.0006656748 0.0004079169 -0.0027478763 -0.007389788 -0.0013596417 0.006450703 -0.014776627
-0.0026156483 -0.0027600054 0.0056107123 0.000693142 0.005158303 0.01172049 0.009762698 -0.01445996
0.00076949515 0.0007531458 -0.00010762582 8.3427796e-05 -0.00022636438 -0.00050984154 -0.0008511196 -0.0003333054
0.00082552264
00000000: 9a51 cdba 168d 8cba 4ebb c0b8 7824 2039
00000010: 4ba6 f9b8 9746 a83a 52a0 a13a 1bb5 603a
00000020: 4aa8 18bb 898b c2bb e239 5cbb bc08 d63a
00000030: e4b8 073b ca05 91ba 5cb9 2a3b 143a b63b
00000040: 309d c03a fd21 e6bb 5ff7 b23c 0d06 0c3c
00000050: c4b5 833a 8f7b 2abb 5eea 833a 83ed 84bc
00000060: 45f8 25bc 9e2d edbb d26a a53c 50f8 46bc
00000070: 6860 58bb c1f6 9dba c60f 353b 6c10 ee3a
00000080: 27f3 443c a2ab 413c 1802 fd3a 971c 78bc
00000090: 7fa7 61bc 0d06 d5bb 18ae 043b a824 303b
000000a0: f445 10bb f197 2a3c 0e59 2a3c e9d5 ce3b
000000b0: bdeb 8bbc 2050 823a 9f2a c039 4e00 d639
000000c0: 43d7 97b8 baf5 0cb9 6619 aeba 765b 7bba
000000d0: 4488 17ba c9a0 df3a 91aa 883b e944 953b
000000e0: 3f2c 99ba ae80 2eba aedd d539 b715 34bb
000000f0: 0926 f2bb 0136 b2ba 6b60 d33b aa19 72bc
00000100: 4c6b 2bbb 35e1 34bb 11da b73b f9b3 353a
00000110: fb06 a93b 4c07 403c b9f3 1f3c 78e9 6cbc
00000120: f2b7 493a c26e 453a 2cb5 e1b8 f5f5 ae38
00000130: 3a5c 6db9 e3a6 05ba ab1d 5fba 7ebf aeb9
00000140: e367 583a

exp_avg_sq f4 [9, 9]
8.303562e-07 7.236396e-07 6.106024e-07 6.439717e-07 5.54277e-07 7.569215e-07 5.8750516e-07 7.374257e-07
1.0282218e-06 3.847498e-05 2.8137918e-05 2.4148414e-05 2.4149826e-05 2.5643003e-05 2.5467682e-05 2.3891303e-05
2.9016943e-05 2.9295526e-05 0.0007105563 0.00044641405 0.00036426247 0.0003853611 0.00033510115 0.0004038411
0.0003041584 0.00046190454 0.0004846183 0.00038755106 0.00031024264 0.0003088305 0.0003282856 0.00030769288
0.00036127737 0.0002872322 0.00035023937 0.00031218235 0.00022468159 0.00016582356 0.00013020038 0.00015012767
0.00015185396 0.00019328273 0.00014114632 0.0001909879 0.00020366802 3.286122e-06 3.1235304e-06 3.0222131e-06
2.7608937e-06 2.3241057e-06 3.0613562e-06 2.5247443e-06 3.4357677e-06 3.669875e-06 5.1237286e-05 4.7865637e-05
4.0105366e-05 3.8994745e-05 4.3342385e-05 3.924132e-05 4.428848e-05 4.518032e-05 4.3594966e-05 0.00027201933
0.0002454901 0.00024615595 0.00022891651 0.00022105256 0.00019328954 0.00022197078 0.00027962096 0.00022542145
1.2726716e-06 1.1343735e-06 6.803369e-07 8.704258e-07 7.090259e-07 9.028465e-07 7.398875e-07 8.886748e-07
8.252652e-07
00000000: a5e5 5e35 2240 4235 47e8 2335 66dd 2c35
00000010: a0c9 1435 402f 4b35 0cb5 1d35 82f3 4535
00000020: 6f01 8a35 3260 2138 b809 ec37 5392 ca37
00000030: 5b95 ca37 ee1b d737 6ea3 d537 2f6a c837
00000040: 6969 f337 aabf f537 a044 3a3a ae0c ea39
00000050: 7bfa be39 4b0a ca39 84b0 af39 a3ba d339
00000060: 7377 9f39 c72b f239 5e14 fe39 3930 cb39
00000070: 10a8 a239 87ea a139 bf1d ac39 d751 a139
00000080: d469 bd39 a797 9639 55a0 b739 68ac a339
00000090: 8198 6b39 ece0 2d39 6686 0839 976b 1d39
000000a0: fd3a 1f39 f0ab 4a39 ad00 1439 ed43 4839
000000b0: b88f 5539 2587 5c36 d89d 5136 3ad1 4a36
000000c0: cb47 3936 d5f7 1b36 b371 4d36 c76e 2936
000000d0: 0a92 6636 f947 7636 9ee7 5638 56c3 4838
000000e0: cf36 2838 4a8e 2338 88ca 3538 0c97 2438
000000f0: 65c2 3938 0080 3d38 bdd9 3638 d19d 8e39
00000100: 20b5 8039 7e0e 8139 4f09 7039 58ca 6739
00000110: c4ad 4a39 d4c0 6839 179a 9239 1c5f 6c39
00000120: aad0 aa35 c740 9835 65a0 3635 35a7 6935
00000130: e453 3e35 245b 7235 af9c 4635 448d 6e35
00000140: cb87 5d35

exp_avg f4 [9]
-0.0030508235 -0.008570319 0.028991465 -0.011623959 -0.018567383 0.0012615598 0.006106665 -0.007984775
0.0010386328
00000000: 53f0 47bb 866a 0cbc 827f ed3c 6b72 3ebc
00000010: a01a 98bc ec5a a53a 6b1a c83b 93d2 02bc
00000020: bc22 883a

exp_avg_sq f4 [9]
3.2376372e-06 0.000118820186 0.0020977736 0.0009848524 0.00077463215 1.1308836e-05 0.00014971617 0.000761025
3.863463e-06
00000000: 2f46 5936 1a2f f938 cd7a 093b 2a16 813a
00000010: af10 4b3a 15bb 3d37 21fd 1c39 867f 473a
00000020: e5a2 8136

exp_avg f4 [1, 9]
-0.045464512 -0.01402218 -0.015591126 0.011206306 -0.006913566 0.0023557781 0.0033286607 0.019541021
-0.0073753293
00000000: ff38 3abd 49bd 65bc ec71 7fbc a79a 373c
00000010: 328b e2bb 6663 1a3b a925 5a3b 7e14 a03c
00000020: bfac f1bb

exp_avg_sq f4 [1, 9]
0.0011475353 0.00026501506 0.0008562698 0.0010196222 0.00018919063 0.0007978682 0.00040940015 0.001539181
0.00038358656
00000000: e568 963a b8f1 8a39 4b77 603a d8a4 853a
00000010: 7961 4639 0728 513a c2a4 d639 58be c93a
00000020: 1e1c c939

network_body._body_endoder.seq_layers.0.weight f4 [9, 9]
0.3304587 0.34466416 0.02658435 0.021614013 0.1743453 -0.06652385 0.17908582 0.1291778
0.8154345 0.16059658 0.045644045 -0.19975273 -0.30602917 0.39959395 -0.00024230072 -0.25696027
0.20938376 -0.060989965 0.6060397 0.12574114 0.43136624 -0.078759074 -0.22414888 0.37942702
-0.14783686 0.112970494 0.1700947 0.019064954 -0.48414263 0.4326666 0.011230334 -0.56051683
0.38715348 -0.17189276 0.3344338 -0.11506372 -0.019994892 -0.08658847 -0.38855448 -0.092770204
-0.041925244 0.18241447 0.035894625 -0.2971765 0.17161605 -0.15657538 -0.0107654985 0.7748113
-0.12810491 -0.40356594 0.37115625 0.12923561 0.0754351 0.33207583 -0.0047237533 0.0665613
0.17408684 0.2035521 0.45172983 0.077805966 -0.48236686 0.27241373 -0.39312655 0.107535295
-0.40677285 0.48444638 0.04697132 0.6345452 -0.35795847 0.16681081 0.16059738 -0.5762502
0.15842 0.3676358 -0.34565482 0.2607098 -0.32190424 -0.3189872 -0.043991774 0.11847875
-0.31396878
00000000: e231 a93e d277 b03e 6cc7 d93c df0f b13c
00000010: 9387 323e a83d 88bd 4662 373e 2f47 043e
00000020: 51c0 503f 6e73 243e 40f5 3a3d fb8b 4cbe
00000030: dbaf 9cbe 9497 cc3e 1b12 7eb9 4c90 83be
00000040: b268 563e 9dd0 79bd 6b25 1b3f 49c2 003e
00000050: 09dc dc3e 704c a1bd 4987 65be 4244 c23e
00000060: 8c62 17be 135d e73d 4e2d 2e3e 1b2e 9c3c
00000070: 8be1 f7be 7a86 dd3e 6fff 373c 087e 0fbf
00000080: fb38 c63e a804 30be e83a ab3e 87a6 ebbd
00000090: 54cc a3bc 4c55 b1bd 9df0 c6be 4efe bdbd
000000a0: ceb9 2bbd dcca 3a3e 3e06 133d 8527 98be
000000b0: 1ebc 2f3e 4c55 20be c661 30bc 095a 463f
000000c0: ef2d 03be 32a0 cebe 3108 be3e 5756 043e
000000d0: b87d 9a3d d805 aa3e b7c9 9abb 4a51 883d
000000e0: d243 323e f66f 503e 2249 e73e bc58 9f3d
000000f0: caf8 f6be d079 8b3e e247 c9be 773b dc3d
00000100: 8844 d0be 5b09 f83e 0065 403d 8e71 223f
00000110: 5546 b7be 74d0 2a3e a473 243e 2285 13bf
00000120: da38 223e c23a bc3e abf9 b0be c17b 853e
00000130: a2d0 a4be 4a52 a3be b830 34bd fda4 f23d
00000140: 84c0 a0be

network_body._body_endoder.seq_layers.0.bias f4 [9]
0.03668923 0.07790435 -0.07114503 0.04928451 0.07411917 -0.058863405 -0.06322329 0.057520103
-0.06065956
00000000: 7247 163d 518c 9f3d 7cb4 91bd 8ede 493d
00000010: cbcb 973d c11a 71bd 367b 81bd 339a 6b3d
00000020: 2976 78bd

value_heads.value_heads.extrinsic.weight f4 [1, 9]
0.050728388 0.21331185 -0.6566836 0.5948158 0.4978849 -0.04895415 -0.24783833 0.4931717
-0.029941784
00000000: 92c8 4f3d 6c6e 5a3e 6b1c 28bf d945 183f
00000010: c5ea fe3e 2684 48bd 55c9 7dbe 0081 fc3e
00000020: 7948 f5bc
