Assets/onnx/Self_TTT_1/O_Behavior/O_Behavior-1575.pt (torch, 7911 bytes, 7 tensors)

network_body._body_endoder.seq_layers.0.weight f4 [9, 9]
-0.34090889 -0.29238755 -0.17029417 -0.20824194 0.12780866 -0.21499631 0.27382153 -0.1413948
-0.009673893 0.09634208 -0.49189728 -0.037652425 0.28800237 0.81658494 -0.13287261 -0.46370465
0.2944675 -0.21246451 -0.24767482 -0.052229222 -0.107797265 -0.47196078 0.5748871 0.02021112
0.18957853 -0.38214526 0.21410275 0.1894643 0.13270372 0.10751505 0.05628742 0.1395523
0.15216193 -0.04844929 0.1911644 0.1065849 0.020598596 0.21983391 0.21250837 0.073022634
0.2909271 -0.4361641 0.2305631 -0.8747574 0.10214916 -0.054509267 0.47329065 -0.241193
-0.36604846 -0.10733394 0.29854137 -0.092376396 -0.5221114 0.31498206 -0.14531101 -0.3757891
-0.3167277 0.102541685 -0.21486819 0.31149706 0.7086868 0.25862157 0.2445299 0.276367
0.046493333 0.003250379 0.00832566 -0.21881622 -0.17678428 -0.114681244 0.68103164 -0.07697208
0.26755926 -0.20274942 -0.12308048 -0.36036086 0.23630378 0.09295909 0.0007311823 -0.74433327
-0.96175444
00000000: 9c8b aebe d2b3 95be 9861 2ebe 603d 55be
00000010: 46e0 023e fe27 5cbe 5632 8c3e ccc9 10be
00000020: 407f 1ebc ff4e c53d f6d9 fbbe 6e39 1abd
00000030: 0c75 933e b60b 513f c20f 08be b26a edbe
00000040: 72c4 963e 4c90 59be 789e 7dbe 4fee 55bd
00000050: d0c4 dcbd d8a4 f1be cd2b 133f ca91 a53c
00000060: e020 423e 8ba8 c3be c03d 5b3e ee02 423e
00000070: 7ce3 073e da30 dc3d a38d 663d cce6 0e3e
00000080: 56d0 1b3e c372 46bd 9ac0 433e 2f49 da3d
00000090: 63be a83c 241c 613e cb9b 593e e48c 953d
000000a0: 66f4 943e e750 dfbe bc18 6c3e 1af0 5fbf
000000b0: 9433 d13d 1c45 5fbd 2753 f23e 4cfb 76be
000000c0: b46a bbbe e6d1 dbbd 6ada 983e d62f bdbd
000000d0: 18a9 05bf 5445 a13e 69cc 14be 6e67 c0be
000000e0: 222a a2be 6001 d23d 6806 5cbe 8b7c 9f3e
000000f0: 806c 353f 0c6a 843e 0c66 7a3e fa7f 8d3e
00000100: cb6f 3e3d 5004 553b 5968 083c 5c11 60be
00000110: f006 35be 00de eabd 1758 2e3f 8aa3 9dbd
00000120: 87fd 883e 8b9d 4fbe 9e11 fcbd 3881 b8be
00000130: 9ef9 713e 5661 be3d d0ac 3f3a a08c 3ebf
00000140: 8a35 76bf

network_body._body_endoder.seq_layers.0.bias f4 [9]
0.0 0.0 0.0 0.0 0.0 0.0 0.0 0.0
0.0
00000000: 0000 0000 0000 0000 0000 0000 0000 0000
00000010: 0000 0000 0000 0000 0000 0000 0000 0000
00000020: 0000 0000

action_model._discrete_distribution.branches.0.weight f4 [10, 9]
-0.012216839 -0.0462752 -0.020236416 -0.022536324 -0.032274302 0.024766587 -0.046863683 0.041127652
-0.016580135 -0.04947117 -0.008098954 -0.022833293 -0.027941972 0.0061632446 -0.020885073 -0.03262664
0.03476742 -0.036478754 -0.046694692 0.07669112 0.055761963 -0.021488374 0.05168202 0.034589227
-0.064129494 -0.0067612976 -0.02596732 0.024613628 -0.022565352 -0.007381125 -0.021054154 -0.049379
0.004269929 0.021763492 -0.006918219 -0.010374762 -0.007414204 0.03675173 0.023522157 0.015126059
-0.007265801 0.006612738 -0.0023213758 -0.020201433 0.0031977494 -0.034393817 -0.01403099 -0.0461127
-0.02038034 -0.018454915 -0.020314977 -0.04096214 0.021790134 -0.024752507 -0.042238522 0.007527122
0.011215958 -0.038211107 0.0069465353 0.03275252 0.033193648 -0.040665753 0.01874729 -0.05954386
0.04105121 0.0006203274 0.03584957 -0.031425275 0.03943969 -0.017386248 -0.021451807 -0.022474779
0.0029632063 -0.004296772 -0.017330721 -0.05377817 -0.022398494 0.007889043 -0.032900915 -0.034948505
-0.041553058 0.026605869 -0.04096606 -0.005839159 -0.028945584 -0.024764348 0.06931099 -0.018321257
-0.006495565 0.036139566
00000000: 2329 48bc 108b 3dbd d7c6 a5bc 199e b8bc
00000010: 0f32 04bd 4ce3 ca3c 22f4 3fbd 7875 283d
00000020: 10d3 87bc 48a2 4abd 7ab1 04bc e30c bbbc
00000030: 90e6 e4bc 0bf5 c93b 2c17 abbc 83a3 05bd
00000040: 4868 0e3d bf6a 15bd ef42 3fbd 3c10 9d3d
00000050: a866 643d 6308 b0bc 87b0 533d 6fad 0d3d
00000060: 5356 83bd e08d ddbb 6bb9 d4bc 85a2 c93c
00000070: f9da b8bc 5ddd f1bb c379 acbc a241 4abd
00000080: c3ea 8b3b 5a49 b23c 3ab2 e2bb e8fa 29bc
00000090: daf2 f2bb fb88 163d 8ab1 c03c 4ad3 773c
000000a0: f515 eebb abaf d83b 3922 18bb 7a7d a5bc
000000b0: 5591 513b 88e0 0cbd 3de2 65bc ace0 3cbd
000000c0: acf4 a6bc c32e 97bc 986b a6bc ebc7 27bd
000000d0: 3981 b23c c5c5 cabc 4d02 2dbd 13a6 f63b
000000e0: 23c3 373c 4083 1cbd c39f e33b 8227 063d
000000f0: 10f6 073d 2291 26bd eb93 993c 43e4 73bd
00000100: 5025 283d 789d 223a 00d7 123d cab7 00bd
00000110: 838b 213d 9b6d 8ebc b3bb afbc 071d b8bc
00000120: 5a32 423b f0cb 8cbb 28f9 8dbc 8046 5cbd
00000130: 0c7d b7bc 0b41 013c 1cc3 06bd 2a26 0fbd
00000140: 8a33 2abd 8df4 d93c 07cc 27bd 6a56 bfbb
00000150: 4a1f edbc 9ade cabc ecf2 8d3d 7616 96bc
00000160: c0d8 d4bb 1507 143d

action_model._discrete_distribution.branches.0.bias f4 [10]
0.0 0.0 0.0 0.0 0.0 0.0 0.0 0.0
0.0 0.0
00000000: 0000 0000 0000 0000 0000 0000 0000 0000
00000010: 0000 0000 0000 0000 0000 0000 0000 0000
00000020: 0000 0000 0000 0000

network_body._body_endoder.seq_layers.0.weight f4 [9, 9]
-0.009699889 -0.2754041 -0.2100573 0.51999116 0.091442734 0.1413494 -0.33617026 0.32647943
-0.31070328 -0.27529147 -0.13805604 0.089707226 -0.18087757 -0.480278 -0.03999527 0.41058308
0.16583002 -0.31279838 0.24641064 -0.45409024 0.03467384 0.032724857 -0.092315346 0.22074997
0.1588402 -0.103709444 -0.37843913 0.042403854 -0.30721563 0.41121346 -0.2843422 -0.39299747
0.023183383 0.21921968 -0.6569041 -0.10217097 -0.05114895 0.046740007 -0.4659506 0.66414136
-0.0013518506 -0.23498575 0.24392527 -0.67987466 0.62105304 0.053816 -0.048846744 0.21599945
0.33747214 -0.124170355 -0.13046215 -0.24153535 -0.08988626 -0.162071 0.62819135 0.17530388
-0.3845831 0.36007082 0.01757257 -0.16862375 0.51266956 -0.5020051 0.26369667 0.1225723
0.26984125 -0.392667 -0.2488821 0.4558639 -0.039069906 -0.14644891 0.6178838 -0.30740482
0.00789471 0.101163745 0.18884802 0.39814585 0.00085710303 -0.18019849 -0.20117572 -0.14030093
0.3585831
00000000: 49ec 1ebc c401 8dbe 4319 57be 241e 053f
00000010: 5446 bb3d e6bd 103e 821e acbe 5028 a73e
00000020: 8014 9fbe 01f3 8cbe 905e 0dbe 6cb8 b73d
00000030: f837 39be ffe6 f5be 15d2 23bd f237 d23e
00000040: 58cf 293e 1c27 a0be 1253 7c3e 847e e8be
00000050: 2806 0e3d 800a 063d d40f bdbd 480c 623e
00000060: 01a7 223e 9e65 d4bd c6c2 c1be aaaf 2d3d
00000070: 5e4b 9dbe 928a d23e 4d95 91be f736 c9be
00000080: 14eb bd3c 207b 603e de2a 28bf 033f d1bd
00000090: 9081 51bd 7372 3f3d 1491 eebe 2b05 2a3f
000000a0: 9430 b1ba 1ba0 70be 8cc7 793e 440c 2ebf
000000b0: 55fd 1e3f 2b6e 5c3d 8613 48bd f62e 5d3e
000000c0: 26c9 ac3e 074d febd df97 05be 0b55 77be
000000d0: 4a16 b8bd f1f5 25be 26d1 203f dc82 333e
000000e0: 13e8 c4be 345b b83e 5af4 8f3c b4ab 2cbe
000000f0: 503e 033f 6883 00bf 4003 873e 3007 fb3d
00000100: a228 8a3e a60b c9be f3da 7ebe fe66 e93e
00000110: c407 20bd b4f6 15be a22d 1e3f 2a64 9dbe
00000120: d058 013c f02e cf3d 6061 413e c6d9 cb3e
00000130: 36af 603a f485 38be 0201 4ebe 0cab 0fbe
00000140: 3498 b73e

network_body._body_endoder.seq_layers.0.bias f4 [9]
0.0 0.0 0.0 0.0 0.0 0.0 0.0 0.0
0.0
00000000: 0000 0000 0000 0000 0000 0000 0000 0000
00000010: 0000 0000 0000 0000 0000 0000 0000 0000
00000020: 0000 0000

value_heads.value_heads.extrinsic.weight f4 [1, 9]
-0.3874432 -0.61877704 -0.2958969 -0.20264369 -0.08708475 0.48658922 -0.5004959 -0.67427546
-0.26837522
00000000: f55e c6be 2c68 1ebf cc7f 97be d481 4fbe
00000010: 7d59 b2bd 3922 f93e 8020 00bf 519d 2cbf
00000020: 7a68 89be
