Assets/onnx/Self_TTT_1/O_Behavior/O_Behavior-0.pt (torch, 7911 bytes, 7 tensors)

network_body._body_endoder.seq_layers.0.weight f4 [9, 9]
0	0x3f1c8104	0.6113436
1	0x3f4f324a	0.8093611
2	0xbedb690f	-0.4285359
3	0x3c721130	0.014774606
4	0x3e8dadbe	0.27671617
5	0x3e7a8e7c	0.24468416
6	0xbedca504	-0.43094647
7	0x3f03ce18	0.5148635
8	0x3e1a0a6f	0.15043043
9	0xbd96e2f4	-0.073675066
10	0xbde09f92	-0.109679356
11	0xbd3d1b8c	-0.04616885
12	0xbead766b	-0.33879408
13	0xbf3eb096	-0.744882
14	0xbe2f18b6	-0.1709927
15	0xbf231571	-0.6370459
16	0xbe5bd3f3	-0.21467571
17	0xbe3184ab	-0.17335765
18	0x3d9cacfe	0.07650183
19	0x3bc07f7a	0.0058745714
20	0x3e1b3913	0.15158491
21	0x3f1b9caa	0.60785925
22	0x3e06639b	0.13123934
23	0xbedaa277	-0.42702076
24	0xbf09cc1a	-0.5382706
25	0xbe90deca	-0.28294975
26	0x3ef67584	0.48136532
27	0x3b76c2cb	0.0037652727
28	0xbf400a42	-0.7501565
29	0x3d4814e0	0.048848033
30	0x3d0884ef	0.0333299
31	0xbe0b6a74	-0.13614827
32	0x3ea2e13e	0.3181247
33	0x3f10e63d	0.56601316
34	0xbdbb7647	-0.09153419
35	0x3ed2d7db	0.4118031
36	0xbd7d9c72	-0.061916776
37	0xbe0c313e	-0.1369066
38	0x3c32bb2a	0.010908881
39	0x3e4a8208	0.19776165
40	0x3e4e02e4	0.2011829
41	0x3e066932	0.13126066
42	0x3e343386	0.1759778
43	0xbc89134d	-0.016732836
44	0x3e8062c6	0.25075358
45	0xbe37b2ba	-0.17939273
46	0xbf51763b	-0.8182103
47	0xbe8a42d7	-0.2700412
48	0xbdf8e236	-0.12152521
49	0x3ea51731	0.32244256
50	0x3d568154	0.05236943
51	0x3d2fd177	0.04292437
52	0x3e38b0e0	0.18036222
53	0xbdb80bac	-0.08986601
54	0xbf485b6a	-0.78264487
55	0xbe668740	-0.22512531
56	0xbe9660f5	-0.29370847
57	0x3f36d3d8	0.71417
58	0x3e3cdd76	0.18443856
59	0xbe806560	-0.25077343
60	0xbcf7d790	-0.030254155
61	0x3f0ce5d8	0.55038214
62	0xbf4a79ca	-0.79092085
63	0xbca8b022	-0.0205918
64	0x3e74ced6	0.23907027
65	0xbe584ec8	-0.21123803
66	0x3d943596	0.07236783
67	0x3f0f8f2b	0.5607783
68	0x3e2d0267	0.16895448
69	0xbee2743b	-0.44229302
70	0x3e19904e	0.14996454
71	0xbee7b734	-0.4525696
72	0x3d4eeb56	0.050517403
73	0x3eaa6268	0.33278203
74	0xbe8e0121	-0.27735236
75	0x3df4078a	0.119155005
76	0x3e4a579f	0.19759987
77	0xbd98b546	-0.0745645
78	0x3ea965c7	0.33085462
79	0xbd71daf3	-0.059046697
80	0x3cb652aa	0.022256214

network_body._body_endoder.seq_layers.0.bias f4 [9]
0	0x00000000	0.0
1	0x00000000	0.0
2	0x00000000	0.0
3	0x00000000	0.0
4	0x00000000	0.0
5	0x00000000	0.0
6	0x00000000	0.0
7	0x00000000	0.0
8	0x00000000	0.0

action_model._discrete_distribution.branches.0.weight f4 [10, 9]
0	0x3ae6599b	0.0017574312
1	0x3ca374f3	0.019953227
2	0xbcdaacf7	-0.026693804
3	0x3c93047a	0.01794647
4	0xbc15a1d7	-0.009132824
5	0xbd728825	-0.05921187
6	0x3c4637c9	0.012098261
7	0xbd8928af	-0.06697213
8	0xbb08ee3d	-0.0020893954
9	0x3af2e51b	0.0018531414
10	0xbcc77aec	-0.024350606
11	0x3c23a807	0.009988791
12	0xbd88e3cb	-0.06684073
13	0x3c4d142a	0.0125170145
14	0x3ae82640	0.0017711595
15	0xbd2ded73	-0.042462777
16	0xbd782e90	-0.06059128
17	0x3cd811a2	0.026375595
18	0x3cbc4346	0.022981297
19	0xbc388b3d	-0.011263666
20	0x3d7e6c2f	0.06211489
21	0xbc2e7a75	-0.010649313
22	0xbc8cac7b	-0.017172089
23	0x3cadaa9f	0.021199523
24	0x3c112edd	0.008861271
25	0x3d349049	0.044082914
26	0xbc9ee562	-0.019396488
27	0xbcb3ebc3	-0.021963006
28	0x3cf92160	0.030411422
29	0xbca8dd73	-0.020613408
30	0x3ca978bd	0.020687455
31	0xbc898345	-0.016786227
32	0xbc99a313	-0.018754518
33	0xba227489	-0.00061971747
34	0xbcfe7b5d	-0.031064684
35	0x3c8a8ca8	0.016912773
36	0x3d45763f	0.04820847
37	0x3cbf6a79	0.0233662
38	0xbcbf8a23	-0.023381298
39	0xbcde153d	-0.027109737
40	0x3d03634c	0.03207712
41	0x3c753a4a	0.0149675105
42	0xbadcc252	-0.001684258
43	0x3c02044f	0.007935598
44	0x3d0994e5	0.033589263
45	0xbc840037	-0.016113384
46	0xbc944b4c	-0.01810231
47	0x3cc585b9	0.024111615
48	0xbc9386ab	-0.01800855
49	0x3c223663	0.009900662
50	0xbc3f3c97	-0.011672161
51	0x3c0682d5	0.008209904
52	0xbbd2a54a	-0.0064283954
53	0x3ba7fb72	0.00512641
54	0x3ca2bcc3	0.0198654
55	0xbd334f20	-0.04377663
56	0xbd05032f	-0.03247374
57	0x3d26c0a2	0.040711053
58	0x3d882c8c	0.06649122
59	0x39838e47	0.00025092272
60	0xbc937fff	-0.01800537
61	0xbc18b5f3	-0.009320724
62	0xbc28eb0c	-0.010309946
63	0xbc9b68a5	-0.018970797
64	0x3d2a0ca0	0.041515946
65	0x3cd22318	0.0256515
66	0x3ad35f37	0.0016126399
67	0xbbf2ebd5	-0.0074133673
68	0x3b33a79d	0.0027413138
69	0xbd24ab72	-0.040202565
70	0x3c9fb658	0.019496128
71	0xbd39ec7c	-0.045391545
72	0x3a5e4be0	0.0008479934
73	0xbced606a	-0.028976638
74	0x3cd7d21b	0.026345303
75	0xbb26c7a6	-0.002544859
76	0xbbf6ae0d	-0.0075280727
77	0xbcd4f34f	-0.025994925
78	0x3c6650db	0.014057363
79	0xbd0a9667	-0.03383484
80	0xbd6088c3	-0.054817926
81	0x3c0d0757	0.008607707
82	0xbb60e533	-0.00343163
83	0x3cdf89b2	0.027287338
84	0x3cbd8c05	0.023138056
85	0x3cc5181f	0.024059353
86	0x3bb160ff	0.005413174
87	0x3b90e625	0.0044219666
88	0x3adaf1f3	0.0016704187
89	0x3d95205f	0.07281565

action_model._discrete_distribution.branches.0.bias f4 [10]
0	0x00000000	0.0
1	0x00000000	0.0
2	0x00000000	0.0
3	0x00000000	0.0
4	0x00000000	0.0
5	0x00000000	0.0
6	0x00000000	0.0
7	0x00000000	0.0
8	0x00000000	0.0
9	0x00000000	0.0

network_body._body_endoder.seq_layers.0.weight f4 [9, 9]
0	0xbece012c	-0.4023527
1	0xbe7171f4	-0.23578626
2	0xbe97a0a2	-0.2961474
3	0xbedaeda4	-0.4275943
4	0x3e392eaa	0.18084207
5	0xbe32ab10	-0.17448068
6	0x3dc69bbf	0.09697675
7	0x3d5b40e8	0.053528696
8	0x3cb06602	0.021533016
9	0x3d5dca0b	0.05414776
10	0xbcb73aa7	-0.022366835
11	0xbe786a5e	-0.24259326
12	0xbe20b717	-0.15694843
13	0x3e35b38f	0.17744277
14	0x3e8eef1b	0.27916798
15	0xbf6a2260	-0.914587
16	0xbc1af998	-0.009458922
17	0xbe0b18d6	-0.13583693
18	0xbe8a9ee4	-0.2707435
19	0xbdf0e570	-0.11762512
20	0x3f09e8c9	0.53870827
21	0xbe3277f3	-0.1742857
22	0x3d49bb38	0.04925081
23	0x3e8f713d	0.2801608
24	0xbcddd2a7	-0.027077986
25	0x3ea68bec	0.32528627
26	0x3f27d9ea	0.65566885
27	0xbec9c363	-0.3940688
28	0xbf8470a8	-1.034688
29	0xbe8b2d4b	-0.27182993
30	0x3e903880	0.28168106
31	0x3e977aeb	0.29585966
32	0xbdd6fc96	-0.10497396
33	0xbe55f8af	-0.20895647
34	0x3d8547a1	0.06507803
35	0x3e74a702	0.23891833
36	0x3eaf0427	0.34182855
37	0xbd777ee8	-0.06042376
38	0x3e6e1902	0.23251727
39	0x3dda6e4e	0.1066557
40	0xbe3d7216	-0.18500552
41	0x3d59dc7a	0.05318878
42	0x3d71e5a3	0.05905689
43	0x3e9ed8b6	0.31024712
44	0xbe6b3c4e	-0.22972223
45	0xbf0ed6d8	-0.55796576
46	0x3e00dbfe	0.1258392
47	0xbd82e032	-0.06390418
48	0xbf64f04b	-0.8942916
49	0x3e8efe98	0.27928615
50	0xbed7b97e	-0.42133707
51	0x3e01f408	0.12690747
52	0x3f496f8c	0.7868583
53	0xbe07126e	-0.13190624
54	0x3f1c2b36	0.61003435
55	0xbcf2fcc8	-0.029661551
56	0x3e8a125a	0.26967126
57	0x3e27a5e8	0.16371882
58	0xbdfbd654	-0.12296739
59	0xbe863853	-0.26214847
60	0x3e676430	0.22596812
61	0xbe0028b0	-0.12515521
62	0xbd345022	-0.044021733
63	0x3c4be68f	0.012445106
64	0xbe9e8de9	-0.30967644
65	0xbec6732e	-0.3875975
66	0xbe346fce	-0.17620775
67	0xbea11806	-0.3146364
68	0x3eede9c4	0.46467412
69	0x3ecede03	0.40403756
70	0x3cc11ebb	0.023574224
71	0x3f6497b6	0.8929399
72	0xbceea750	-0.029132515
73	0x3ed900e8	0.42383504
74	0xbd86b76f	-0.06577956
75	0x3da50e33	0.08059349
76	0xbe0fb499	-0.14033736
77	0xbe2bb4d6	-0.16768202
78	0xbe08ea0e	-0.13370535
79	0xbe685362	-0.22688058
80	0xbbb24a0a	-0.005440955

network_body._body_endoder.seq_layers.0.bias f4 [9]
0	0x00000000	0.0
1	0x00000000	0.0
2	0x00000000	0.0
3	0x00000000	0.0
4	0x00000000	0.0
5	0x00000000	0.0
6	0x00000000	0.0
7	0x00000000	0.0
8	0x00000000	0.0

value_heads.value_heads.extrinsic.weight f4 [1, 9]
0	0xba72aaa8	-0.0009256997
1	0x3f29fbad	0.6639965
2	0xbf0db11c	-0.5534837
3	0xbe7edc92	-0.24888828
4	0x3eb3117e	0.34974283
5	0xbf38acce	-0.7213868
6	0xbe839d5d	-0.25705996
7	0xbf45d68d	-0.77280504
8	0xbe9ced49	-0.30649784
