Assets/onnx/Self_TTT_1/O_Behavior/O_Behavior-869.pt (torch, 7911 bytes, 7 tensors)

network_body._body_endoder.seq_layers.0.weight f4 [9, 9]
000000 e7 3c 75 3d d6 36 c0 bd 1e 00 ca bb 7d a1 8d be
       0.059872534 -0.09385459 -0.0061645648 -0.27662268
000010 c0 98 42 3e aa 08 19 3e 6c cd 88 3c 2e 61 29 be
       0.19003582 0.14944711 0.016699515 -0.16540977
000020 28 77 74 be 22 95 04 3e c3 4c 2d 3e 9f a9 f5 bc
       -0.2387358 0.12947515 0.16923814 -0.029988108
000030 4f d5 cb be f8 87 0a 3f db 5e ba bd a7 ab 5d 3e
       -0.3981118 0.5411372 -0.091001235 0.21647511
000040 62 8b c1 3d 5b f2 79 3e 54 be 5f bd f7 a5 ba be
       0.09450413 0.24408858 -0.05462487 -0.36454746
000050 08 72 53 3f a6 36 47 bd e4 fb 05 3f fa 70 2a be
       0.8259587 -0.0486361 0.5233748 -0.1664466
000060 a6 88 f3 3d e6 e6 3f bf d7 cc e8 bd ff 95 13 bf
       0.11891298 -0.749617 -0.11367195 -0.5765075
000070 b3 7c 8b 3e 08 54 d0 3e f8 d0 84 be 7c a5 07 3f
       0.27243575 0.4068911 -0.2594068 0.52986884
000080 97 bd 0f 3e f2 a2 cf 3d 5e fb a3 bc 1e e4 29 3c
       0.14037167 0.10138501 -0.020017322 0.010369329
000090 46 ce 04 be d7 a6 d6 be b0 69 7f 3e 32 f2 0c 3f
       -0.12969312 -0.41924164 0.2494266 0.5505706
0000a0 64 f4 22 bf fb 43 3b 3e aa 14 1b 3f 98 b7 13 3e
       -0.6365416 0.18287651 0.60578406 0.14425504
0000b0 56 40 a6 bd 30 85 c0 bd 53 68 f8 bd 42 10 3f bd
       -0.0811774 -0.094004035 -0.12129273 -0.046646364
0000c0 f6 4b 95 3e 1a d9 1a bf a1 3b 19 bf 88 14 06 be
       0.29159516 -0.6048752 -0.5985661 -0.1309377
0000d0 2d 23 06 3e 1a 71 9e bd 4a 45 00 bf bc 59 d4 be
       0.13099356 -0.07736416 -0.50105727 -0.41474712
0000e0 7e 01 d3 3e 6c 9e ea be b8 f7 03 be 66 73 5f bd
       0.41212076 -0.4582399 -0.12887466 -0.054553412
0000f0 0a 9a 81 3e bb 78 45 bd bc c7 36 be af 03 2a be
       0.25312835 -0.04821084 -0.1784963 -0.16602968
000100 a8 66 be 3e 93 28 07 bd 02 7a 66 3e de 35 37 bc
       0.37187696 -0.03299768 0.2250748 -0.0111822765
000110 29 06 92 be 2b 3e 1d be ca c9 5a be 3a 23 b8 3e
       -0.28520325 -0.15355746 -0.21366039 0.35964376
000120 c2 3b 98 39 5c 14 e3 3d 8f 36 4d 3e c4 5e 0b 3e
       0.00029036222 0.110878676 0.20040344 0.13610369
000130 e3 ce 28 be 46 56 79 3e 52 90 5f 3e 06 8f f9 ba
       -0.16485171 0.24349317 0.21832398 -0.0019039817
000140 1f ea f4 bc
       -0.029896794

network_body._body_endoder.seq_layers.0.bias f4 [9]
000000 00 00 00 00 00 00 00 00 00 00 00 00 00 00 00 00
       0.0 0.0 0.0 0.0
000010 00 00 00 00 00 00 00 00 00 00 00 00 00 00 00 00
       0.0 0.0 0.0 0.0
000020 00 00 00 00
       0.0

action_model._discrete_distribution.branches.0.weight f4 [10, 9]
000000 e8 24 6c bc 85 eb 82 3c 4b 3c 82 3c 05 b7 cd 3b
       -0.014413096 0.015981445 0.01589789 0.006277921
000010 5c 7e b5 bb dd 81 de 3c aa 6c fd 3c 8f ad 91 ba
       -0.005538745 0.027161533 0.030935604 -0.0011114347
000020 c8 a9 bb 3b 33 66 22 bd 50 93 f9 bc 2f cb 0a bc
       0.0057270266 -0.039648246 -0.030465752 -0.008471294
000030 bb c4 1f 3d 09 78 2a bc 18 f3 a8 3c b3 06 ee 3b
       0.039005976 -0.010404595 0.020623729 0.007263982
000040 f0 5a a7 ba bf 65 04 bc 8f d7 c8 bc 22 06 b7 3b
       -0.001276819 -0.008080899 -0.024516849 0.005585448
000050 9b ff 93 bc 22 21 51 3c b5 86 bd 3d 5b 01 01 3c
       -0.018066218 0.012764247 0.09254209 0.007873858
000060 33 3c 13 3c b0 f9 98 3c 35 0f 0d bd 22 ee f1 3c
       0.008986521 0.018673748 -0.03443833 0.029532496
000070 ba 4c 76 bc d5 bd 83 3c 77 33 d2 bc ea 04 61 3d
       -0.0150329415 0.01608173 -0.025659306 0.054936327
000080 b2 2a 83 3c 46 10 9b bc 77 bd 2a 3d 73 d0 e8 3c
       0.01601157 -0.018928658 0.041684594 0.028419709
000090 a2 46 2d bd d2 3a 96 3b 13 aa 8a 3c 87 b0 06 3d
       -0.04230369 0.0045846486 0.0169268 0.032883193
0000a0 a3 c2 ea bb b8 fe 85 3c 72 de 34 3c f3 03 cf bc
       -0.007164316 0.01635681 0.011039363 -0.025270438
0000b0 2a dc 64 bc a8 5b 8f bc c2 82 8c 3d 30 ab 83 bd
       -0.013968507 -0.01749976 0.068608776 -0.06429136
0000c0 9b 5c 03 bd 5f 1b 7a 3c 9b ae 80 3c ff 54 94 bc
       -0.032070737 0.015265315 0.015708258 -0.018106936
0000d0 85 35 83 3c 0f 7e a5 3b 7d dd 62 3c 8b 82 26 3c
       0.016016731 0.0050504277 0.013846752 0.01016296
0000e0 0c c2 37 3d b7 be 23 3c 53 04 3f 3c c3 f4 54 3c
       0.044862792 0.0099942 0.011658746 0.012997809
0000f0 6c d5 0e bb 2b 55 45 3d e0 4c 5a 3c aa 7a 56 3d
       -0.002179469 0.048176926 0.0133239925 0.052363075
000100 f0 f0 14 3c b2 3c 84 bb 65 9a e5 3c 9b 81 68 3d
       0.009090647 -0.0040355558 0.028027723 0.056764226
000110 85 64 94 bb 23 c0 b9 3c 0f 74 e9 3c 4d dc 11 3d
       -0.0045285844 0.022674626 0.028497724 0.035610486
000120 af 36 57 3c 69 1c 33 bd 2b d6 7b bc 15 59 b0 3d
       0.013135596 -0.043728266 -0.015370886 0.08610741
000130 5b 47 36 3c d9 dc 34 bd 50 bc d5 ba 56 95 a6 bb
       0.011125411 -0.04415593 -0.0016306732 -0.00508372
000140 48 8c 4e bd 07 f5 62 bd ff cf 3f bc a9 79 1a 3c
       -0.05042675 -0.055409458 -0.011707305 0.00942842
000150 18 76 45 3a 58 4f 38 3d 3d 82 69 bd 03 3b 44 bc
       0.0007532551 0.044997543 -0.05700897 -0.01197696
000160 6b 5f d3 bc b8 7d d3 bd
       -0.025802335 -0.10326713

action_model._discrete_distribution.branches.0.bias f4 [10]
000000 00 00 00 00 00 00 00 00 00 00 00 00 00 00 00 00
       0.0 0.0 0.0 0.0
000010 00 00 00 00 00 00 00 00 00 00 00 00 00 00 00 00
       0.0 0.0 0.0 0.0
000020 00 00 00 00 00 00 00 00
       0.0 0.0

network_body._body_endoder.seq_layers.0.weight f4 [9, 9]
000000 06 4c bd be c9 33 12 bd c3 62 b0 3e 40 f7 80 be
       -0.36972064 -0.035693917 0.3445035 -0.25188637
000010 7c f5 d4 3e 82 d2 8f be 69 48 99 3c 44 63 a4 be
       0.4159354 -0.28090292 0.018711286 -0.32106984
000020 6e 4f d8 bc 2c 88 df bd 4a 2b d3 bd 3a 30 3e bf
       -0.026405063 -0.109146446 -0.10310991 -0.7429234
000030 d0 3f f1 3d 0e f4 18 bf e2 13 29 be 27 2a 2e bc
       0.117797494 -0.597474 -0.16511491 -0.010630167
000040 18 b0 9f bd cf e7 fd be bd c5 8f be 7b ef 0e 3e
       -0.07797259 -0.49590918 -0.2808055 0.13958542
000050 1e 0e 44 3d ee 6c 32 3e ba 41 b8 bd f0 a1 7e bf
       0.047865026 0.17424366 -0.08996911 -0.99465847
000060 38 71 03 3b 78 95 3e 3e 06 3e da 3e ce 30 46 3c
       0.0020056497 0.18611705 0.42625445 0.012096597
000070 72 66 65 bd dc 0a c5 be 71 cd 80 3e cf 12 8a 3e
       -0.056005903 -0.38484848 0.2515674 0.26967475
000080 0e 13 37 bd e2 91 8d be 22 1b 01 bf aa ff 60 bf
       -0.044695906 -0.27650362 -0.50432026 -0.8789011
000090 63 a4 60 3d d6 95 23 3e 3a 4d 8e be 4c ae f5 3e
       0.05484427 0.15975127 -0.27793294 0.4798454
0000a0 f4 c3 82 3e 84 48 42 be 1a 6a e0 be 55 79 26 bf
       0.25540125 -0.18972975 -0.4383095 -0.6502889
0000b0 3f 20 0c bf 9b 69 9d be 48 9b c9 be cc 2d de bd
       -0.54736704 -0.30744633 -0.39376283 -0.10848579
0000c0 f3 b7 52 bd 38 5b 83 bd 4f d4 55 3f 10 be d1 bb
       -0.05144496 -0.06413883 0.8352708 -0.006400831
0000d0 5d 84 21 bd 5d 88 0c 3e f0 c8 ab be 30 f4 ce 3e
       -0.039432872 0.13723893 -0.3355174 0.40420675
0000e0 43 02 f3 3e 2c 37 14 3d 4a 0d 85 3d 22 25 8d be
       0.47462663 0.03618543 0.06496675 -0.27567393
0000f0 e3 c3 35 bd df b2 f9 bd e7 f6 cf 3d 56 06 21 bc
       -0.044376265 -0.1219232 0.10154515 -0.009828171
000100 36 cd cb be 63 e6 b4 bd 92 67 0c 3f af 34 f2 3e
       -0.39805 -0.08833005 0.54845536 0.4730582
000110 d7 9c 72 3d 4e dc d9 be f8 83 f2 3d 6c b2 53 bf
       0.059231605 -0.42550892 0.11841577 -0.82694125
000120 96 a3 29 be f6 30 d6 bd 38 f3 9a bc 7a ac ab be
       -0.1656631 -0.10458557 -0.018914804 -0.33530027
000130 6c 8b 0a bc e9 d2 20 be 18 34 54 3e 0a 36 f0 be
       -0.008456092 -0.15705456 0.20722997 -0.4691623
000140 1f 4a 83 3e
       0.25642487

network_body._body_endoder.seq_layers.0.bias f4 [9]
000000 00 00 00 00 00 00 00 00 00 00 00 00 00 00 00 00
       0.0 0.0 0.0 0.0
000010 00 00 00 00 00 00 00 00 00 00 00 00 00 00 00 00
       0.0 0.0 0.0 0.0
000020 00 00 00 00
       0.0

value_heads.value_heads.extrinsic.weight f4 [1, 9]
000000 14 63 27 be e4 0e 05 bd 91 d5 41 3f ea 6b 24 bf
       -0.16346389 -0.032484904 0.757165 -0.64227164
000010 8a 92 80 3e ac 29 8a be 2b 35 d8 3e c9 86 34 bf
       0.251118 -0.26984918 0.42228064 -0.70518166
000020 f0 ba 14 3e
       0.14524436
