Assets/onnx/Self_TTT_1/O_Behavior/O_Behavior-150001.pt (torch, 14695 bytes, 21 tensors)

network_body._body_endoder.seq_layers.0.weight f4 [9, 9]
0	0x3fef6ee9	1.8705722
1	0xbf8d96b3	-1.1061615
2	0xbfcf0087	-1.6172036
3	0x4005020d	2.0782502
4	0xbf9c0358	-1.218852
5	0x3d4fec2e	0.050762348
6	0x40155e85	2.333894
7	0xbd967621	-0.0734675
8	0xbd017c5f	-0.03161275
9	0x3f806900	1.0032043
10	0xbf05e94e	-0.5230912
11	0x3f7134da	0.9422127
12	0x3dcbff33	0.09960785
13	0x3f94f5bd	1.1637493
14	0xbe8fdce0	-0.28098202
15	0xbf5de51a	-0.86677706
16	0xbe418b5a	-0.18900815
17	0xbfc14738	-1.5099859
18	0xbfe92d31	-1.8216916
19	0xbf8017e2	-1.0007288
20	0xbe358eff	-0.1773033
21	0xbf684072	-0.90723336
22	0x3f01c189	0.50685936
23	0xbf0b8f3d	-0.5451544
24	0x3f3bd518	0.7337203
25	0x3f2c0f60	0.6721096
26	0x400f8814	2.2426805
27	0xc011e65a	-2.2796845
28	0x3fbc6284	1.4717565
29	0x3f3725c4	0.71542
30	0xbf820183	-1.0156711
31	0xbf984e35	-1.1898867
32	0x3e6eb164	0.23309857
33	0xbe564ded	-0.20928164
34	0x3f0e2edc	0.5554025
35	0xbf3859ab	-0.7201182
36	0x4025295a	2.580649
37	0x3f7675dd	0.96273595
38	0x3fdeaa8e	1.7395799
39	0xbf50e7c5	-0.8160365
40	0xc00512f5	-2.079282
41	0xbfd154f2	-1.6354048
42	0xbeaa4ad4	-0.33260214
43	0xbf86c490	-1.0528736
44	0xbfa13686	-1.2594764
45	0xbf58c130	-0.8466978
46	0x402a25e3	2.6585624
47	0xbf25e45d	-0.6480158
48	0xbf766cc1	-0.96259695
49	0x4028cb75	2.637418
50	0xbf314991	-0.6925288
51	0xbd428c34	-0.04749699
52	0x3f12bd34	0.5731995
53	0xbf18dbe4	-0.59710526
54	0xbf785e99	-0.97019345
55	0x3ebf8de2	0.37412935
56	0xbfb7e49b	-1.436664
57	0xbf1fb6ce	-0.6238831
58	0xc00683df	-2.1017988
59	0xbe66f4ac	-0.22554272
60	0xbe0da73d	-0.13833328
61	0x3fc22360	1.5167046
62	0x3ef0bc1d	0.4701852
63	0xbeac5d13	-0.3366476
64	0xbf91f544	-1.1402974
65	0x400e9383	2.2277534
66	0xbf23a03b	-0.6391637
67	0xc029f7e5	-2.6557553
68	0x3f91c7f5	1.1389147
69	0x3ee5fc52	0.44919068
70	0xbf8cafb3	-1.0991119
71	0x3f5fa2dd	0.87357885
72	0xbf179489	-0.5921102
73	0xbfc255cd	-1.5182434
74	0xbe32b9e7	-0.17453729
75	0xbec66b22	-0.3875361
76	0xbfcf2b3b	-1.6185068
77	0xbcf5396b	-0.029934606
78	0x400e1d90	2.2205544
79	0xc0153ada	-2.331717
80	0x3ffb695f	1.9641532

network_body._body_endoder.seq_layers.0.bias f4 [9]
0	0xbd294063	-0.04132117
1	0xbfa5200c	-1.2900405
2	0x3dfeec62	0.1244743
3	0xbf9239f1	-1.1423932
4	0xbeff7b4c	-0.49898756
5	0x3ef6fff4	0.48242152
6	0x4010dfd3	2.2636611
7	0xbefd7ca4	-0.49509156
8	0xbf98ba09	-1.1931773

action_model._discrete_distribution.branches.0.weight f4 [10, 9]
0	0xbce60e03	-0.028082853
1	0xbc011e4f	-0.007880761
2	0xbd15ad99	-0.03654251
3	0x3cf0828d	0.029359126
4	0xbc75e77f	-0.015008806
5	0x3b86d08c	0.004114216
6	0xbcde0fd3	-0.027107155
7	0xbca8737f	-0.020562885
8	0xbcbfcbc8	-0.0234126
9	0x3f6590e7	0.8967423
10	0x3e3b603b	0.18298428
11	0xbe8e7ff8	-0.27832007
12	0x3fd3f547	1.6559228
13	0x400813c9	2.1262076
14	0xbf66cb9d	-0.9015444
15	0x3e53a8ed	0.20669909
16	0xbf99a685	-1.2003943
17	0xbfd601e5	-1.6719328
18	0xbf92de08	-1.1474009
19	0x3ed041be	0.40675157
20	0x3e550d65	0.20805891
21	0xbff23ca3	-1.8924755
22	0x3fdb44a9	1.7130328
23	0x4024a182	2.5723577
24	0xbf86aeff	-1.0522155
25	0x3f0e56b7	0.55601066
26	0xbdae6611	-0.08515561
27	0xbfb2df31	-1.3974363
28	0x3f88f86a	1.070081
29	0xbee3dc2d	-0.44503918
30	0x3f009e87	0.50241894
31	0x3f95582f	1.1667536
32	0xbfbc5ce2	-1.4715846
33	0xbe540b33	-0.20707397
34	0xbe8778a6	-0.26459235
35	0xbf28836e	-0.65825546
36	0x40016ee6	2.0223937
37	0xbfa651e7	-1.2993745
38	0xbecc096b	-0.39850935
39	0x3ee19153	0.44056186
40	0x3f22c07f	0.63574976
41	0xbeb9414f	-0.3618264
42	0xbfce1730	-1.6100826
43	0xbeb676df	-0.35637566
44	0xbe34b4f4	-0.17647153
45	0xbf865267	-1.0493897
46	0xbfa9e23f	-1.327217
47	0xbfd9e534	-1.7023072
48	0x3f6863f4	0.90777516
49	0xbebe9958	-0.37226367
50	0x40010c37	2.0163705
51	0x3f6ba87c	0.9205396
52	0xbf907a19	-1.1287261
53	0x3f9e6bfc	1.2376704
54	0xbf43dda9	-0.765101
55	0xbf69ccbe	-0.91328037
56	0xbe019010	-0.12652612
57	0xbe93bad6	-0.28853482
58	0xbf171e2f	-0.5903043
59	0xbeb07613	-0.34465083
60	0xbfb36e62	-1.4018061
61	0x40117050	2.27248
62	0xbf171a1e	-0.59024227
63	0x3feed50e	1.8658769
64	0x3f910c21	1.1331826
65	0x400ea964	2.2290888
66	0xbeb96d5d	-0.3621625
67	0xbfcfb7d0	-1.622797
68	0xbfdf4f61	-1.74461
69	0x3f737e79	0.95114857
70	0xbf5ae9bb	-0.85512894
71	0xbf1ccdb2	-0.61251366
72	0xbe950a71	-0.2910953
73	0x3f8ee69f	1.116413
74	0x3ef0bd58	0.47019458
75	0xbf0d4bab	-0.55193585
76	0xbfa68f37	-1.3012456
77	0x3fa0a9b4	1.2551789
78	0xbeec4575	-0.46146742
79	0xbe9e1987	-0.3087885
80	0x40274cf5	2.614072
81	0xbf28e097	-0.65967697
82	0xbf88e2ed	-1.0694252
83	0x3f0e02fd	0.5547331
84	0xbd89a172	-0.067202464
85	0xbfe74557	-1.8068036
86	0xbf78bf61	-0.9716702
87	0x40083edd	2.1288369
88	0x3ee187fc	0.4404906
89	0xbf369bed	-0.71331674

action_model._discrete_distribution.branches.0.bias f4 [10]
0	0x00000000	0.0
1	0xbd84f765	-0.06492499
2	0xbead5ec8	-0.33861375
3	0x3de18e6c	0.11013493
4	0x3ebb948f	0.3663678
5	0x3fa8be7d	1.3183132
6	0xbc437302	-0.0119292755
7	0x3d7d890a	0.06189827
8	0xbfccd04e	-1.600107
9	0x3fa46701	1.2843934

exp_avg f4 [9, 9]
0	0xb8b0400b	-8.404263e-05
1	0x3d208bb1	0.03919572
2	0x3387aa6d	6.317428e-08
3	0x3ae69b4d	0.0017593891
4	0xbd208d32	-0.039197154
5	0x3672eb03	3.6197605e-06
6	0xbb0d97ea	-0.002160544
7	0xa63dc5ee	-6.584079e-16
8	0xb872d55b	-5.7896e-05
9	0xb9f44b73	-0.0004659552
10	0x3d71a196	0.05899199
11	0xb4d5326b	-3.9711026e-07
12	0x3b9c572b	0.0047711334
13	0xbd71945f	-0.05897939
14	0xb59cab29	-1.167272e-06
15	0xbb8bebcb	-0.004270052
16	0x271f930e	2.2145401e-15
17	0x371b0c9b	9.241655e-06
18	0xb9cfe85a	-0.00039655232
19	0x3d644264	0.055727378
20	0x34db1b6c	4.081188e-07
21	0xb9d84d5e	-0.00041256374
22	0xbd64402b	-0.055725258
23	0x37b1d802	2.120063e-05
24	0x36cbb1cd	6.07057e-06
25	0x2808c099	7.5912795e-15
26	0xb945bb9b	-0.00018857273
27	0xba0dce19	-0.0005409434
28	0x3a58f0b9	0.00082756166
29	0x340a9b8b	1.2908838e-07
30	0x3a6cf108	0.0009038602
31	0xba59088d	-0.0008279167
32	0x325524c3	1.240659e-08
33	0xb9c28116	-0.0003709874
34	0x268aac53	9.622382e-16
35	0xb68d5ea6	-4.213146e-06
36	0xbb5f4446	-0.0034067794
37	0xbac397df	-0.001492258
38	0xb3d2dd0e	-9.819097e-08
39	0x3b445a02	0.0029960875
40	0x3ac52bb9	0.0015042938
41	0x338d5888	6.581928e-08
42	0x39e03132	0.00042761263
43	0x2881aaa5	1.4395882e-14
44	0xb68173dc	-3.8579874e-06
45	0xbb593bae	-0.0033147144
46	0x3b072cac	0.0020625992
47	0x37095abe	8.186964e-06
48	0x3cba44f5	0.02273796
49	0xbb0dcf1f	-0.0021638346
50	0xb7ba7038	-2.2225184e-05
51	0xbc97f8cd	-0.018551255
52	0xa818d1c8	-8.483184e-15
53	0x38aa2ff2	8.115162e-05
54	0x3b66490a	0.003513875
55	0xbd0ce357	-0.034396496
56	0xb72e36fb	-1.0384009e-05
57	0xbc901151	-0.017586382
58	0x3d0d1f1e	0.034453504
59	0xb4ed9aef	-4.425742e-07
60	0x3c6449a5	0.013933574
61	0xa8730667	-1.3490598e-14
62	0xb720e7ff	-9.590759e-06
63	0xba8db20b	-0.0010810507
64	0x3b696456	0.0035612783
65	0x329d7dae	1.8334358e-08
66	0x39f3904e	0.00046456087
67	0xbb694627	-0.0035594793
68	0x36183de4	2.268579e-06
69	0x39b07d33	0.00033662617
70	0xa6436bfb	-6.7800556e-16
71	0xb6e5227f	-6.8287477e-06
72	0xb7d58bdd	-2.5456708e-05
73	0x3cea72ec	0.028619252
74	0x343675ae	1.6992882e-07
75	0x3ceac6fa	0.028659333
76	0xbcea8532	-0.028627966
77	0x37686b01	1.3853191e-05
78	0xbce4e7f8	-0.027942643
79	0x25ca5f4b	3.5105987e-16
80	0x385b5539	5.229304e-05

exp_avg_sq f4 [9, 9]
0	0x38ee133d	0.00011352308
1	0x3b01c281	0.0019799771
2	0x390d2f9b	0.00013464542
3	0x3934ebc9	0.00017253975
4	0x3b067f4b	0.002052265
5	0x39b34b51	0.00034197656
6	0x3abae01a	0.0014257461
7	0x39f4c36f	0.00046684916
8	0x3a697784	0.0008906054
9	0x3737bb67	1.0951283e-05
10	0x3b13576d	0.002248253
11	0x371e699f	9.442126e-06
12	0x3883f89c	6.292874e-05
13	0x3b140dac	0.0022591157
14	0x372d92bd	1.0345769e-05
15	0x38e96224	0.00011128586
16	0x3726dc17	9.945615e-06
17	0x36b1f847	5.3039143e-06
18	0x38c03424	9.1649854e-05
19	0x3b34cc42	0.0027587567
20	0x397c3b52	0.00024054691
21	0x397df456	0.00024218982
22	0x3b354fcf	0.0027665978
23	0x39938725	0.00028138715
24	0x39ee2798	0.00045424397
25	0x39ec8048	0.00045109005
26	0x3adc76ec	0.001682011
27	0x3791b76b	1.7370758e-05
28	0x3868f500	5.5541284e-05
29	0x37fe835e	3.0340332e-05
30	0x3699b9b0	4.581372e-06
31	0x38998e01	7.322059e-05
32	0x37cee115	2.4661926e-05
33	0x36e81b6f	6.9173325e-06
34	0x3782ac27	1.5577372e-05
35	0x37cee88b	2.46654e-05
36	0x38b781da	8.750307e-05
37	0x39ae0276	0.000331897
38	0x397c86a7	0.00024082755
39	0x390efbbd	0.00013635955
40	0x39c3a641	0.00037317167
41	0x3921215e	0.00015366587
42	0x38bfbd6c	9.142872e-05
43	0x38c03169	9.164477e-05
44	0x3906b1ad	0.00012845425
45	0x38cc72ae	9.748839e-05
46	0x3acd737a	0.0015674673
47	0x38ca87e8	9.657425e-05
48	0x3a9a5b2b	0.0011776438
49	0x3aefa4d2	0.0018283373
50	0x38fa15e8	0.00011925009
51	0x3ae031d6	0.0017104696
52	0x398a58c9	0.0002638756
53	0x39c9c79c	0.00038486428
54	0x392a160f	0.00016220681
55	0x3a8811a4	0.0010381234
56	0x394b99cf	0.00019416887
57	0x3a2fa269	0.0006699921
58	0x3a916266	0.0011091947
59	0x38f81199	0.00011828839
60	0x3a7e6401	0.0009704233
61	0x396e773c	0.00022741867
62	0x3a0baea4	0.00053284527
63	0x373e8014	1.1354703e-05
64	0x384e256e	4.9149086e-05
65	0x398c0979	0.00026709939
66	0x388b4a56	6.641883e-05
67	0x38fc685b	0.00012035734
68	0x389158d7	6.9306865e-05
69	0x38b68b2b	8.704358e-05
70	0x3897ca24	7.237893e-05
71	0x38ebef4a	0.00011250244
72	0x36d988ab	6.483014e-06
73	0x3b559882	0.0032592122
74	0x386bf97e	5.6260724e-05
75	0x3b245ed3	0.0025080934
76	0x3b5ce6cb	0.00337069
77	0x3a05f597	0.0005110143
78	0x3b7eda20	0.0038887337
79	0x38bf8d3e	9.133898e-05
80	0x3a143dc3	0.0005654955

exp_avg f4 [9]
0	0xbd23ee2c	-0.04002206
1	0xbd73616d	-0.059419084
2	0xbd7075de	-0.058706157
3	0xbaaf21e1	-0.0013361537
4	0xbab3ace9	-0.0013708147
5	0xbaf16ba1	-0.0018418917
6	0x3d13f0b2	0.036118217
7	0xbbb1d6a6	-0.0054271994
8	0xbce41fa0	-0.027847111

exp_avg_sq f4 [9]
0	0x3b618cee	0.0034416276
1	0x3b150b5f	0.0022742373
2	0x3bd49a20	0.0064880997
3	0x38c2078e	9.252048e-05
4	0x3a85712f	0.0010180826
5	0x3c012128	0.00788144
6	0x3b9fd71b	0.0048779375
7	0x3a2cd70d	0.00065933244
8	0x3b7ce2ee	0.003858741

exp_avg f4 [10, 9]
0	0x00000000	0.0
1	0x00000000	0.0
2	0x00000000	0.0
3	0x00000000	0.0
4	0x00000000	0.0
5	0x00000000	0.0
6	0x00000000	0.0
7	0x00000000	0.0
8	0x00000000	0.0
9	0x38323470	4.2487343e-05
10	0xb97ecf6b	-0.00024300597
11	0xbab7a188	-0.0014009932
12	0x38ad8e7a	8.275821e-05
13	0x38d41e6d	0.00010114615
14	0xb997878f	-0.00028901963
15	0x38f0bef1	0.000114796574
16	0x397a83d2	0.00023890965
17	0x398a1c89	0.00026342671
18	0x397da395	0.00024188899
19	0x39a98950	0.00032336498
20	0x3a06dc2e	0.00051445037
21	0x39dc126b	0.00041975392
22	0xbbb9d05a	-0.0056705894
23	0xba709b6d	-0.00091784337
24	0xbb622bd7	-0.0034510994
25	0x394159c0	0.00018439349
26	0x3a175a66	0.0005773663
27	0xb79cd54f	-1.8695979e-05
28	0xb9b6a8b8	-0.0003483945
29	0xbabe90e4	-0.001453903
30	0xb8c5c2ca	-9.429974e-05
31	0x3b1e6deb	0.0024174403
32	0x388b2dfa	6.6366e-05
33	0x3ac65a66	0.0015133142
34	0x39134e1e	0.00014048113
35	0x375ef60d	1.3289519e-05
36	0xb90a07c5	-0.000131636
37	0xb939bec5	-0.00017714042
38	0xba98ae1d	-0.001164857
39	0x38be49f8	9.073684e-05
40	0x38450b16	4.6978785e-05
41	0xb97eeae4	-0.00024310831
42	0xb89b1758	-7.395324e-05
43	0x395801f4	0.00020600093
44	0x394417b4	0.00018700847
45	0x3a46b8ae	0.000758062
46	0xba250bb3	-0.0006295994
47	0x391b133a	0.00014789114
48	0xba388cb2	-0.0007040008
49	0x3b3cbdb6	0.00287996
50	0x3a74a8f2	0.0009333036
51	0x3bb17943	0.005416067
52	0xb9b0b2f3	-0.00033702663
53	0xb9a13ce1	-0.0003075367
54	0x38608862	5.3532778e-05
55	0xb93db56b	-0.00018092028
56	0xba94d14d	-0.001135388
57	0x388d5ae3	6.740333e-05
58	0x38b0e96c	8.435812e-05
59	0xb979aeb7	-0.00023811577
60	0x389dd40e	7.525842e-05
61	0x39480fb0	0.0001907933
62	0x394a2cc3	0.00019280896
63	0x3b1ee315	0.0024244238
64	0xbc02b319	-0.0079772705
65	0xbd3d0957	-0.046151485
66	0x3b38ae69	0.0028180128
67	0x3b5f6e51	0.0034092853
68	0xbc1cb2e4	-0.009564135
69	0x3b45cef6	0.0030183173
70	0x3c032d50	0.008006409
71	0x3c19b58a	0.009381661
72	0xb9f48e30	-0.00046645245
73	0x3ad29628	0.0016066479
74	0xbce474f6	-0.027887803
75	0x3aa5ce30	0.001264995
76	0x3aa266be	0.0012390239
77	0xbc1c0fdc	-0.009525266
78	0xbaadbd98	-0.0013255356
79	0x3b1d26f7	0.0023979524
80	0xbc0e701e	-0.008693723
81	0xbb3e4a7e	-0.00290361
82	0x3bf9e633	0.007626319
83	0x3da0d570	0.0785321
84	0xbb814818	-0.003945362
85	0xbb93b480	-0.0045076013
86	0x3ca20516	0.019777816
87	0xbbad3fed	-0.0052871616
88	0xbc34ae6a	-0.011027912
89	0xbad396ce	-0.0016142966

exp_avg_sq f4 [10, 9]
0	0x00000000	0.0
1	0x00000000	0.0
2	0x00000000	0.0
3	0x00000000	0.0
4	0x00000000	0.0
5	0x00000000	0.0
6	0x00000000	0.0
7	0x00000000	0.0
8	0x00000000	0.0
9	0x3a40df83	0.00073575246
10	0x3714a21a	8.85923e-06
11	0x39b97f86	0.00035380962
12	0x37ecac7d	2.8213713e-05
13	0x390fdac4	0.00013719039
14	0x3a9c0196	0.0011902328
15	0x3ad31bf2	0.0016106351
16	0x39346d6a	0.00017206898
17	0x3a3e0276	0.00072482915
18	0x3a0ea081	0.0005440787
19	0x3706ba4d	8.030399e-06
20	0x397d60d1	0.00024164027
21	0x37795a34	1.4862559e-05
22	0x3953468d	0.0002014881
23	0x3a948d72	0.0011333658
24	0x39fce3a6	0.00048234797
25	0x39a03a1e	0.0003056088
26	0x3a3c91e1	0.00071933685
27	0x3714c61a	8.8676115e-06
28	0x37842d31	1.575667e-05
29	0x3a201be8	0.0006107674
30	0x37ab6caa	2.043539e-05
31	0x38a62385	7.922113e-05
32	0x39173522	0.00014420276
33	0x3ab58d84	0.0013851379
34	0x37923a95	1.7431836e-05
35	0x38480961	4.769245e-05
36	0x3a47fb02	0.00076286506
37	0x370a9dae	8.262154e-06
38	0x3a887cb2	0.0010413139
39	0x378fa72f	1.712478e-05
40	0x38521eab	5.0096463e-05
41	0x3ab336db	0.0013672964
42	0x396b8ef0	0.00022464595
43	0x38d7376e	0.000102623235
44	0x3a7691c6	0.0009405877
45	0x39795dcf	0.00023781437
46	0x38e050d7	0.0001069621
47	0x39d967f5	0.0004146692
48	0x38e13b1e	0.000107398475
49	0x38e1dfe9	0.000107705426
50	0x39085c8d	0.00013004449
51	0x3bd78e01	0.0065782075
52	0x38e32f1b	0.000108329776
53	0x3a427f87	0.0007419516
54	0x370b9964	8.32076e-06
55	0x369a584d	4.599837e-06
56	0x37cc9fd2	2.4393117e-05
57	0x3776b730	1.4705394e-05
58	0x38814ac4	6.1651255e-05
59	0x3ac9440f	0.0015355366
60	0x3835a78a	4.3309796e-05
61	0x39437102	0.00018638748
62	0x37e18503	2.6884029e-05
63	0x38c42591	9.3530056e-05
64	0x38921440	6.9655944e-05
65	0x3b1ad79c	0.0023627048
66	0x380e950f	3.399426e-05
67	0x381d2f02	3.7475496e-05
68	0x3aa610c1	0.0012669788
69	0x3afb3aea	0.0019167338
70	0x3896356d	7.162509e-05
71	0x38f57584	0.000117043994
72	0x3a4e1e2a	0.0007862771
73	0x37872e3e	1.6114787e-05
74	0x3b5f5b13	0.0034081384
75	0x37d95728	2.5909001e-05
76	0x37c0041e	2.28901e-05
77	0x3ae604d0	0.0017549042
78	0x39d28a28	0.00040157256
79	0x38029545	3.1133433e-05
80	0x3a2634e2	0.00063402776
81	0x3965f522	0.00021930461
82	0x39352da9	0.00017278515
83	0x3b882a55	0.004155437
84	0x3920e64a	0.00015344578
85	0x3927050d	0.00015928243
86	0x3ab256ac	0.0013606152
87	0x3bd9a93e	0.0066424897
88	0x394d7910	0.00019595423
89	0x3a0768a1	0.0005165432

exp_avg f4 [10]
0	0x00000000	0.0
1	0xba84aff8	-0.0010123244
2	0xbb09e996	-0.002104377
3	0xb867900c	-5.5208846e-05
4	0xba722bfb	-0.0009238121
5	0x3b3cdfcc	0.0028819917
6	0xba516527	-0.000798779
7	0xbd0a7ff6	-0.03381344
8	0xbc16d82c	-0.009206813
9	0x3d387447	0.045032766

exp_avg_sq f4 [10]
0	0x00000000	0.0
1	0x3959b19f	0.00020760902
2	0x39858d59	0.0002547305
3	0x399edf45	0.00030302457
4	0x3979f14e	0.00023836383
5	0x3abc3578	0.0014359197
6	0x38c75e9e	9.506683e-05
7	0x3aa5f8c7	0.0012662642
8	0x3a084211	0.0005197833
9	0x3b2a2a47	0.002596514

exp_avg f4 [9, 9]
0	0xb89c6ca5	-7.458896e-05
1	0x3a38875a	0.0007039212
2	0x3520584e	5.9733145e-07
3	0xb7a61764	-1.9799634e-05
4	0xba1012d7	-0.00054959714
5	0x35d93cdd	1.6185473e-06
6	0x370819f9	8.112279e-06
7	0x26681bce	8.052885e-16
8	0x38049df8	3.1618372e-05
9	0xb78c557b	-1.6729105e-05
10	0x3b9bf933	0.0047599315
11	0xb67f818a	-3.8073363e-06
12	0x3a5ebb58	0.00084965443
13	0xbb9d5a53	-0.0048020273
14	0xb6c0f755	-5.750839e-06
15	0xba46c504	-0.0007582458
16	0xa92ed9ff	-3.8824843e-14
17	0xb836487a	-4.345968e-05
18	0x387880ed	5.924788e-05
19	0xb97ee86d	-0.00024309913
20	0xb4e73fc0	-4.3073487e-07
21	0xb8a8e355	-8.053208e-05
22	0x3959e3e7	0.00020779633
23	0x35f54330	1.8273477e-06
24	0x384bce1a	4.859092e-05
25	0xa682584e	-9.044497e-16
26	0xb752c08d	-1.2561807e-05
27	0x380cfc4a	3.3613564e-05
28	0xba414e3a	-0.00073740224
29	0xb65d4e95	-3.2977307e-06
30	0xb86d92b7	-5.6641842e-05
31	0x3a10a891	0.00055182824
32	0xb612eb2b	-2.189258e-06
33	0x390fd0c2	0.00013715311
34	0x2730cb78	2.4535207e-15
35	0xb7d0fbf9	-2.4912866e-05
36	0x3884b8c8	6.328669e-05
37	0x3a53b3d9	0.00080758106
38	0xb5ed104d	-1.766262e-06
39	0x391dc902	0.00015047568
40	0xba4d9021	-0.0007841606
41	0xb6f05566	-7.162499e-06
42	0xb96374b9	-0.0002169189
43	0xa5fa6308	-4.3435193e-16
44	0xb881ea6e	-6.194865e-05
45	0x35950681	1.1103258e-06
46	0x3820ec5a	3.8367092e-05
47	0x34fe07a6	4.7316752e-07
48	0x366f7f42	3.568785e-06
49	0xb7da59e5	-2.6029486e-05
50	0xb431d9f8	-1.6563706e-07
51	0xb6f3a787	-7.261467e-06
52	0xa44095d3	-4.176027e-17
53	0xb5a24040	-1.208864e-06
54	0x38fe4b91	0.00012125739
55	0x3971be0d	0.0002305435
56	0xb59e2f36	-1.1785658e-06
57	0x390ce12a	0.0001343532
58	0xb98e747c	-0.00027171138
59	0xb767618c	-1.3791385e-05
60	0xb98049bb	-0.00024468996
61	0xa8324185	-9.895192e-15
62	0xb70e23e7	-8.472219e-06
63	0xb92ef705	-0.00016685955
64	0xba345a8e	-0.0006879949
65	0x363dc448	2.8277445e-06
66	0x3892b8ce	6.996245e-05
67	0x3a3b82ac	0.00071529555
68	0xb602d984	-1.949812e-06
69	0x38fe661d	0.00012130684
70	0x24896354	5.958255e-17
71	0xb8938e78	-7.036043e-05
72	0xb7c144c3	-2.3039413e-05
73	0xbb7c1adc	-0.0038468158
74	0x3550cbf9	7.778286e-07
75	0xba30a766	-0.00067388115
76	0x3b770288	0.0037690718
77	0x36cc6779	6.0917196e-06
78	0x3a368b44	0.0006963501
79	0x2898613f	1.6917564e-14
80	0x392adba8	0.00016294292

exp_avg_sq f4 [9, 9]
0	0x368247f0	3.8826765e-06
1	0x36aac273	5.0890317e-06
2	0x3648bbad	2.9911564e-06
3	0x365b71c8	3.2699772e-06
4	0x36f2a50a	7.231375e-06
5	0x3690859f	4.30709e-06
6	0x3601171e	1.9235954e-06
7	0x3679d44a	3.722746e-06
8	0x366db103	3.5418786e-06
9	0x3781f932	1.5494039e-05
10	0x3867fdc7	5.531104e-05
11	0x37de88cd	2.6528165e-05
12	0x37d9818c	2.592874e-05
13	0x388646cd	6.4028056e-05
14	0x3728ab64	1.0053485e-05
15	0x38443290	4.677713e-05
16	0x378fffd4	1.7166058e-05
17	0x37daa16e	2.6062797e-05
18	0x368541e8	3.9713814e-06
19	0x36956d6a	4.4532835e-06
20	0x371e22ff	9.425682e-06
21	0x361a2705	2.29705e-06
22	0x373151c8	1.0569063e-05
23	0x3709e830	8.219897e-06
24	0x3605825f	1.989443e-06
25	0x35686a44	8.658137e-07
26	0x3695d045	4.464792e-06
27	0x3608b7fc	2.0372672e-06
28	0x36514ae8	3.1187028e-06
29	0x35e9ae20	1.741053e-06
30	0x3615ff4d	2.2351335e-06
31	0x3686147e	3.995897e-06
32	0x35fbee4a	1.8770309e-06
33	0x3618fdc1	2.279747e-06
34	0x35a88dbb	1.2558224e-06
35	0x35df7995	1.665018e-06
36	0x36121fdd	2.1774242e-06
37	0x365a6cdc	3.2547896e-06
38	0x361c56f4	2.3296425e-06
39	0x3604639e	1.9727518e-06
40	0x369deeb6	4.706754e-06
41	0x362fa031	2.6170276e-06
42	0x36a6928c	4.964246e-06
43	0x35fefa3b	1.8997301e-06
44	0x36b85049	5.4929737e-06
45	0x35ad29d4	1.2901678e-06
46	0x3521f86c	6.0338675e-07
47	0x35c07cc4	1.4341426e-06
48	0x35297b71	6.3137037e-07
49	0x35d9c2dc	1.6224471e-06
50	0x35bae01a	1.3923302e-06
51	0x35ac17a1	1.2821876e-06
52	0x3471fd93	2.2537124e-07
53	0x356ff74a	8.939429e-07
54	0x362a3e65	2.5368292e-06
55	0x36404ccc	2.8654931e-06
56	0x360c9687	2.0949244e-06
57	0x364b3508	3.0280225e-06
58	0x366a8e5f	3.4951588e-06
59	0x366e3b75	3.5499372e-06
60	0x36c471f3	5.8545206e-06
61	0x35c3e6c8	1.4595798e-06
62	0x3688c061	4.0755117e-06
63	0x36b49974	5.3822823e-06
64	0x3695ef06	4.468372e-06
65	0x37016462	7.712371e-06
66	0x36712005	3.5930436e-06
67	0x36a2078a	4.828854e-06
68	0x36b04bb3	5.2540213e-06
69	0x362d8add	2.5859838e-06
70	0x35471c83	7.4174767e-07
71	0x3644d42d	2.9329778e-06
72	0x37503d20	1.2411998e-05
73	0x381152a6	3.4647666e-05
74	0x37899ff9	1.6406166e-05
75	0x37ac3f11	2.0533365e-05
76	0x384ac4f4	4.834398e-05
77	0x3781a709	1.545578e-05
78	0x383c78c4	4.4935165e-05
79	0x378ad39f	1.6549426e-05
80	0x381bc183	3.71351e-05

exp_avg f4 [9]
0	0xba22ef3f	-0.000621546
1	0xbb9cbd38	-0.004783299
2	0x3994486f	0.00028282727
3	0x3a1c3cc2	0.00059599814
4	0xba5abe09	-0.00083443575
5	0xb78a8afd	-1.6515603e-05
6	0xb96bbc74	-0.0002248155
7	0x3a23ba0f	0.00062456814
8	0x3b864d36	0.0040985597

exp_avg_sq f4 [9]
0	0x37342761	1.0738005e-05
1	0x38a73fea	7.9750855e-05
2	0x374c1536	1.2164286e-05
3	0x36f261b7	7.2235375e-06
4	0x37491f3b	1.1987805e-05
5	0x363e1dfa	2.8329655e-06
6	0x3709a8b2	8.205114e-06
7	0x3764b1d3	1.3631262e-05
8	0x38d44f1f	0.00010123685

exp_avg f4 [1, 9]
0	0xb8d26dd2	-0.00010034036
1	0x3bd33328	0.0064453073
2	0xb9fcf3d0	-0.0004824684
3	0x3bcf0ec0	0.006318897
4	0x3a943c98	0.0011309562
5	0xba9f94a0	-0.0012175031
6	0xba5c5c88	-0.0008406122
7	0xba2299fa	-0.0006202754
8	0x3c46183a	0.012090737

exp_avg_sq f4 [1, 9]
0	0x38860961	6.391365e-05
1	0x3a5785e1	0.00082215486
2	0x38106499	3.4425964e-05
3	0x3b00a438	0.0019629132
4	0x39754bb2	0.0002339322
5	0x39104221	0.00013757545
6	0x389da7bc	7.517586e-05
7	0x38d50c10	0.00010158878
8	0x3a761766	0.0009387642

network_body._body_endoder.seq_layers.0.weight f4 [9, 9]
0	0xbe4aff04	-0.19823843
1	0xbe2943c2	-0.16529754
2	0x3f4aefe0	0.7927227
3	0x3f7c8ba6	0.98650587
4	0x3ddeaf4c	0.10873279
5	0x3f606b58	0.87663794
6	0xbf7834a7	-0.9695534
7	0xbfc33372	-1.5250075
8	0xbe8d31f7	-0.27577183
9	0xbf90a949	-1.1301662
10	0xc0183f15	-2.3788502
11	0xbfd3481a	-1.6506379
12	0x3fa542bc	1.2910991
13	0x3f4895d6	0.7835363
14	0x3f95cae5	1.1702543
15	0x3fa1c6ee	1.2638834
16	0xbe03b0fc	-0.12860483
17	0x3f60e653	0.87851447
18	0x3f004363	0.50102824
19	0xbdfc032f	-0.12305295
20	0x3ee4cd21	0.4468775
21	0xbeb1a5b6	-0.3469674
22	0xc0050d07	-2.0789201
23	0x3dddb7eb	0.10826095
24	0xbdfc8457	-0.12329929
25	0xbea418bb	-0.32050118
26	0xbf36fe19	-0.7148147
27	0xbee2fd30	-0.44333792
28	0x3f4fc058	0.8115287
29	0xbea32248	-0.31862092
30	0x3ec02f0b	0.3753589
31	0x40019788	2.0248737
32	0xbda12025	-0.07867459
33	0x3e35ada1	0.17742015
34	0xbdc7e13d	-0.09759758
35	0xbeca3893	-0.39496288
36	0x3db2cd65	0.08730582
37	0xbf3a3054	-0.7272999
38	0x3f5fc0af	0.87403387
39	0xbd31b15d	-0.043382037
40	0xbf26c0cf	-0.6513795
41	0x3dc503f3	0.09619894
42	0x3f4b1a5d	0.793371
43	0x3fa2a42b	1.270635
44	0x3fb26928	1.3938341
45	0x3e91bce1	0.28464416
46	0xbf521af8	-0.820724
47	0xbfa7d88c	-1.311296
48	0x3f96de46	1.1786582
49	0xbfc7da57	-1.5613507
50	0x400de9cc	2.2173948
51	0x3f290b17	0.66032547
52	0xbf337516	-0.70100534
53	0x3c6549a0	0.013994604
54	0x3f169023	0.58813685
55	0xbe97b9d4	-0.29633963
56	0x3f062b75	0.5241006
57	0xbf02628d	-0.50931627
58	0xbf428c85	-0.75995666
59	0xbe42af66	-0.19012222
60	0x3f988a16	1.191714
61	0xbd8dc01f	-0.0692141
62	0x3e7ef0e3	0.24896578
63	0x3f9cf4f2	1.2262251
64	0xbed88d9f	-0.42295548
65	0x3f6922a4	0.9106848
66	0xbf4c90f9	-0.7990871
67	0xbe91cd73	-0.28477058
68	0xbf3e0777	-0.7423014
69	0xbf70b5f4	-0.9402764
70	0x3f008426	0.5020164
71	0xbfa5193e	-1.2898328
72	0xbf9c3580	-1.2203827
73	0xc0275635	-2.6146367
74	0xbfc53954	-1.540812
75	0xbd4a42a2	-0.049379952
76	0xbef2c607	-0.47416708
77	0x3e20e8bc	0.15713781
78	0x3f59c6bd	0.85068876
79	0x3c0dd27c	0.00865614
80	0x3f59686f	0.8492498

network_body._body_endoder.seq_layers.0.bias f4 [9]
0	0xbe893554	-0.267985
1	0xbfcb6159	-1.5889083
2	0xbfd40543	-1.6564106
3	0x3f5bc323	0.8584463
4	0xbc448444	-0.011994425
5	0xbf71f413	-0.9451305
6	0xbf3b7548	-0.7322583
7	0xbe0900a3	-0.13379149
8	0x3e73c392	0.23805073

value_heads.value_heads.extrinsic.weight f4 [1, 9]
0	0xbeacd594	-0.33756697
1	0xbf6c802f	-0.9238309
2	0xbf38ad3d	-0.7213934
3	0x3e01bd86	0.12669954
4	0xbe8b612a	-0.27222568
5	0x3dbc5e34	0.09197655
6	0xbeb9da0d	-0.36299172
7	0x3e9bcd40	0.3043003
8	0x3f371f13	0.7153179
