Assets/onnx/TTT_30/O_Behavior/O_Behavior-50001.onnx (onnx, 4530 bytes, 6 tensors)

network_body._body_endoder.seq_layers.0.weight f4 [16, 9]
000000 dd ff fb 3e d2 a2 17 bb 3a 58 5f 3f 46 00 bb be
       0.49218646 -0.002313782 0.87244 -0.36523646
000010 7a e6 5a bf 0c 6b 82 3f 59 a3 95 bf 27 b6 62 bf
       -0.8550793 1.0188918 -1.1690475 -0.8855919
000020 04 fd 36 3f 89 ee 08 be ba c2 0c 3e e0 9c cc 3e
       0.7147982 -0.13372244 0.13746157 0.39963436
000030 04 2d f4 3c 2d 07 a0 bf 2a 77 f6 be 6f e5 88 3f
       0.029806621 -1.250219 -0.4813779 1.0695018
000040 98 7e 21 bd 3e e7 97 3f f4 b2 c6 be ff ea 21 3f
       -0.03942737 1.1867445 -0.38808405 0.632492
000050 43 68 ab bf 97 88 93 3e 94 a8 e9 3e 9c 74 83 bf
       -1.3391193 0.28815147 0.45636427 -1.0269961
000060 90 3d ca 3e 5d ff d8 3f e8 f1 23 3f c5 ab be 3e
       0.39500093 1.6952931 0.64040995 0.37240425
000070 3f fb 8d bf 11 b8 bb 3e 3c 86 1f 3f f8 3f b8 3e
       -1.1092299 0.3666387 0.623142 0.35986304
000080 b9 fd 85 3f b0 c2 7c bf 3d 0e 0a bf 77 8b 35 3f
       1.0468055 -0.9873457 -0.53927976 0.7091593
000090 df 2d 9e 3f 66 fc 83 3e c3 11 6e be 6b 26 1b bf
       1.2357749 0.25778502 -0.23248963 -0.60605496
0000a0 b8 79 9f 3e 56 ae 85 bf 87 43 44 bf b5 ca 50 3e
       0.31147552 -1.0443828 -0.7666554 0.20389827
0000b0 e1 09 3a bf cb 16 3d 3f e9 02 a8 bf db 88 87 bf
       -0.72671324 0.73862904 -1.3125888 -1.058864
0000c0 e5 db a9 3f 1c cb 29 bf e3 1c 58 bd 6a 84 6c 3f
       1.3270231 -0.66325545 -0.052761924 0.9238955
0000d0 dc 62 7a bc 45 63 8f bf b3 40 31 3e bf 22 1d bd
       -0.015282359 -1.120217 0.17309837 -0.038363215
0000e0 b4 25 cb bd 52 c2 94 3f 4f 97 22 bf 99 1c 92 3f
       -0.09919301 1.1621802 -0.6351213 1.1414977
0000f0 04 22 26 3f 84 0f 0f 3e 3a 5b 84 bf c3 44 f3 bd
       0.64895654 0.13970762 -1.034034 -0.1187835
000100 e0 5e 16 3f 80 2e 2d 3f 2e 54 7d bb 94 39 fc be
       0.5873852 0.6764908 -0.0038654911 -0.4926268
000110 8c 64 7f 3f 23 c1 10 be c8 bc 17 3f ce 5c ab bf
       0.997628 -0.14136176 0.5927243 -1.3387697
000120 4b 7d 47 3f bb 52 26 bf 0e 65 8c bf 87 9c 30 be
       0.77925557 -0.64969987 -1.096834 -0.1724721
000130 01 e2 cf 3e f1 21 f9 3e 8d 3c 15 3f 9e a2 d3 be
       0.40602115 0.48658708 0.5829552 -0.41335005
000140 79 ea 88 3f 98 1b 03 3f 81 cf 38 be 89 f2 95 bf
       1.0696555 0.5121398 -0.18047906 -1.1714641
000150 d2 e9 5b be 98 b1 16 3f 46 ad 60 bd e3 5b 1b 3e
       -0.21475914 0.58864737 -0.054852746 0.15171771
000160 4b d3 96 3f 9e 57 8c 3f 60 48 2a be e7 00 ef 3e
       1.1783231 1.0964239 -0.16629171 0.46680376
000170 b1 bc 43 bf 10 33 ba 3f 8c 90 55 bd 05 ea 8d 3f
       -0.76459795 1.4546833 -0.052139804 1.1087042
000180 94 72 0d bf 2e 92 bc ba 5c 73 82 3e 51 71 19 3f
       -0.5525296 -0.0014386827 0.25478637 0.5993853
000190 2f 22 a6 bf b2 00 4a bf b9 79 ad 3f 45 56 97 3d
       -1.2979182 -0.7890731 1.3552772 0.073895015
0001a0 36 6f 82 be 54 de f3 be 28 1a 8c 3e 04 5e 11 bf
       -0.25475472 -0.4763056 0.27363706 -0.5678408
0001b0 0a 9d 93 bf 4d 39 7f bf 2f 17 33 3f c5 00 f3 3e
       -1.15323 -0.9969681 0.6995725 0.47461525
0001c0 b8 a2 87 3f 01 91 3c 3e 35 a3 8e 3e 73 9c 81 be
       1.0596533 0.1841469 0.27858892 -0.25314674
0001d0 3d 9d 3b be 3a fe 52 3f 94 83 be bd 24 9d 31 3f
       -0.183217 0.8241917 -0.0930244 0.693804
0001e0 66 46 37 bf 00 f3 8b bf 3f 9c 26 be 87 51 0e 3f
       -0.71591794 -1.0933533 -0.1627054 0.5559315
0001f0 92 d0 ac bf 55 83 92 3e 65 53 4c 3f 95 6e fd be
       -1.3501151 0.28615823 0.7981475 -0.4949843
000200 77 81 61 bf ab f5 82 3c 27 f6 52 3f b9 f2 64 3e
       -0.8808817 0.015986284 0.8240685 0.22358216
000210 25 19 35 3f 99 74 ef be cd 40 66 3f 90 2f c4 3e
       0.7074149 -0.46768644 0.8994263 0.38317537
000220 8e e3 fb bd 59 a1 d4 bd 8f 8b 41 3f a3 52 53 bf
       -0.12299262 -0.10382337 0.75603575 -0.8254797
000230 a3 21 bb 3d 4a 99 93 3f 6d 8e e5 be 73 fc 6f bf
       0.09137275 1.1531155 -0.44835225 -0.9374458

network_body._body_endoder.seq_layers.0.bias f4 [16]
000000 15 d0 6b be 88 ad 1b bd 0d 1f 50 bd 3e ef 5c bf
       -0.23028596 -0.03800729 -0.050810862 -0.86302555
000010 15 5e 0b 3f 4d 4a dc be 10 9d 1a 3f 80 a0 06 3f
       0.5444043 -0.43025437 0.6039591 0.52588654
000020 f1 60 f7 3e 0c cd a2 be b5 14 29 be d9 8a 32 3e
       0.48316148 -0.31797063 -0.16511805 0.17435779
000030 af 81 36 3e 40 62 ff be 1a b6 28 3e 40 f7 bf 3e
       0.17822908 -0.49879646 0.16475716 0.37493324

network_body._body_endoder.seq_layers.2.weight f4 [16, 16]
000000 05 9b 9b 3e 1d 1f b6 3e 44 03 a8 bf 7a 38 b4 be
       0.30391708 0.35570613 -1.3125997 -0.35199338
000010 ca 97 a9 bf 93 f0 89 3e 0c 83 88 bf 03 73 da be
       -1.3249447 0.26941356 -1.0664992 -0.42665872
000020 18 5f 83 3e 25 51 4f bd c5 56 b9 be ec 34 64 bf
       0.25658488 -0.050614495 -0.36199012 -0.8914325
000030 20 a0 c4 be 66 4c 6d 3f 04 6e d0 3d 20 de c9 be
       -0.38403416 0.926947 0.10177234 -0.3942728
000040 0a d4 49 3f 6b 72 d7 be 00 a8 8f bf 96 f7 2d 3f
       0.7883917 -0.4207948 -1.1223145 0.6795591
000050 e3 b4 33 3f 06 5c 5a bf 58 8d 4b 3e a2 0a 22 3f
       0.70197886 -0.85296667 0.19878137 0.63297474
000060 03 3c ee bf 4d 80 01 bf 59 49 0a bf 67 38 58 be
       -1.8612064 -0.50586396 -0.5401817 -0.21115266
000070 c8 37 51 bf 60 66 c4 3e 42 74 dd bf 6d 1a 02 be
       -0.8172574 0.38359356 -1.7301104 -0.12705393
000080 d3 63 4a 3d ef 34 c7 3e 05 fb bb be d9 62 bd 3d
       0.049411606 0.38907573 -0.3671495 0.09247369
000090 79 d5 16 bf 46 8f 7a bf f2 f5 37 3f 6f d6 61 3f
       -0.58919483 -0.9787487 0.7185966 0.88217825
0000a0 8c 51 8d bf 13 c9 88 bf 7a e7 41 be 74 ca 4a bf
       -1.1040511 -1.0686363 -0.18935958 -0.7921517
0000b0 38 0a 41 3f 85 f6 98 bf f6 8b 9c bf dd f3 ff 3c
       0.7540622 -1.1950232 -1.2230213 0.031244213
0000c0 12 39 c4 3e c2 1c 53 3f a2 bc ad bd e7 14 de 3d
       0.3832479 0.82465756 -0.084832445 0.108438306
0000d0 de e1 e1 3d 15 aa f4 be 36 5c 07 c0 70 d8 4c bf
       0.11029409 -0.47786012 -2.115003 -0.8001776
0000e0 93 ca ca 3e 24 54 4b 3f 36 24 a4 3d 52 2a 15 bf
       0.39607677 0.79425263 0.08014719 -0.582677
0000f0 ea 83 26 be 30 ec 3b 3f d2 99 e1 bd ce 74 88 bf
       -0.16261259 0.7340727 -0.11015667 -1.0660646
000100 f3 ac b9 bf af 17 3f bf 56 f2 c1 3a 63 f5 22 bf
       -1.4505905 -0.74645513 0.0014796953 -0.6365568
000110 00 60 b5 3d 04 0e 66 bf 7a 3b af bd d3 35 ec be
       0.08856201 -0.89865136 -0.08556266 -0.46134815
000120 6b 64 13 bf 82 e0 bc bf a3 04 1d 3f c6 72 ad 3e
       -0.575751 -1.4756014 0.613352 0.33876628
000130 fe 7b 5e 3f e3 ee cc bf 85 68 10 bf dc ed 7c bf
       0.8690795 -1.6010402 -0.56409484 -0.98800445
000140 dd de 41 3e b4 35 8a 3e f4 0d 8c bf eb 52 1e bf
       0.18932672 0.26994097 -1.0941758 -0.6184527
000150 ce ad 83 3f c6 5c d5 3b 7e 15 70 bf 6e 9c 2c bf
       1.0287416 0.0065113036 -0.93782794 -0.6742619
000160 51 66 a0 bd ec b3 96 be cd 92 90 bf 61 dc 11 be
       -0.07832015 -0.29434144 -1.12948 -0.14244224
000170 58 00 98 bf ae 6e 9c 3f 35 d0 67 3e 51 9d 20 3f
       -1.1875105 1.2221277 0.22638018 0.62740046
000180 2e 31 16 bd 07 95 98 3f de 7e ef bd de 85 ab be
       -0.036667995 1.192048 -0.1169412 -0.3350057
000190 f2 12 fa bf 07 7a 0f bf 91 7f c7 3d b1 24 52 bf
       -1.9537032 -0.56045574 0.09741128 -0.82087237
0001a0 f5 2b 00 3f 87 8e 23 be 2c da 3e 3e 9e 6d 3b bf
       0.50067073 -0.15972339 0.18637913 -0.7321414
0001b0 d0 ec 90 be 1c b6 50 3f 3e 22 f3 3e d4 0f 35 3e
       -0.28305674 0.81527877 0.47487062 0.17681819
0001c0 ec 6d 51 3f 8d 4a e7 3e f2 3e 95 bf 09 a7 1a 3d
       0.8180835 0.45174065 -1.1659834 0.037756953
0001d0 84 40 3e bf 86 17 5e bd f9 6d ca bf e3 b0 b9 bc
       -0.74317193 -0.054221652 -1.5814811 -0.022667354
0001e0 76 fc 6b bf 6f 5b d8 be 23 03 0d bf 7f 2c cc bf
       -0.921821 -0.42257258 -0.5508291 -1.5951079
0001f0 ef 3d d3 3d cb 06 d0 3e 91 f9 59 bf 67 ee 90 bf
       0.10314547 0.40630183 -0.85146433 -1.1322755
000200 8d 9a b1 be b4 a6 f9 3e a7 d5 93 3e fb 5c e1 3e
       -0.34688225 0.48759997 0.2887394 0.4401625
000210 85 f0 d6 be 38 de bd 3f 4b 39 c7 3e 53 7d e8 bd
       -0.41980377 1.4833441 0.389109 -0.11352029
000220 47 03 b7 be 15 3d 33 be 21 08 0a be e3 a1 7d 3f
       -0.35744688 -0.1750377 -0.13479663 0.99075145
000230 8b 36 e0 3e 85 39 01 bf f9 59 2f be ab 27 0c 3f
       0.43791613 -0.5047839 -0.17124166 0.5474803
000240 b4 1e 72 bf 06 97 1b 3f 79 4d c2 be 95 b9 9c bf
       -0.945781 0.6077732 -0.37949732 -1.2244135
000250 6b c7 48 be 49 8e 1d 3e e1 95 10 3e d8 59 37 3c
       -0.19607322 0.15386309 0.14119674 0.011190854
000260 38 a4 ec 3e 23 a7 1b be cc de 46 bf 36 97 84 bd
       0.4621904 -0.15200476 -0.7768371 -0.06474154
000270 01 59 18 3f 98 de 8a bf b4 10 09 3e 7b 39 30 be
       0.5951081 -1.084918 0.13385278 -0.17209427
000280 c7 9a 86 3f 13 c4 a2 bf f4 a2 2d bf 8a e3 8b be
       1.0515984 -1.2716087 -0.6782677 -0.27322036
000290 8f db a1 3f 62 cc c3 3d 1b 07 9d be ac 5f 77 3e
       1.2645129 0.09560467 -0.30669484 0.2415759
0002a0 44 bd fa 3e fd 3f 60 bd cd 96 b7 be 1c 1b 81 3e
       0.48972523 -0.054748524 -0.3585724 0.25215995
0002b0 58 c4 20 bf f1 c4 cf 3c d2 07 8b 3e 30 5e 33 bd
       -0.62799597 0.025362464 0.27154404 -0.043790996
0002c0 98 72 1a bf 9f c2 4f be 8c 2b 33 3f 80 90 87 bd
       -0.60331106 -0.20289086 0.6998832 -0.06619358
0002d0 c0 fb ef 3e 70 c3 24 be 70 3c 8f bf 94 bc f4 be
       0.46871758 -0.16090178 -1.1190319 -0.47800124
0002e0 dd e2 94 bf 55 6a a2 3e 39 4e 3a 3d 64 af 19 3f
       -1.1631733 0.3172175 0.045484755 0.6003325
0002f0 28 23 41 3f 8c 3f cb bd dc 3b a4 be fe ff d1 bf
       0.7544427 -0.0992423 -0.3207692 -1.6406248
000300 08 90 9f bc d2 d6 71 bf 8d 33 44 be f7 78 72 bf
       -0.01947786 -0.94468415 -0.1916029 -0.9471583
000310 cc 08 93 3f cf 19 a1 be 18 0e 07 bf 83 44 48 be
       1.148706 -0.31465003 -0.5275588 -0.19557385
000320 8c 58 30 bf 30 09 08 be 7f 1d 89 be 08 d0 42 bf
       -0.6888511 -0.13284755 -0.26780316 -0.7609868
000330 7c 98 17 bf d9 07 20 3e e4 63 2f be 4e ef c2 be
       -0.5921705 0.15627994 -0.17127949 -0.380732
000340 23 99 23 3f 29 3f 1e 3f f9 7d 42 bd 51 ad 60 3f
       0.63905543 0.61815125 -0.047483418 0.8776446
000350 fa 25 91 3e a1 ff b7 be da 47 2c bf 93 e8 86 bf
       0.28349286 -0.35937217 -0.67297137 -1.0539726
000360 0a a9 42 3f 1b 7f 5a 3f fe 49 3f 3f e1 d5 de bd
       0.76039183 0.853502 0.7472228 -0.10880638
000370 df 94 b8 3e bb e1 66 3d 27 c8 2e 3f cf 3f 7f be
       0.3605108 0.056367617 0.6827416 -0.24926685
000380 bb 77 5f bf 67 53 a7 bd f0 ba d5 be a7 7c 30 bf
       -0.8729207 -0.081702046 -0.41744184 -0.68940204
000390 5c f8 c1 be 81 bf 64 3f ec 50 64 3f 0b da b3 bc
       -0.37884796 0.8935471 0.89185977 -0.021954557
0003a0 9d d0 ed 3d bc 5a bf 3e 14 af aa 3d 32 8f 35 3e
       0.116120555 0.37373912 0.08334175 0.17730406
0003b0 12 07 64 bf 9d 2f 21 3f 59 72 c6 3d f3 06 82 3f
       -0.8907329 0.6296328 0.09689779 1.0158371
0003c0 d9 57 2d bf 3f 2a 5c bf b0 da af 3f e5 e9 3c 3e
       -0.6771217 -0.8600196 1.3738613 0.18448599
0003d0 01 34 ce 3e f1 7d dc bd fd 1a 0e bf 31 52 14 3d
       0.4027405 -0.10766209 -0.5550993 0.036211196
0003e0 2c 88 59 3f f7 e7 a5 3f 64 2c 23 bf 34 51 a7 be
       0.84973407 1.2961415 -0.6373961 -0.3267914
0003f0 8e d6 c4 3d 97 2c 85 bf 94 01 3d 3f f9 37 0c be
       0.096112356 -1.0404233 0.73830533 -0.13693227

network_body._body_endoder.seq_layers.2.bias f4 [16]
000000 6d 79 36 bf d8 64 a5 be a4 76 76 3f 4b 46 1f be
       -0.7127903 -0.323035 0.9627478 -0.15554158
000010 e0 36 75 3e be 8f bf be 05 5d 23 bf 62 46 07 bf
       0.23946714 -0.37414354 -0.6381381 -0.5284177
000020 e3 b7 6a 3e 1c 67 38 3f 03 f4 15 3f 83 f8 c0 be
       0.2292171 0.7203233 0.5857546 -0.376896
000030 d5 b8 ca 3d 01 5e aa 3e cb cb 1c bf f5 98 a8 bc
       0.09898535 0.33274844 -0.61248463 -0.020580748

action_model._discrete_distribution.branches.0.weight f4 [10, 16]
000000 90 41 c9 3c c7 c2 16 bb ee 4d 9f 3c 1f bd be bc
       0.024567395 -0.002300428 0.01944634 -0.02328354
000010 fe b1 c8 bc 1c f3 03 bc 93 c2 48 bd 48 bb 26 bb
       -0.024498936 -0.008053567 -0.049013685 -0.0025441218
000020 4b 99 93 3b de 5b 03 3c 02 c8 57 bd 2a f4 e7 bb
       0.004504358 0.008017508 -0.052680977 -0.007078667
000030 75 a0 67 3c a0 dd cc 3c 41 76 33 3d 5c 38 31 bc
       0.014137377 0.025008023 0.043813948 -0.01081666
000040 ee c7 02 bc fb 37 07 3f a5 37 08 3e 0c 95 bb 3c
       -0.007982237 0.52819794 0.13302477 0.02289822
000050 ba c1 bd be e6 35 c5 3d cb f8 36 bf 76 a2 84 3e
       -0.37061864 0.09629421 -0.7147338 0.25905198
000060 46 3c 60 3e 62 b4 99 3c d6 5d 81 3e 77 68 a9 3e
       0.21897992 0.018762771 0.25266904 0.33087513
000070 1e d0 10 3f f5 94 63 3d a4 16 8b 3e 6f 4a cd 3e
       0.5656756 0.05556198 0.2716571 0.4009585
000080 0a 61 f1 3e 1c d0 55 3f 1b 4a 64 bf f4 fc f0 be
       0.47144347 0.83520675 -0.89175576 -0.47067988
000090 be 28 a6 be 7e ae 9b 3f da 28 6b 3e 2b c7 c1 be
       -0.3245296 1.2162626 0.22964802 -0.37847266
0000a0 e1 05 b8 be 50 41 9d bf 22 a1 b0 3e 21 67 d1 3e
       -0.35941985 -1.2285557 0.34497935 0.40898994
0000b0 96 ca fd 3e 54 0e 30 bf 73 b6 38 be e4 83 9f 3e
       0.49568623 -0.68771863 -0.18038349 0.31155312
0000c0 07 d3 10 bf 67 5d c9 3d c0 f3 57 3e 77 83 09 bf
       -0.56572 0.09832268 0.21089077 -0.53716224
0000d0 b9 7c 26 3f 00 94 94 3e 59 2d 5e bf 2f 55 e5 be
       0.6503406 0.29019165 -0.86787945 -0.44791552
0000e0 68 cb ba be 01 ff 5f 3e d8 f2 91 3f b4 59 51 bf
       -0.36483312 0.2187462 1.1402235 -0.817775
0000f0 9f d3 06 3f e3 c8 9d bd 40 49 db be 91 80 94 be
       0.5266666 -0.07704332 -0.42829323 -0.29004338
000100 82 58 37 3f a9 37 03 bf 9e 38 8b be ce d6 fa bc
       0.7161943 -0.51256806 -0.27191633 -0.030620005
000110 18 37 ed 3e c2 08 3d 3f e3 d2 0f 3f 97 90 0e 3f
       0.46331096 0.7384149 0.5618116 0.55689377
000120 88 9a 1e bd e1 33 ad 3b 4e 8c 50 be 44 6b 83 be
       -0.03872159 0.0052857255 -0.20366022 -0.25667775
000130 f2 95 01 bf df 12 28 bf 0b 21 27 3f 4b 8e 26 bf
       -0.50619423 -0.65653795 0.65284795 -0.6506087
000140 e4 ed 9f be 4d 9a 1d bf 37 8a 9b 3c 46 dd 42 3f
       -0.31236184 -0.6156357 0.018986804 0.76118886
000150 ee 14 1d bf 7c 85 fc 3e 84 15 d1 be 3d 3a 55 bf
       -0.6136006 0.4932059 -0.40836728 -0.8329199
000160 dd 79 a8 be 1d c6 d5 be 8a ff b1 be 24 09 a8 3c
       -0.32905474 -0.4175271 -0.34765273 0.020512171
000170 6a f4 d3 be 6d 06 67 3f 1d ec 00 bf cb c8 76 be
       -0.4139741 0.9024418 -0.5036028 -0.24100034
000180 51 d4 4e 3f a3 50 35 be 45 7a c6 3c 5e 4d 4b 3f
       0.8079272 -0.17706542 0.024228225 0.7941493
000190 3a a8 03 3f 66 1e 51 bd 21 0b 19 3f 8a f4 b3 3f
       0.5142857 -0.05105438 0.59782606 1.4059002
0001a0 b8 38 04 be 3d 9e 0c bf 6c 4e 0a bf 20 9f ff 3e
       -0.12912261 -0.5492895 -0.5402591 0.4992609
0001b0 05 21 0c 3e e6 47 20 3e bf ad 04 bf 0e ce 6a bf
       0.13684471 0.15652427 -0.51827615 -0.91720665
0001c0 bd 58 13 bf 8d 79 2c bf 14 92 63 3d 19 74 e9 ba
       -0.5755728 -0.6737297 0.055559233 -0.0017811089
0001d0 1e b2 37 3f 80 16 31 bf 2c a5 e3 be b2 e0 c7 be
       0.7175616 -0.6917496 -0.44461954 -0.39038616
0001e0 f9 f2 8f 3f 35 09 20 3f 07 2f b7 3d 63 43 09 3f
       1.1246024 0.6251405 0.08944517 0.5361845
0001f0 b4 19 8d 3e 50 e3 f1 bd f7 67 29 3f 01 af 09 3c
       0.27558672 -0.118109345 0.6617426 0.008403541
000200 77 2b 74 bd 19 16 40 bf 43 4a a1 be a3 b9 87 be
       -0.059611764 -0.7503372 -0.3150197 -0.26508817
000210 bf fe 52 bf c8 b7 2d bf 9b c4 a8 3f 98 4b d2 be
       -0.8241996 -0.6785855 1.3184999 -0.41073298
000220 a1 c8 b9 bd 3c 2d bf 3e 1c 1d 9f bf 01 8b ea be
       -0.0907147 0.373392 -1.2430758 -0.45809177
000230 e0 59 9c be fb 85 e3 bd 09 38 0a 3e 9e 56 1b 3e
       -0.3053732 -0.11109539 0.13497938 0.1516976
000240 ac e0 80 bd 37 14 7b 3f 65 05 75 3f c9 7d e8 be
       -0.06292853 0.9807772 0.95711356 -0.45408466
000250 7a 0a ce be fc 15 e4 be c4 11 55 be e0 74 7a 3e
       -0.40242368 -0.44548023 -0.20807558 0.24458647
000260 17 14 25 be 21 37 0e 3f f5 e6 10 3e d1 de 5f be
       -0.16120945 0.5555287 0.14150603 -0.21862341
000270 44 51 1a bf 09 7f 0b 3d 70 9e db 3d c7 94 51 3f
       -0.6028025 0.034056697 0.10723579 0.8186764

action_model._discrete_distribution.branches.0.bias f4 [10]
000000 00 00 00 00 a0 72 98 3d 97 93 23 bf 53 c9 0a 3f
       0.0 0.07443738 -0.6389708 0.54213446
000010 6c 28 0d bf 4c 0d d4 3e c7 ed 06 bf 3d 62 2d 3f
       -0.55139804 0.41416395 -0.5270657 0.67728025
000020 fb 20 52 bf 43 b8 cb 3e
       -0.82081574 0.39789018
