SelfPlay_Build/results/Self_TTT_1/O_Behavior/O_Behavior-1510.onnx (onnx, 286162 bytes, 8 tensors)

network_body.observation_encoder.processors.0.normalizer.running_mean f4 [9]
00000000: 0000 0000 44a9 7f3f 0000 0000 0000 0000
00000010: 0000 0000 0000 0000 0000 0000 0000 0000
00000020: 0000 0000
0.0 0.99867654 0.0 0.0 0.0 0.0 0.0 0.0
0.0

network_body._body_endoder.seq_layers.0.weight f4 [256, 9]
00000000: 19d7 0a3f b7bf 53be 8776 fe3d b708 d23e
00000010: ff7b 713e 2279 763e 6803 ff3e cc59 98bd
00000020: 4eba 083d 3c7e 20be b4d3 b3be a638 1b3d
00000030: 5058 5b3e 7167 043f 7369 57be 2dea 963e
00000040: 6b51 383f b304 32be fc85 b1be af0a 63bc
00000050: c6c8 b33d 4200 b6be 2bd9 e4be bcbb 0cbf
00000060: 5442 e03e 6a8a 2b3d 5a0a 6f3e 1c22 fd3d
00000070: 1f27 2dbe 0c04 173f 2429 1bbd b670 19be
00000080: 78a1 f03e 3807 eebd ffce a63d f095 de3e
00000090: 98f5 8fbd 7ae5 dfbe c8bf c53d df58 743e
000000a0: 06e5 febe 9a1f 243e 4295 e03e 107b 463e
000000b0: e4e6 b73e 1ba3 b1bd 7c2e bd3b 0052 2a3e
000000c0: 5c73 efbe 2bba e8bc 2f78 893d 0472 c8be
000000d0: 7847 59bf aac0 f5be 57e9 ba3e 83e6 a03e
000000e0: 018b 01bf b95a a6bd dae8 da3e 7885 1abd
000000f0: 16b7 463e f2c2 d73d a243 f1be 0824 53bf
00000100: c690 c63e 2a33 7f3e 136e 953e da04 493e
00000110: ca32 9dbe 9630 ebbe 96d8 1fbe 4bf7 82bd
00000120: da9b 26bb 925f a13e 0421 043f 21f3 0a3f
00000130: c7d1 f0bd 274b 563e 67ea 90be b80c 1fbe
00000140: 34e4 cb3b 025b e83e ab42 8b3e 14de 963e
00000150: da4c 883e c39e b3be 2269 01bc 4bbe 933d
00000160: de55 a03e 5624 0d3f 6f8b 623f 1bed c83e
00000170: af9a e33e 228e c23e 9a50 153d cf15 b5be
00000180: cbb0 bc3e e687 28be 681d acbe 0bea 77be
00000190: 7b75 573e ccf3 1abf 230c d6bc 4539 0bbf
000001a0: 9ae8 333f e66c d43e db71 783d bcc6 ce3d
000001b0: 6a80 003e c478 0cbe 3e63 143e 0ebd 86be
000001c0: ff27 403e 7d14 9c3e b0a7 603e 601c e13d
000001d0: fd22 813e 92cd 943e ba21 833e fc6b 183e
000001e0: d0b5 b23e 0095 913e 38a8 d8be 3450 72be
000001f0: a341 033e eb4f cd3c 3015 efbd fd63 a43e
00000200: a00c fbbe 415b a83d db87 61be a319 f2bd
00000210: e077 c5be c2b3 b7be f1fb 0d3f 3af1 973e
00000220: 2c39 4c3c 9cb8 c9be dc74 a73e 382b ae3d
00000230: b790 f33a 4a84 8f3b 62ef 4bbe 579f aebe
00000240: 4209 823e 271c 233e d373 24be cfcf 563e
00000250: 14b2 a2bc 627d 223e b2a4 173e e612 183f
00000260: 92b8 763e 1a8d 57be 666a 703e a064 0ebf
00000270: 03bd b83e 3391 573d c7e0 753e aa08 4b3d
00000280: b2be 36be a210 913e e7ff af3e 0841 223f
00000290: 2642 a73e 0209 efbe 5083 5cbe 522f ca3e
000002a0: a0b0 5c3e fa02 69be 4c15 06be 770a fcbe
000002b0: 44e8 86be 3008 92be f5eb 04be ea48 ba3e
000002c0: 0211 4abc bb79 663e 04a0 6a3e 3240 67be
000002d0: 06a7 8abe 2263 d4be ab68 9abc 7760 7bbd
000002e0: 1ac6 9bbe 0eca 2cbf 9228 4abe 339d 503f
000002f0: 2244 933e abd6 9d3e aebb 013f f52a 99bd
00000300: 96f6 88be 751c 90be 0c65 2e3e 4225 b8bc
00000310: fae8 adbe 96bf 723e c389 dd3d c7d8 65be
00000320: 234a 97be 2abb b33d 73d6 d4bd a464 99bd
00000330: 4676 3dbe 148c 98be 3b84 6e3b 7347 423f
00000340: 4efd 0ebe 50e0 80be 6fca 3fbf 84cc 7bbe
00000350: 3301 d9be 2264 e93d abaf 8bbe fdf5 263f
00000360: ba84 413f 4cfb f13e b604 28bd b8a9 f2be
00000370: 502a 8a3e 3c86 5ebe e7cd 08be 3acd 503e
00000380: 2885 b93e 56b1 a1be ea50 55bd f23c 493e
00000390: 6fbb c33d e693 803e 005d 6dbe 03e8 2b3f
000003a0: 0987 a4be 0646 42bf 2a29 19bf f675 e8bd
000003b0: 8f36 65be 4c3b f0be ecb0 49bd f249 4a3e
000003c0: 6a45 29bf a3c5 fe3d c425 de3e 9bba dc3e
000003d0: d0c4 583e b3cd bebd 1f60 e73e 8a33 06be
000003e0: faf6 19be ea9e 333f edbb 12be 5603 7fbe
000003f0: da02 1dbe e669 b53e 7139 913e 8784 e83e
0.5423446 -0.20678602 0.12424951 0.41022274 0.23582457 0.24069646 0.49807286 -0.074390024
0.0333808 -0.15673155 -0.35122454 0.03789582 0.21420407 0.5172034 -0.2103632 0.29475537
0.71999234 -0.17384605 -0.34672534 -0.013857528 0.08778529 -0.35547072 -0.44696936 -0.5497396
0.43800604 0.04188005 0.23343793 0.123600215 -0.16909455 0.5899055 -0.03788103 -0.14984402
0.4699819 -0.116224706 0.0814495 0.43473768 -0.07029265 -0.43729764 0.0965572 0.23862027
-0.49784106 0.1602768 0.43863875 0.19382882 0.35918343 -0.08673688 0.0057733636 0.16632843
-0.467677 -0.028409084 0.06712376 -0.39149487 -0.8487468 -0.47998554 0.3650615 0.31425866
-0.5060273 -0.08122773 0.42755777 -0.037724942 0.19405779 0.1053523 -0.47121912 -0.82476854
0.38782328 0.24921861 0.29185542 0.19630757 -0.3070281 -0.45935506 -0.15609965 -0.06394824
-0.0025422485 0.31518227 0.5161288 0.54277235 -0.11758762 0.20927106 -0.28303835 -0.15532196
0.0062222723 0.45381933 0.271993 0.29466307 0.26621133 -0.35082063 -0.007898601 0.0721403
0.3131551 0.5513357 0.8849401 0.39243397 0.44453952 0.37999064 0.03645382 -0.353682
0.36853632 -0.16458091 -0.33616185 -0.24210374 0.21040909 -0.60528255 -0.026128834 -0.5438426
0.70276797 0.41489333 0.060655456 0.10096499 0.12548986 -0.13717943 0.14490983 -0.26316112
0.18765257 0.3048438 0.21938968 0.1099174 0.25222006 0.29063088 0.2561167 0.14884943
0.34904337 0.2843399 -0.4231584 -0.23663408 0.12818007 0.025062522 -0.11673963 0.32107535
-0.4903307 0.0822053 -0.22024481 -0.11821296 -0.3856802 -0.35879332 0.5546256 0.2967623
0.012464803 -0.39398658 0.32706344 0.08504337 0.0018582557 0.0043797838 -0.19915536 -0.34105942
0.25397688 0.15928708 -0.16059808 0.2097771 -0.019860305 0.15868142 0.1480892 0.59403837
0.24093845 -0.2104992 0.23478088 -0.5562229 0.36081704 0.052628707 0.24011527 0.04956881
-0.17846182 0.28333002 0.34374925 0.6338048 0.32667655 -0.4668656 -0.21534467 0.39489228
0.21551752 -0.22755042 -0.13094062 -0.49226734 -0.2634908 -0.28521872 -0.12980635 0.36383754
-0.012333157 0.22507374 0.22912604 -0.22583082 -0.27080554 -0.41481882 -0.018848738 -0.061371293
-0.30424577 -0.6749581 -0.19742039 0.81489867 0.2876292 0.3082784 0.50677 -0.074788965
-0.2675063 -0.2814671 0.17030734 -0.022478703 -0.3396681 0.23705897 0.108172916 -0.22445975
-0.2954875 0.08775933 -0.103924654 -0.07489899 -0.18502149 -0.2979437 0.0036394733 0.7589027
-0.13963816 -0.25171137 -0.74918264 -0.24589735 -0.42383727 0.11396052 -0.27282462 0.652191
0.7559315 0.47262037 -0.041020118 -0.4739511 0.26985407 -0.21730894 -0.13359796 0.20390788
0.36234403 -0.3158061 -0.05207912 0.19652155 0.095572345 0.25112838 -0.23180008 0.67150897
-0.32134274 -0.758881 -0.59828436 -0.11350624 -0.22384094 -0.4692024 -0.04924099 0.1975477
-0.6612154 0.1244004 0.43388188 0.4311112 0.21168828 -0.09316578 0.45190522 -0.13105598
-0.1503562 0.7016436 -0.143295 -0.24903616 -0.15333119 0.35432357 0.28364137 0.4541361

network_body._body_endoder.seq_layers.0.bias f4 [256]
00000000: 0000 0000 0000 0000 0000 0000 0000 0000
00000010: 0000 0000 0000 0000 0000 0000 0000 0000
00000020: 0000 0000 0000 0000 0000 0000 0000 0000
00000030: 0000 0000 0000 0000 0000 0000 0000 0000
00000040: 0000 0000 0000 0000 0000 0000 0000 0000
00000050: 0000 0000 0000 0000 0000 0000 0000 0000
00000060: 0000 0000 0000 0000 0000 0000 0000 0000
00000070: 0000 0000 0000 0000 0000 0000 0000 0000
00000080: 0000 0000 0000 0000 0000 0000 0000 0000
00000090: 0000 0000 0000 0000 0000 0000 0000 0000
000000a0: 0000 0000 0000 0000 0000 0000 0000 0000
000000b0: 0000 0000 0000 0000 0000 0000 0000 0000
000000c0: 0000 0000 0000 0000 0000 0000 0000 0000
000000d0: 0000 0000 0000 0000 0000 0000 0000 0000
000000e0: 0000 0000 0000 0000 0000 0000 0000 0000
000000f0: 0000 0000 0000 0000 0000 0000 0000 0000
00000100: 0000 0000 0000 0000 0000 0000 0000 0000
00000110: 0000 0000 0000 0000 0000 0000 0000 0000
00000120: 0000 0000 0000 0000 0000 0000 0000 0000
00000130: 0000 0000 0000 0000 0000 0000 0000 0000
00000140: 0000 0000 0000 0000 0000 0000 0000 0000
00000150: 0000 0000 0000 0000 0000 0000 0000 0000
00000160: 0000 0000 0000 0000 0000 0000 0000 0000
00000170: 0000 0000 0000 0000 0000 0000 0000 0000
00000180: 0000 0000 0000 0000 0000 0000 0000 0000
00000190: 0000 0000 0000 0000 0000 0000 0000 0000
000001a0: 0000 0000 0000 0000 0000 0000 0000 0000
000001b0: 0000 0000 0000 0000 0000 0000 0000 0000
000001c0: 0000 0000 0000 0000 0000 0000 0000 0000
000001d0: 0000 0000 0000 0000 0000 0000 0000 0000
000001e0: 0000 0000 0000 0000 0000 0000 0000 0000
000001f0: 0000 0000 0000 0000 0000 0000 0000 0000
00000200: 0000 0000 0000 0000 0000 0000 0000 0000
00000210: 0000 0000 0000 0000 0000 0000 0000 0000
00000220: 0000 0000 0000 0000 0000 0000 0000 0000
00000230: 0000 0000 0000 0000 0000 0000 0000 0000
00000240: 0000 0000 0000 0000 0000 0000 0000 0000
00000250: 0000 0000 0000 0000 0000 0000 0000 0000
00000260: 0000 0000 0000 0000 0000 0000 0000 0000
00000270: 0000 0000 0000 0000 0000 0000 0000 0000
00000280: 0000 0000 0000 0000 0000 0000 0000 0000
00000290: 0000 0000 0000 0000 0000 0000 0000 0000
000002a0: 0000 0000 0000 0000 0000 0000 0000 0000
000002b0: 0000 0000 0000 0000 0000 0000 0000 0000
000002c0: 0000 0000 0000 0000 0000 0000 0000 0000
000002d0: 0000 0000 0000 0000 0000 0000 0000 0000
000002e0: 0000 0000 0000 0000 0000 0000 0000 0000
000002f0: 0000 0000 0000 0000 0000 0000 0000 0000
00000300: 0000 0000 0000 0000 0000 0000 0000 0000
00000310: 0000 0000 0000 0000 0000 0000 0000 0000
00000320: 0000 0000 0000 0000 0000 0000 0000 0000
00000330: 0000 0000 0000 0000 0000 0000 0000 0000
00000340: 0000 0000 0000 0000 0000 0000 0000 0000
00000350: 0000 0000 0000 0000 0000 0000 0000 0000
00000360: 0000 0000 0000 0000 0000 0000 0000 0000
00000370: 0000 0000 0000 0000 0000 0000 0000 0000
00000380: 0000 0000 0000 0000 0000 0000 0000 0000
00000390: 0000 0000 0000 0000 0000 0000 0000 0000
000003a0: 0000 0000 0000 0000 0000 0000 0000 0000
000003b0: 0000 0000 0000 0000 0000 0000 0000 0000
000003c0: 0000 0000 0000 0000 0000 0000 0000 0000
000003d0: 0000 0000 0000 0000 0000 0000 0000 0000
000003e0: 0000 0000 0000 0000 0000 0000 0000 0000
000003f0: 0000 0000 0000 0000 0000 0000 0000 0000
0.0 0.0 0.0 0.0 0.0 0.0 0.0 0.0
0.0 0.0 0.0 0.0 0.0 0.0 0.0 0.0
0.0 0.0 0.0 0.0 0.0 0.0 0.0 0.0
0.0 0.0 0.0 0.0 0.0 0.0 0.0 0.0
0.0 0.0 0.0 0.0 0.0 0.0 0.0 0.0
0.0 0.0 0.0 0.0 0.0 0.0 0.0 0.0
0.0 0.0 0.0 0.0 0.0 0.0 0.0 0.0
0.0 0.0 0.0 0.0 0.0 0.0 0.0 0.0
0.0 0.0 0.0 0.0 0.0 0.0 0.0 0.0
0.0 0.0 0.0 0.0 0.0 0.0 0.0 0.0
0.0 0.0 0.0 0.0 0.0 0.0 0.0 0.0
0.0 0.0 0.0 0.0 0.0 0.0 0.0 0.0
0.0 0.0 0.0 0.0 0.0 0.0 0.0 0.0
0.0 0.0 0.0 0.0 0.0 0.0 0.0 0.0
0.0 0.0 0.0 0.0 0.0 0.0 0.0 0.0
0.0 0.0 0.0 0.0 0.0 0.0 0.0 0.0
0.0 0.0 0.0 0.0 0.0 0.0 0.0 0.0
0.0 0.0 0.0 0.0 0.0 0.0 0.0 0.0
0.0 0.0 0.0 0.0 0.0 0.0 0.0 0.0
0.0 0.0 0.0 0.0 0.0 0.0 0.0 0.0
0.0 0.0 0.0 0.0 0.0 0.0 0.0 0.0
0.0 0.0 0.0 0.0 0.0 0.0 0.0 0.0
0.0 0.0 0.0 0.0 0.0 0.0 0.0 0.0
0.0 0.0 0.0 0.0 0.0 0.0 0.0 0.0
0.0 0.0 0.0 0.0 0.0 0.0 0.0 0.0
0.0 0.0 0.0 0.0 0.0 0.0 0.0 0.0
0.0 0.0 0.0 0.0 0.0 0.0 0.0 0.0
0.0 0.0 0.0 0.0 0.0 0.0 0.0 0.0
0.0 0.0 0.0 0.0 0.0 0.0 0.0 0.0
0.0 0.0 0.0 0.0 0.0 0.0 0.0 0.0
0.0 0.0 0.0 0.0 0.0 0.0 0.0 0.0
0.0 0.0 0.0 0.0 0.0 0.0 0.0 0.0

network_body._body_endoder.seq_layers.2.weight f4 [256, 256]
00000000: 0021 1fbd 19c3 c13c 122f febb 0ad7 c2bc
00000010: 0dfe 7f3d ee6b a3bc df70 433d 0c34 ab3b
00000020: 1a6e 923d 6f5d 953d d065 c33c 2f42 28bd
00000030: 4db7 633d d5ee 38bd 0fc8 5e3c 3dd6 a0bd
00000040: 4b30 293d d853 163b d2c5 ca3c 2ee2 5c3d
00000050: 2f98 bf3c 6ffe 423c 768b d5bc 9b6e 93bd
00000060: 3566 10bd b547 c5bd a074 51bd acb3 78bd
00000070: 248a 4ebd da67 7cbd 8b97 e93d 9589 6e3d
00000080: 6866 b9bd d67c e43d 574e e1bd 52a4 41bd
00000090: 6fe1 35bd 42cf 5d3d bf81 c83c 6faf b83c
000000a0: 5c4d 89bc 64fe 1fbc 6984 e73b 3b82 193d
000000b0: 1cd8 10bc 70be 70ba 3ccd 3a35 8a31 193d
000000c0: 8933 7abc acee 0cbd 8821 253c c7c6 dcbd
000000d0: 808d a53d 0148 b6bd 7f36 4ebd 4631 953d
000000e0: cf05 313b 0303 d93c 7670 86bd 0603 c1bd
000000f0: d1a1 0b3d 1a89 5cbc 15f6 313c c7db 0cbd
00000100: 9446 c6bc 1b70 efbd 7984 8a3d 1cf0 ddbc
00000110: ac59 6e3c 174f a93c 527c 8dbc 1114 903d
00000120: 442f 10bd a331 183d 489a 3fbd dfa9 433d
00000130: bcbb 01bd 2583 31bd 76ba 603d 53b7 bb3d
00000140: 88d4 803a 6165 8dbd f537 223d 3277 373c
00000150: 8b7d 32bd 522e 68bd 4c85 49bd 2976 eb3c
00000160: 3709 8dbc 1401 323b bf28 6bbd b573 65bd
00000170: 407b 693c 32ae 123d f211 b63d 0a93 873d
00000180: 6ff0 d23d deaa e7bc 079e 41bc c9e6 4cbd
00000190: d985 afbd 8822 423d 46c0 bdbc 0ed6 b53d
000001a0: 1b10 b93d f16d 00bc 5323 69bd 76ce 4abd
000001b0: 9eff 18bd 900e 6f3d ed70 d5bb 8071 25bd
000001c0: 5f23 05bb 9b80 8bbc caf6 42bd 49d2 143e
000001d0: 4b65 813a 61de eebc 522f 543d 7896 dabb
000001e0: 9baa 33bd 68b6 a1bc 8271 12bc a8ad 5c3d
000001f0: 0e57 153c 99c0 44bc ece4 d63c 5303 e13c
00000200: b659 c6bb 7664 35be 6f93 f23d 0a7b 56bd
00000210: d76f b53d 37be 58bd fab2 c93c 14f3 be3d
00000220: f3fc b23d 000e 173d e6fb eebc 7211 0abd
00000230: 2b5c 373d e8fa 913d 9ab9 073e a867 5cbd
00000240: 40a6 92bd 1421 68bd 3757 0f3b bcdf f93c
00000250: 08de bc3c 831c 6cbd 5ed3 9cbd 79b1 f43c
00000260: c7a3 893c 2e14 e03d 090f 873c 5398 3e3d
00000270: 7b00 953d 4df3 cc3c c3a0 973b 90ec 073d
00000280: beb4 85bb 5cff 8d3c d921 4a3d 45a3 23be
00000290: 9384 903b c9f5 3bbd 3eeb 0bbd 57e6 23bd
000002a0: c65d f1bd 5c42 07be 76f8 1bbc dd06 223d
000002b0: d4d2 ad3d 263d 043b db7b c13d 526a a9ba
000002c0: aa94 a03b 82ca 95bd 0404 bebd 8208 64bd
000002d0: 30c8 c23d 1f7f 293d d851 043d 6c49 6f3d
000002e0: 6d1d 55bc e1a2 3bbd 65bc 003d 4d7b 613d
000002f0: 5c3b 8b3c 7f13 563b 0899 51bd ec6e 963d
00000300: c172 353d 8551 2fbd 8c7d bdbd eb2e 52bd
00000310: ed0e 323b d4a8 133d 448a 7b3d f120 efbd
00000320: 5cf0 1f3e 0ed0 0f3e 3ec7 b4bb 20f4 3fbd
00000330: f3ec 723d b4c0 da3d 6429 1d3e 4f21 e3bc
00000340: b5b1 37bc 3a62 3abc c290 ca3c 7971 79bd
00000350: 1f21 5cbc 4ca8 f8bc 6184 8bbb 8cf1 f8bc
00000360: 3910 8e3b 34c0 a0bc 05aa c4bd 792f 5cbd
00000370: 567b 7bbc 6da4 70bc 89fd d43d 794e 193d
00000380: b076 2d3c f3c3 a53d dc76 d83b 3ca2 bdbb
00000390: 23d4 bdbc 0c03 febb 85e7 823c f21d a13a
000003a0: 890d ebbd beff 873c 6d99 d4bd 2fed 83bd
000003b0: eac7 813d 077f 47bd 0c6b 943d d335 e73b
000003c0: b1fb f73d e7bf a5bd 37a7 173d c5de ba3c
000003d0: 39fa 96bb 1363 3bbd 725f 673d 8d49 e33d
000003e0: 8f91 883c 8372 b93c 9c36 b6bd 5076 c23d
000003f0: 5579 8f3c e52c b93b 0414 413e c9db 9cbd
-0.03884983 0.0236526 -0.007757076 -0.02378418 0.06249814 -0.019948926 0.047715064 0.0052247103
0.071499065 0.07293212 0.023852259 -0.041078743 0.05559473 -0.045149643 0.013597502 -0.07853363
0.04130582 0.0022938158 0.024752531 0.05392664 0.023387996 0.011901482 -0.026067477 -0.07198831
-0.035253722 -0.09632818 -0.051136613 -0.060718223 -0.05042471 -0.061622478 0.11405858 0.058236677
-0.090527356 0.11156623 -0.1100127 -0.04727585 -0.044404443 0.054152735 0.02447593 0.02254459
-0.01676052 -0.009765241 0.007065345 0.037477713 -0.008840587 -0.0009183651 6.9589055e-07 0.03740076
-0.015271076 -0.034407303 0.010078795 -0.10780101 0.080836296 -0.089004524 -0.05034494 0.07284789
0.0027011519 0.026490694 -0.06564419 -0.09424405 0.034089867 -0.013460422 0.010861893 -0.034389284
-0.024203576 -0.11691304 0.067635484 -0.027092032 0.014547747 0.020667596 -0.017271195 0.07035077
-0.035201326 0.037156712 -0.046777993 0.047769424 -0.031673178 -0.04333796 0.054865323 0.09165826
0.0009828964 -0.06904102 0.039604146 0.011197852 -0.04357676 -0.0566848 -0.049199387 0.028742867
-0.017216308 0.0027161287 -0.057411905 -0.05601855 0.0142505765 0.035810657 0.088901415 0.06619842
0.10299765 -0.028279718 -0.011817462 -0.05002478 -0.08570451 0.047396213 -0.023162972 0.08878718
0.09036275 -0.007838712 -0.056918453 -0.049513303 -0.03735315 0.058363497 -0.006513706 -0.040391445
-0.0020315272 -0.017029097 -0.047598638 0.14533342 0.0009872107 -0.029158773 0.05180294 -0.0066707693
-0.043863874 -0.019740298 -0.008938195 0.05387655 0.009114994 -0.0120088095 0.026232205 0.027467405
-0.006053175 -0.17714104 0.11844527 -0.052363433 0.088592224 -0.052915778 0.024621475 0.09323707
0.087396525 0.036878586 -0.029172849 -0.033708043 0.044765633 0.07127935 0.13254395 -0.05380979
-0.07160616 -0.05667217 0.0021872052 0.030502193 0.023055092 -0.05764438 -0.076575026 0.029869782
0.016801728 0.10941349 0.016486662 0.046531986 0.07275482 0.025018359 0.0046273186 0.033184588
-0.004080384 0.017333679 0.049348686 -0.15980251 0.0044103353 -0.045888696 -0.03415989 -0.04001459
-0.11785464 -0.13208908 -0.009519687 0.039557327 0.08487478 0.002017805 0.09447452 -0.0012925363
0.0049005346 -0.07314016 -0.0927811 -0.055672176 0.09510839 0.041380998 0.032304615 0.05841963
-0.013007504 -0.04580963 0.031429667 0.05504923 0.016996078 0.003266543 -0.051171333 0.073453754
0.04429889 -0.042802352 -0.09252462 -0.051314276 0.002716954 0.03604968 0.061411157 -0.11676205
0.15619034 0.1404421 -0.0055169156 -0.046863675 0.059308004 0.106812865 0.1534782 -0.027725844
-0.011211802 -0.011375958 0.024727229 -0.06089923 -0.013435631 -0.030353688 -0.004257724 -0.030388616
0.00433543 -0.0196229 -0.09602741 -0.05375621 -0.01534923 -0.01468764 0.103999205 0.037428353
0.010587379 0.08094015 0.006605966 -0.005787162 -0.023172444 -0.007751828 0.015979538 0.001229225
-0.11477191 0.01660144 -0.10380826 -0.064417236 0.06336959 -0.048705127 0.0724698 0.007055977
0.12108553 -0.08093243 0.037024703 0.022811303 -0.0046074656 -0.04574878 0.056487508 0.11098013
0.01667097 0.022637611 -0.08897135 0.094952226 0.01751391 0.005651104 0.18855292 -0.07659108

network_body._body_endoder.seq_layers.2.bias f4 [256]
00000000: 0000 0000 0000 0000 0000 0000 0000 0000
00000010: 0000 0000 0000 0000 0000 0000 0000 0000
00000020: 0000 0000 0000 0000 0000 0000 0000 0000
00000030: 0000 0000 0000 0000 0000 0000 0000 0000
00000040: 0000 0000 0000 0000 0000 0000 0000 0000
00000050: 0000 0000 0000 0000 0000 0000 0000 0000
00000060: 0000 0000 0000 0000 0000 0000 0000 0000
00000070: 0000 0000 0000 0000 0000 0000 0000 0000
00000080: 0000 0000 0000 0000 0000 0000 0000 0000
00000090: 0000 0000 0000 0000 0000 0000 0000 0000
000000a0: 0000 0000 0000 0000 0000 0000 0000 0000
000000b0: 0000 0000 0000 0000 0000 0000 0000 0000
000000c0: 0000 0000 0000 0000 0000 0000 0000 0000
000000d0: 0000 0000 0000 0000 0000 0000 0000 0000
000000e0: 0000 0000 0000 0000 0000 0000 0000 0000
000000f0: 0000 0000 0000 0000 0000 0000 0000 0000
00000100: 0000 0000 0000 0000 0000 0000 0000 0000
00000110: 0000 0000 0000 0000 0000 0000 0000 0000
00000120: 0000 0000 0000 0000 0000 0000 0000 0000
00000130: 0000 0000 0000 0000 0000 0000 0000 0000
00000140: 0000 0000 0000 0000 0000 0000 0000 0000
00000150: 0000 0000 0000 0000 0000 0000 0000 0000
00000160: 0000 0000 0000 0000 0000 0000 0000 0000
00000170: 0000 0000 0000 0000 0000 0000 0000 0000
00000180: 0000 0000 0000 0000 0000 0000 0000 0000
00000190: 0000 0000 0000 0000 0000 0000 0000 0000
000001a0: 0000 0000 0000 0000 0000 0000 0000 0000
000001b0: 0000 0000 0000 0000 0000 0000 0000 0000
000001c0: 0000 0000 0000 0000 0000 0000 0000 0000
000001d0: 0000 0000 0000 0000 0000 0000 0000 0000
000001e0: 0000 0000 0000 0000 0000 0000 0000 0000
000001f0: 0000 0000 0000 0000 0000 0000 0000 0000
00000200: 0000 0000 0000 0000 0000 0000 0000 0000
00000210: 0000 0000 0000 0000 0000 0000 0000 0000
00000220: 0000 0000 0000 0000 0000 0000 0000 0000
00000230: 0000 0000 0000 0000 0000 0000 0000 0000
00000240: 0000 0000 0000 0000 0000 0000 0000 0000
00000250: 0000 0000 0000 0000 0000 0000 0000 0000
00000260: 0000 0000 0000 0000 0000 0000 0000 0000
00000270: 0000 0000 0000 0000 0000 0000 0000 0000
00000280: 0000 0000 0000 0000 0000 0000 0000 0000
00000290: 0000 0000 0000 0000 0000 0000 0000 0000
000002a0: 0000 0000 0000 0000 0000 0000 0000 0000
000002b0: 0000 0000 0000 0000 0000 0000 0000 0000
000002c0: 0000 0000 0000 0000 0000 0000 0000 0000
000002d0: 0000 0000 0000 0000 0000 0000 0000 0000
000002e0: 0000 0000 0000 0000 0000 0000 0000 0000
000002f0: 0000 0000 0000 0000 0000 0000 0000 0000
00000300: 0000 0000 0000 0000 0000 0000 0000 0000
00000310: 0000 0000 0000 0000 0000 0000 0000 0000
00000320: 0000 0000 0000 0000 0000 0000 0000 0000
00000330: 0000 0000 0000 0000 0000 0000 0000 0000
00000340: 0000 0000 0000 0000 0000 0000 0000 0000
00000350: 0000 0000 0000 0000 0000 0000 0000 0000
00000360: 0000 0000 0000 0000 0000 0000 0000 0000
00000370: 0000 0000 0000 0000 0000 0000 0000 0000
00000380: 0000 0000 0000 0000 0000 0000 0000 0000
00000390: 0000 0000 0000 0000 0000 0000 0000 0000
000003a0: 0000 0000 0000 0000 0000 0000 0000 0000
000003b0: 0000 0000 0000 0000 0000 0000 0000 0000
000003c0: 0000 0000 0000 0000 0000 0000 0000 0000
000003d0: 0000 0000 0000 0000 0000 0000 0000 0000
000003e0: 0000 0000 0000 0000 0000 0000 0000 0000
000003f0: 0000 0000 0000 0000 0000 0000 0000 0000
0.0 0.0 0.0 0.0 0.0 0.0 0.0 0.0
0.0 0.0 0.0 0.0 0.0 0.0 0.0 0.0
0.0 0.0 0.0 0.0 0.0 0.0 0.0 0.0
0.0 0.0 0.0 0.0 0.0 0.0 0.0 0.0
0.0 0.0 0.0 0.0 0.0 0.0 0.0 0.0
0.0 0.0 0.0 0.0 0.0 0.0 0.0 0.0
0.0 0.0 0.0 0.0 0.0 0.0 0.0 0.0
0.0 0.0 0.0 0.0 0.0 0.0 0.0 0.0
0.0 0.0 0.0 0.0 0.0 0.0 0.0 0.0
0.0 0.0 0.0 0.0 0.0 0.0 0.0 0.0
0.0 0.0 0.0 0.0 0.0 0.0 0.0 0.0
0.0 0.0 0.0 0.0 0.0 0.0 0.0 0.0
0.0 0.0 0.0 0.0 0.0 0.0 0.0 0.0
0.0 0.0 0.0 0.0 0.0 0.0 0.0 0.0
0.0 0.0 0.0 0.0 0.0 0.0 0.0 0.0
0.0 0.0 0.0 0.0 0.0 0.0 0.0 0.0
0.0 0.0 0.0 0.0 0.0 0.0 0.0 0.0
0.0 0.0 0.0 0.0 0.0 0.0 0.0 0.0
0.0 0.0 0.0 0.0 0.0 0.0 0.0 0.0
0.0 0.0 0.0 0.0 0.0 0.0 0.0 0.0
0.0 0.0 0.0 0.0 0.0 0.0 0.0 0.0
0.0 0.0 0.0 0.0 0.0 0.0 0.0 0.0
0.0 0.0 0.0 0.0 0.0 0.0 0.0 0.0
0.0 0.0 0.0 0.0 0.0 0.0 0.0 0.0
0.0 0.0 0.0 0.0 0.0 0.0 0.0 0.0
0.0 0.0 0.0 0.0 0.0 0.0 0.0 0.0
0.0 0.0 0.0 0.0 0.0 0.0 0.0 0.0
0.0 0.0 0.0 0.0 0.0 0.0 0.0 0.0
0.0 0.0 0.0 0.0 0.0 0.0 0.0 0.0
0.0 0.0 0.0 0.0 0.0 0.0 0.0 0.0
0.0 0.0 0.0 0.0 0.0 0.0 0.0 0.0
0.0 0.0 0.0 0.0 0.0 0.0 0.0 0.0

action_model._discrete_distribution.branches.0.weight f4 [10, 256]
00000000: fb80 273b f000 71bb 3b1d 51ba 16c4 1b3c
00000010: 3893 98bb 13e2 8bbb 7ddd ab3b eb47 79bb
00000020: 73bc f73a e628 a4bb bbc7 9f3c c322 db3b
00000030: 6833 9c3b d56e 4dbb 4fe2 54bc 6405 0dbc
00000040: 081a ecba 8d61 6dba 9769 39bb 334c 41bc
00000050: e390 5b3a a8c6 dbbb 8023 cfbb d070 e6ba
00000060: 735a a53a 3a01 853b 55dc 58bb 383d 76bc
00000070: c53a f239 d3dd 2cbc 7532 573b 8c48 aaba
00000080: bd9f 1b3c 5b73 8bba bba3 94bb 5f3d 10bc
00000090: e33f f839 abe5 5fbb aca5 18bc 13cf dfbb
000000a0: 28a6 9bbb a65c 973a 71e8 43bb 2957 85bb
000000b0: 3f98 213b 0104 88b9 7f85 693b 65be 1abc
000000c0: 4e0c a43b ebe4 96bb 6595 45ba 9bae 03bc
000000d0: ff4c dd39 7fe7 68bb 6e64 263c f555 42bb
000000e0: 1c7b bb3b e43a 13bc 610f 8e3c 1743 e8bb
000000f0: 0a5d 56bb 1bc1 713b d08e 91bb 3696 03bc
00000100: c304 06bc 6531 7dbc f239 2dbc 7570 58ba
00000110: 052e 8bba 0f4a 3abb 1799 12bc db82 993b
00000120: a8d0 d5ba 870e ca3a 9c13 9b3b 3371 81bc
00000130: 3359 f43a 8327 ef3b 4f3e bf3b 53de 79ba
00000140: 6e91 b2ba 2938 223b 5bb0 3b3b 4a21 513c
00000150: 50e2 8e3b e8e2 fa3b d111 06bc d8bf f638
00000160: 8310 d5b9 9384 91bb ea8c 28bb 52aa 753a
00000170: 5965 483b 2dc2 363b 5741 8bbb b82e b63b
00000180: 7f4f faba e852 eb3a 5a61 53bb d284 8c3b
00000190: 7fcf 7abb ee63 c5ba 0af2 76bc 0860 763a
000001a0: 53a0 e83a 1087 f13b 73ce 72b6 0779 693b
000001b0: ee6b 11bc 68fd 6fbb be3f 863b e1b8 843b
000001c0: 6b75 52bc 7eb9 af3b cd27 61bb 2f51 f93a
000001d0: ed88 f5bb 727f e6ba 534a e3bb cb6a 8a3b
000001e0: 0b8d 5bbb 8f3a 483c fa80 493b 53c6 7c3c
000001f0: 4df4 28bc 8ba3 4cbc 4ff9 40bc f7ee 533c
00000200: 5579 343b 6f51 d6bb cf75 3d3b 6dba e93b
00000210: 9839 b739 fba5 593c 2be7 293b c37a 7e3b
00000220: 3063 5b3b fa6f d2ba 7d17 5fbc e384 0c3c
00000230: c225 4b3b 6b80 013b 5316 64bb 1759 04bc
00000240: 53c7 fbba 2c7a a1bb c7e8 35bb bb0f bbbb
00000250: a46b 253c 12fc f139 4923 3ebb 35b7 29bc
00000260: c70a 7fbb cbd3 38bc 9343 443a 46bf b9ba
00000270: 29c8 083b 43d7 b7ba d53c 5b39 faba 8abb
00000280: 8319 ef3b 7d5c 443b f31c 7638 0029 81bb
00000290: 778d 273b 43e3 ba3b 5a3f 003b 20f8 4e3b
000002a0: 58f6 02bb 7a0a 5ebb 2f62 193a 39e9 28bc
000002b0: 8157 48ba e28d cbbb fbd6 13bc a991 cb3b
000002c0: 1db8 d5bb e349 1d3b e3c4 1f3a 53c3 bb3b
000002d0: 5fd0 e4bb 3ba9 ff3b 7c2a 9f3a bb8a 2abc
000002e0: 10f2 d63a 8b02 48bb 897c 023c d73e 613b
000002f0: af5a f4bb 9388 803b 3a20 d7b9 e0ae b03a
00000300: c788 76bb 726c 4e3c 42ec e0bb 776c 3c3a
00000310: 07ee 34bb dd7e d33b 3a0c d2bb 7f46 bd3b
00000320: 3e11 903b 9fce febb a4df 063a 3800 caba
00000330: d689 3b3b 7ff1 c83a a76a 143c b038 373b
00000340: 23a1 ad3b e08a 5b3a d328 163c 52f9 e3bb
00000350: b665 9b3b 3b5a 2abb ed60 b339 2fb4 b0bb
00000360: 9303 b439 a619 3bb9 8da3 7a3b 75cd b739
00000370: e8bb 653b 173f 9ebb 074f f639 4834 eabb
00000380: 81a9 373c 1fc5 92ba f1ed c23b d2b7 4dbb
00000390: b024 82bb c7f7 e4ba 8781 3b3c 71c3 85bb
000003a0: b521 e33b cc75 45bb 174e 1b3b 334c 2bbb
000003b0: 8f91 9fbb d19f b9bb 7998 8cbb 1585 b13a
000003c0: ead2 d73b 5b99 7fbc 20b1 a73b 770c 2cbb
000003d0: a580 f13b 5a09 8b3a 7db6 583c 1757 8ebb
000003e0: faa6 a2bb 2f0b 793a ee92 3ebc 4f90 90b9
000003f0: 0880 70ba ed38 e23b 25bd 5c3b cb13 853a
0.0025559056 -0.003677424 -0.0007977073 0.0095072 -0.0046562217 -0.0042688935 0.0052449093 -0.0038037251
0.0018900767 -0.0050097583 0.019504419 0.0066874935 0.0047668703 -0.0031346579 -0.012993409 -0.008607242
-0.0018013129 -0.0009055369 -0.0028291696 -0.0117979525 0.0008375777 -0.0067070313 -0.0063213706 -0.0017581228
0.0012615457 0.004058984 -0.0033090312 -0.015029244 0.00046201624 -0.010550934 0.0032836471 -0.0012991591
0.009498534 -0.0010639237 -0.0045361198 -0.0088036945 0.00047349845 -0.0034163992 -0.009316843 -0.006830105
-0.004750032 0.0011547997 -0.0029893185 -0.004069228 0.0024657396 -0.00025942925 0.0035632548 -0.009444808
0.0050063496 -0.004604926 -0.0007537215 -0.008037235 0.0004220977 -0.0035538373 0.01015578 -0.0029653285
0.005721463 -0.008986209 0.017341318 -0.007088076 -0.0032709264 0.0036888781 -0.0044420734 -0.008031419
-0.008179846 -0.015453671 -0.010572897 -0.00082565035 -0.0010618573 -0.002842549 -0.008947632 0.0046847886
-0.0016312795 0.0015415706 0.004732562 -0.015801048 0.0018642306 0.0072984113 0.005836285 -0.0009531725
-0.0013623664 0.0024752712 0.0028639052 0.012764284 0.0043604746 0.007656444 -0.008182959 0.00011765928
-0.00040638828 -0.004440853 -0.0025718757 0.0009371388 0.0030577986 0.0027886734 -0.0042497325 0.0055597685
-0.0019097178 0.0017953785 -0.003225407 0.0042882944 -0.003827065 -0.0015059689 -0.015072355 0.0009398465
0.0017747976 0.007370837 -3.618098e-06 0.0035625116 -0.00887583 -0.0036619548 0.004096954 0.0040503596
-0.012845377 0.0053626886 -0.0034355999 0.0019021387 -0.0074931295 -0.0017585589 -0.0069363504 0.0042241565
-0.0033500816 0.012220993 0.0030747042 0.015428144 -0.010312152 -0.012490164 -0.01177819 0.012935392
0.002753814 -0.0065404694 0.002890933 0.0071328194 0.0003494739 0.013284202 0.002592514 0.0038830496
0.0033475868 -0.00160551 -0.01361644 0.008576605 0.0030997847 0.001976038 -0.0034803345 -0.008077881
-0.0019209184 -0.004927894 -0.0027757154 -0.0057086623 0.010096464 0.0004615491 -0.002901273 -0.010358621
-0.0038916336 -0.011280964 0.0007486876 -0.0014171384 0.0020871258 -0.0014025945 0.00020908129 -0.004233715
0.0072967424 0.0029962354 5.867793e-05 -0.003941655 0.0025566497 0.0057033612 0.001956901 0.0031581
-0.0019983258 -0.0033880756 0.00058511173 -0.010309511 -0.00076424336 -0.006211982 -0.009023423 0.0062124324
-0.006522192 0.0024000339 0.0006094707 0.0057300716 -0.0069828476 0.0078021563 0.0012143399 -0.0104090525
0.0016399045 -0.0030519094 0.007964262 0.003436973 -0.0074570994 0.003922531 -0.00041032006 0.0013479851
-0.0037618147 0.012599098 -0.0068641016 0.00071877934 -0.0027607696 0.0064543323 -0.006410149 0.005776226
0.0043965867 -0.007776096 0.00051450194 -0.0015411442 0.0028616092 0.001533076 0.009058631 0.0027957372
0.00529875 0.0008374881 0.009165007 -0.0069572115 0.0047423495 -0.0025993723 0.00034213756 -0.0053925733
0.00034334938 -0.00017843265 0.0038244457 0.00035057557 0.0035054628 -0.0048292982 0.00046979656 -0.0071473457
0.0112098465 -0.0011197663 0.005948775 -0.0031390083 -0.0039716586 -0.0017468863 0.011444456 -0.0040821363
0.0069315084 -0.0030130027 0.0023697668 -0.0026137948 -0.004869647 -0.0056648036 -0.004290637 0.001354369
0.006586422 -0.015600528 0.0051175505 -0.0026252547 0.007370072 0.0010607645 0.013227102 -0.004343878
-0.004963753 0.00095002627 -0.01163171 -0.0002757334 -0.00091743516 0.0069037587 0.0033682075 0.0010152993

action_model._discrete_distribution.branches.0.bias f4 [10]
00000000: 0000 0000 0000 0000 0000 0000 0000 0000
00000010: 0000 0000 0000 0000 0000 0000 0000 0000
00000020: 0000 0000 0000 0000
0.0 0.0 0.0 0.0 0.0 0.0 0.0 0.0
0.0 0.0

49 f4 [9]
00000000: c6be d23c 1c6e 363d c6be d23c c6be d23c
00000010: c6be d23c c6be d23c c6be d23c c6be d23c
00000020: c6be d23c
0.025725733 0.044538602 0.025725733 0.025725733 0.025725733 0.025725733 0.025725733 0.025725733
0.025725733
