Assets/onnx/Random_TTT_15_5/X_Behavior/checkpoint.pt (torch, 14695 bytes, 21 tensors)

network_body._body_endoder.seq_layers.0.weight f4 [9, 9]
00000000: 017b 3c3f 8b6a be3f 1100 3e3f 4157 1dbf
00000010: 8e2f 843e 0760 6bbf 75f2 01bf c16a 16bf
00000020: 8ea0 053f 9bf7 923f 94c8 0a40 bef2 22bf
00000030: ff17 313e 7d11 4abf 9791 393f 53e3 01c0
00000040: 6356 673f bca2 903f 849c c7be 6e16 cd3f
00000050: 0e56 c13f 5781 47be 2c4a 67be 060b d73f
00000060: 120b 9abf 8150 a93e 9550 c1be e429 3e3f
00000070: 7917 22c0 cb74 0e40 7577 6abf 0132 23bf
00000080: 5f9e c63e 348e 693f 9944 e9bf d67a b43f
00000090: 815c 1b40 d251 0bbf a326 9fbe c64e e53f
000000a0: f75e 1dbf 3310 593d 4d15 383f c1a6 93bf
000000b0: 9ac1 0dbf d759 66bf 722c 91bf b7cd 983f
000000c0: 1783 b63e fac5 ab3e b02f 873f addd 71bf
000000d0: c973 a63f 679f f13e 8741 8bbf aee6 3f3e
000000e0: 4ac0 a2bf 0012 2ebe ff12 483f 7f81 733f
000000f0: 47dc 9c3e bd86 60bf 1689 1dbe 8094 bbbf
00000100: 4264 2e3f 9b53 c03f fb22 523e ef8a 85bf
00000110: 0802 35bd f581 0140 cde3 633f 85bd 08c0
00000120: bd33 b1be 6bea e43e b313 a0be eb23 b93f
00000130: 22c0 2740 f7bc 623f f478 d43e 0312 7b3d
00000140: fe52 87bf
0.7362519 1.4876264 0.7421885 -0.61461264 0.2581753 -0.919434 -0.50760585 -0.58756644
0.5219811 1.1481813 2.1684923 -0.63651645 0.1729431 -0.78932935 0.7248778 -2.0294998
0.9036619 1.1299663 -0.389866 1.602247 1.5104387 -0.19482933 -0.22586888 1.6800239
-1.2034628 0.33069232 -0.37756792 0.7428267 -2.5326827 2.2258785 -0.91588527 -0.63748175
0.38792703 0.9123261 -1.8224059 1.4099987 2.427521 -0.5442172 -0.31084165 1.7914665
-0.6147303 0.052993964 0.719075 -1.1535264 -0.5537354 -0.89980835 -1.1341689 1.1937779
0.3564689 0.33549482 1.0561428 -0.94478875 1.3004085 0.47191927 -1.0879372 0.18740341
-1.2714932 -0.16999054 0.78153986 0.9511947 0.30636808 -0.87705594 -0.15384325 -1.4654694
0.6812173 1.5025514 0.20521156 -1.0433024 -0.04419139 2.023557 0.8901947 -2.1365674
-0.34609786 0.44710097 -0.3126503 1.4464086 2.6211019 0.8856959 0.4149853 0.061296474
-1.0572202

network_body._body_endoder.seq_layers.0.bias f4 [9]
00000000: 1e32 4c3f 7f80 c63e bd1d c93e 0a2b 283f
00000010: 2c7a 1a3f 2f88 9e3e 6721 c73e 425b a33e
00000020: 0bda 963f
0.7976397 0.3876991 0.392805 0.6569067 0.6034267 0.30963275 0.3889267 0.31905562
1.1785291

action_model._discrete_distribution.branches.0.weight f4 [10, 9]
00000000: 0a01 333d 8737 a93c 8f98 5cbd 1da5 b23b
00000010: 79bb 463d 17b7 7cbc 22c4 1a3b a3c1 f1bc
00000020: ed9b 0bbd 56a2 b5bd b589 1cbf 647f e53e
00000030: 8c67 3cbf d235 903e 70de dfbe f8a9 6f3e
00000040: cf23 ff3e 4609 a53f b119 913e 9a64 e2be
00000050: cf29 03bf 5e32 8e3f 8dee c53d 9ade c6be
00000060: 5ea5 4c3f 3c76 8bbe 76f1 313d 1496 133f
00000070: 5b0c 413f 0add 023f c104 0fbe 4dd1 52bf
00000080: 3159 853f 27cb a23e c34a 82bf 6d4d 333f
00000090: 3cc2 9ebe 9597 03bf b6b8 42be 31a4 3cbd
000000a0: f188 693d 1fed 81be 9094 3bbe d3cb 44be
000000b0: 998b c9be e2df 783f 2e33 bb3f 1a93 923f
000000c0: a12c f53e 94d6 a33f dbfe ba3e 2df7 3c3d
000000d0: 34db 493f bb74 633f 3e4a 8ebe f572 37bf
000000e0: bb7e 373d 2358 20bf b865 b0bd 7b97 69bf
000000f0: ae2f d3be 0557 adbe 32f7 7dbe dd90 72bf
00000100: 6ad8 543f cbb2 22bf 3b25 dbbf c25b 443f
00000110: b5fa fcbd 83bd 6a3d 5ec5 b5be 2817 b5bf
00000120: 9a0a 223e cb5c 6dbe f926 1abf 1bab 313f
00000130: e8d5 e33d e7d2 0e3e 8f14 0ebd 9950 aebe
00000140: 4c39 8dbf 5a4d 7ebf 8ec4 d9be 1d0f 1a3f
00000150: 43b1 23bd c70b 86bf d5c3 b83e fd74 0dbf
00000160: 1da0 8b3f dc94 3fbf
0.043702163 0.02065636 -0.05385643 0.005451812 0.04851863 -0.015424511 0.002361544 -0.029511278
-0.03408425 -0.08868854 -0.61147624 0.44823754 -0.735955 0.28166062 -0.43724394 0.23404682
0.49832007 1.2893455 0.28339913 -0.44217378 -0.5123567 1.1109121 0.096646406 -0.38841707
0.7993983 -0.27238643 0.043443166 0.57650876 0.7540948 0.5111853 -0.13966657 -0.8235062
1.0417844 0.31795618 -1.0179065 0.7004002 -0.31007564 -0.5140317 -0.19015774 -0.046055023
0.057015363 -0.25376222 -0.18318391 -0.19218378 -0.39364317 0.9721662 1.4624994 1.1451142
0.47885612 1.2799859 0.36522564 0.046134163 0.788501 0.8884999 -0.27791017 -0.71659786
0.044798594 -0.62634486 -0.08613151 -0.91246766 -0.41247314 -0.33855453 -0.24801329 -0.94752294
0.8314272 -0.63554066 -1.7120737 0.7670251 -0.12352506 0.05730964 -0.35502142 -1.4147692
0.15824357 -0.23179929 -0.6021572 0.6940171 0.11124784 0.1394764 -0.034687575 -0.34045866
-1.1033111 -0.9933678 -0.42532772 0.6017931 -0.03996397 -1.0472344 0.36086908 -0.55256635
1.0908238 -0.74836516

action_model._discrete_distribution.branches.0.bias f4 [10]
00000000: 0000 0000 c7e0 893e 924e a93d 9a19 ae3e
00000010: cf42 58bf 69d6 803f d836 e2be 92e9 e9be
00000020: c870 02be e8e3 f9be
0.0 0.26929304 0.08266939 0.34003907 -0.8447694 1.0065433 -0.44182467 -0.45686013
-0.12738335 -0.4880669

exp_avg f4 [9, 9]
00000000: 799a 3f3b b249 4c3b bfe9 bdba 2a2c 0b3b
00000010: c90b 21bc 06c8 6fbb 016d 22ba 68a0 123b
00000020: 3625 b33a 9d98 973b ea18 eaba 57ce 2ebb
00000030: 3f13 49bb e8e5 9aba 8e58 4e3a ba7e 323b
00000040: 0a55 a4bb 77ad 903b 757a dfbb 4dbc bf3b
00000050: c3c9 8ebb e644 513a c634 4a3b 32fa f539
00000060: fa55 1c39 4ef7 11bb f191 9bb9 d138 f7bb
00000070: 0e2c 6abb 032e 083b db43 813b 8304 af3a
00000080: 1f29 2fbc daf4 d338 d44b da3b ca9a c23a
00000090: dd0c 953b 016d 803b 01bd a1b8 8eb5 01bc
000000a0: 72aa 813a d9fd 983b 02cb 033b 60d4 4bbb
000000b0: b3e8 883a aa65 84bb 0ba0 97ba d74b beba
000000c0: 1767 2b3a 8171 87bb 6624 c1ba 48d8 aa3a
000000d0: 5cbe 623b b577 b4b9 bbdf 0f3b 0394 63b9
000000e0: 54a7 be39 1080 0cba 203c 0bbb d92b 80b9
000000f0: ad2c 1dbb 37f9 44ba 3ecd 6bbb 0dab c5bb
00000100: 27df 0138 f7af 03bb 64e4 f138 9213 ba3b
00000110: 3c81 1e3b 95b8 b938 f0da a6bb e735 8c39
00000120: ed90 333b 9256 8d3b bf59 05bc c73e 193a
00000130: 9eca ec3a 5a5e d83a 6407 d5b7 83a8 11bb
00000140: 6cf7 123b
0.002923636 0.0031171856 -0.0014489217 0.002123604 -0.00982947 -0.003658773 -0.00061960524 0.0022373442
0.0013667706 0.004626347 -0.0017860208 -0.002667328 -0.0030681638 -0.0011817785 0.0007871472 0.002723618
-0.0050150203 0.00441521 -0.006820018 0.0058513046 -0.004357548 0.0007982984 0.003085421 0.00046916452
0.00014909348 -0.002227265 -0.0002967264 -0.007544615 -0.0035731825 0.0020779378 0.0039448566 0.0013352785
-0.010690956 0.00010106871 0.0066618714 0.0014847156 0.0045486526 0.0039192443 -7.712283e-05 -0.007916821
0.0009892716 0.004668933 0.0020110016 -0.0031101927 0.0010445326 -0.0040404396 -0.0011568082 -0.0014518452
0.0006538494 -0.0041334038 -0.0014735579 0.0013034428 0.0034598326 -0.00034421464 0.0021953422 -0.00021703546
0.00036364293 -0.0005359659 -0.0021245554 -0.00024446732 -0.0023982928 -0.00075139425 -0.0035980488 -0.0060323537
3.0963824e-05 -0.0020093897 0.000115343166 0.0056786025 0.0024185916 8.8558685e-05 -0.0050920174 0.0002674304
0.0027399615 0.0043132985 -0.008139073 0.00058458414 0.0018065756 0.0016507611 -2.539502e-05 -0.0022225685
0.0022425307

exp_avg_sq f4 [9, 9]
00000000: 6573 da39 c3e5 0c3a 1a7a 9939 a01a 3139
00000010: 97f8 7d3a bbd5 be38 3c3a 4239 0dc5 7939
00000020: c13d 3e39 c4b8 bf39 87a9 cc39 00f8 6f39
00000030: b789 b339 bba1 733a 58ca 7e39 04e3 7638
00000040: 9e6d bd39 bbdd 283a 5f9a 6e39 2775 6339
00000050: 7a3b 4f39 6cfc f938 6556 1b3a b133 5639
00000060: 9f79 e738 8275 2f39 d825 4f39 a54a 3a3a
00000070: 7027 d838 c27b aa39 1e99 033a 721b c03a
00000080: a925 e339 4fbf 163a 9559 4339 4da9 023a
00000090: 4900 b439 a1b9 163a 34ec 8139 214e 8939
000000a0: fbcd 9c3a b8d6 5439 866b 023a b01c 8339
000000b0: c210 8939 4eb8 2039 e5a4 a238 5d6e 1539
000000c0: 5aa9 f738 a372 8c3a b82a 1139 870a 0339
000000d0: ef3d 7439 0b21 8b39 8018 1539 adf9 2038
000000e0: 519a 1b39 7f06 4338 9e1e 7839 0a1c 8738
000000f0: 0fde f538 8fee 7638 3eef ee38 84c2 6639
00000100: 0263 0a3a ce63 9c39 c037 3c39 d94b 8e3a
00000110: a6d0 8639 addc c839 1eaa 423a ceb5 8e38
00000120: b13f 2739 eaad 4839 ff0c 4439 52ec 8039
00000130: ae93 273a 1d6a 0239 a060 6139 d654 3a39
00000140: 0aea 0e39
0.00041666176 0.00053748133 0.00029273407 0.00016889954 0.0009688227 9.0997164e-05 0.00018522976 0.00023819898
0.00018142817 0.0003656802 0.0003903622 0.00022885203 0.00034244146 0.0009293814 0.00024298707 5.8862395e-05
0.0003613056 0.0006441732 0.00022754956 0.0002169205 0.00019763215 0.000119202625 0.00059256546 0.00020427887
0.00011037592 0.00016733076 0.00019755156 0.000710646 0.000103070284 0.00032517134 0.00050200697 0.0014656617
0.00043324873 0.0005750553 0.00018630021 0.0004984334 0.00034332488 0.0005749707 0.00024780782 0.00026188887
0.0011963242 0.00020297884 0.00049751287 0.0002500764 0.00026143162 0.00015327448 7.755476e-05 0.00014250861
0.00011809422 0.0010715317 0.00013844192 0.00012497055 0.00023292725 0.00026536765 0.00014218874 3.83795e-05
0.00014839439 4.6497673e-05 0.00023662529 6.442524e-05 0.00011723872 5.8873145e-05 0.00011393287 0.00022006972
0.00052790355 0.00029829 0.00017949846 0.0010856345 0.00025713927 0.0003831139 0.0007425862 6.8049514e-05
0.00015950088 0.00019138274 0.00018696858 0.00024590135 0.00063925504 0.00012437296 0.00021493668 0.00017769946
0.00013629362

exp_avg f4 [9]
00000000: 3139 cbbb 5127 9dba 5118 49bb 26e1 8abc
00000010: 0e44 18bc 1a44 11b9 6edd dfbb 58e2 4cbc
00000020: 3d11 c43b
-0.006201886 -0.0011989867 -0.003068466 -0.016953062 -0.009293569 -0.00013853647 -0.0068318164 -0.012505136
0.0059835003

exp_avg_sq f4 [9]
00000000: 0206 de3a 2080 3f3b bf41 bd3a 4990 1f3b
00000010: a65e 5c3b 4948 d03a 1a6e c639 cb91 143b
00000020: 0c44 c03a
0.0016939046 0.0029220656 0.001443915 0.0024347475 0.003362575 0.0015890683 0.00037847535 0.0022669907
0.0014668717

exp_avg f4 [10, 9]
00000000: 0000 0000 0000 0000 0000 0000 0000 0000
00000010: 0000 0000 0000 0000 0000 0000 0000 0000
00000020: 0000 0000 c956 053c 8bd0 723b 7450 a93b
00000030: 8662 a0bb 0453 98bb 520d 07ba 965d de3b
00000040: b600 f0bb ad21 d03c dce3 60bb 2775 bab7
00000050: 07c6 573b 1f06 3fbc 848a 9bbc 8aba 113b
00000060: a849 b6bb 3a20 093c c348 31bc 1e96 063b
00000070: bd82 043c 2099 3e3b 2bd3 9338 3b88 4d3b
00000080: 407f 723b b9b1 a3bb bc06 bf3b 76cc 43bc
00000090: bffa 01bb 9885 063b 87c9 7eba 08ec 9fba
000000a0: caff 803a a817 4bbb 7181 493b 779c 753b
000000b0: 511d a7bb 907b 75bb 7f4d 14bb dd1d 8fbb
000000c0: cf34 66bc 1c3f e0ba 5a76 6bbc 414b ba3b
000000d0: fc8a a9bb 5a3e 1dbc 2132 e839 a78a d1b7
000000e0: cee4 603a 7aec 833a c9ce 3a3b 20d3 993a
000000f0: 62b6 8c3a 6460 82bb c33b d93b cd41 ffb9
00000100: 02aa 59bb 7ae9 c23a b36b 0f3c b903 bf3b
00000110: 893b 64ba 4854 1ab9 1b5d 4cbb ed7c 38bb
00000120: cd1c 2a3b a26c debb 07a1 e9bb 852f b63c
00000130: 833d 303c 775c a83b aa10 06bc e4fe 55ba
00000140: fcd0 67ba f1d1 6abb adf0 baba 9cfb a2ba
00000150: 3fc8 80b9 888a ea3a 88f3 d83b 63b0 143b
00000160: 398a 213b 4d9d 153c
0.0 0.0 0.0 0.0 0.0 0.0 0.0 0.0
0.0 0.008138367 0.003705057 0.0051670615 -0.0048945574 -0.004648568 -0.0005151826 0.0067860587
-0.0073243035 0.025406683 -0.0034315502 -2.2227481e-05 0.003292443 -0.011659174 -0.018986948 0.002223643
-0.0055629797 0.0083695 -0.01082057 0.0020536254 0.008087811 0.0029082969 7.048839e-05 0.0031361717
0.0037002116 -0.0049955514 0.00582966 -0.011950603 -0.0019833294 0.0020526405 -0.0009719361 -0.001220108
0.0009841856 -0.0030989442 0.003074732 0.0037477294 -0.0050999303 -0.0037457682 -0.00226292 -0.0043675737
-0.0140506765 -0.0017108652 -0.014371479 0.0056852405 -0.005174039 -0.009597385 0.00044287837 -2.4979307e-05
0.00085790164 0.0010064982 0.0028504601 0.0011735894 0.0010735507 -0.003978776 0.0066294386 -0.00048686416
-0.0033212905 0.0014870607 0.008753705 0.005829301 -0.0008706381 -0.00014717982 -0.0031183425 -0.0028150633
0.0025957108 -0.0067878524 -0.0071297917 0.022239456 0.010756853 0.005137976 -0.008182684 -0.0008163287
-0.0008843092 -0.0035830701 -0.0014262401 -0.0012434605 -0.00024563257 0.0017894069 0.006620828 0.0022688142
0.0024649038 0.009131742

exp_avg_sq f4 [10, 9]
00000000: 0000 0000 0000 0000 0000 0000 0000 0000
00000010: 0000 0000 0000 0000 0000 0000 0000 0000
00000020: 0000 0000 7b17 a43a 333c 133b c3d0 c93a
00000030: b9ff 6d3a 5857 df3a 2279 be39 4a4f ff39
00000040: 6729 843b 5703 d63b 0d32 5d3a 9358 013b
00000050: a7f7 b03a 45b0 de3b 8c92 b73b 08eb 533a
00000060: a2c2 183a 1976 733b 42eb 273b 9689 9c3a
00000070: 75e1 893b 1506 833a 1bd7 b33a b88a b83a
00000080: 21a0 2a3a 0a51 193a 703c a33a 782a de3b
00000090: 3d52 7739 f579 433a 7519 ec39 451b ef39
000000a0: 89aa 423a 0beb 3c39 ee16 903a ea1f 773a
000000b0: fe6b c53a 4c94 053a f546 c139 5e14 0d39
000000c0: 68de b83a 8a10 f239 0207 f639 5456 2939
000000d0: 6ca1 2e3a e9a6 b83a 0c9e eb38 4624 a939
000000e0: 62f4 dc38 b9b7 3639 26de 7f3a ae50 0239
000000f0: 4d63 2c3a 6e6e 9f3a 171a b33a 58f2 273a
00000100: 05f8 4a3b d92e 0e3a 38a6 9939 5176 3d3b
00000110: fe85 4e39 d059 2a3a 007a 093a dff8 903a
00000120: 7615 773a b47e 333b 2252 a83a f43e d33b
00000130: 6214 c43b 7dd5 003a a5b9 893a 5d3c db3a
00000140: af56 9e3a c999 313a d0fe 073b a060 073b
00000150: 5793 bf3a dbac 3c3a 307b 1a3a 8e97 0f3a
00000160: a7ce 9c3b 977b b73a
0.0 0.0 0.0 0.0 0.0 0.0 0.0 0.0
0.0 0.0012519205 0.0022466301 0.0015397299 0.0009078938 0.001703958 0.00036329875 0.00048696465
0.004033256 0.00653116 0.0008437939 0.0019736632 0.001350154 0.0067959153 0.0056021865 0.00080840336
0.00058273424 0.003714925 0.0025622402 0.0011942859 0.004207785 0.000999632 0.0013720723 0.0014079427
0.00065088464 0.00058485626 0.0012453925 0.006779965 0.00023586392 0.00074568327 0.00045032395 0.0004560595
0.00074259244 0.00018016637 0.0010993162 0.0009427058 0.0015062091 0.00050956453 0.00036864696 0.00013454395
0.0014104368 0.0004617016 0.00046925998 0.00016149256 0.0006661627 0.0014087829 0.00011235112 0.00032261218
0.00010535937 0.00017425315 0.0009760581 0.00012427822 0.0006576076 0.0012163648 0.0013664392 0.00064066565
0.0030970585 0.0005423851 0.00029306277 0.0028909633 0.00019695607 0.00064983685 0.00052443147 0.0011060497
0.00094255 0.0027388753 0.001284186 0.0064467136 0.005983875 0.0004914625 0.0010507597 0.0016726364
0.0012080277 0.000677493 0.0020751245 0.0020656958 0.0014616054 0.00071973883 0.000589299 0.00054776005
0.004785377 0.0013998625

exp_avg f4 [10]
00000000: 0000 0000 6a0c cf3b f655 10bc 2d95 e83b
00000010: 397e 91b9 4642 14bc 7cf5 7d3a 96fd 7eb9
00000020: 3935 273b 6515 bd3a
0.0 0.0063186185 -0.008809557 0.0070978613 -0.00027750598 -0.009049004 0.0009687764 -0.00024317796
0.00255139 0.0014425932

exp_avg_sq f4 [10]
00000000: 0000 0000 7baa c73a 3bd2 af3a b0a2 c23a
00000010: c465 7939 748c da3a 1c56 4e39 8384 c039
00000020: 16af 513a 7588 073a
0.0 0.0015233302 0.0013414094 0.001484951 0.00023784401 0.0016673938 0.00019677769 0.00036719823
0.0007998807 0.0005170175

exp_avg f4 [9, 9]
00000000: c14f 08bb ab48 64bb de5c 703a 81cc 5cba
00000010: f917 13bb cf8e 5e39 672f 613b 0578 5537
00000020: ecf3 1d3b 8953 e83a 2a85 a63a 03fd e2ba
00000030: 5ec9 9eb8 f66c cc3a 7227 ba39 f0ee d539
00000040: 3729 8aba 1021 1bbb 39b9 88ba dcb2 3a39
00000050: e1b0 aa3a db2a 38ba 9a89 2bbb 1df6 7eba
00000060: b6a1 a9b8 c9d6 3f3b d167 60ba 4011 a2ba
00000070: e3df ff38 b86a 5cbb e5a6 c03a 332d 83bb
00000080: c8ef 41ba 72d9 c43a 5180 d1ba 4371 7539
00000090: d104 133b 6e66 0d3b 469d 243a 8a30 19b9
000000a0: 05fa 8cba e380 1b3a 4963 d7ba cfc6 0a3a
000000b0: df41 b2ba bb83 c1bb e6ad c0ba 1d98 2d3b
000000c0: 6bdd ce39 d37e 64bb 0f18 d6ba fa11 a23a
000000d0: 8dca e03a 6301 8739 ad0f 943a 935b 13ba
000000e0: ba4a 263a 6757 803a fbd8 1fbb 5681 a5b9
000000f0: 44d9 573a 2fe4 6dba a51d d83a 5af0 3fbb
00000100: 9726 01ba 20af d63a dc05 1e3b 77d0 08bb
00000110: 8d8c 48ba a328 313b c8e7 c5ba d8cf 853b
00000120: 2bb4 efba 7673 b239 4e95 1a3b 7b84 2c3a
00000130: 42c0 f3ba 704f aeba 7f96 dcb9 eb2a 54b9
00000140: aeac f13a
-0.002079949 -0.0034833353 0.0009169112 -0.00084228074 -0.0022444709 0.0002122477 0.003436053 1.2723734e-05
0.0024101688 0.0017725091 0.0012704481 -0.0017317835 -7.571535e-05 0.0015596438 0.00035506074 0.00040804548
-0.0010540847 -0.002367083 -0.0010431177 0.00017804973 0.0013022685 -0.0007025429 -0.0026174546 -0.0009726005
-8.088669e-05 0.002927231 -0.0008560392 -0.001236476 0.0001220105 -0.0033632945 0.0014698176 -0.004003191
-0.0007398096 0.0015018417 -0.0015983676 0.00023407214 0.002243329 0.0021575945 0.0006279539 -0.00014609299
-0.0010755664 0.00059319864 -0.0016432788 0.0005293907 -0.0013599953 -0.005905596 -0.0014700263 0.0026488372
0.0003945635 -0.0034865632 -0.0016334074 0.0012364977 0.0017150209 0.0002575024 0.0011296176 -0.00056212506
0.00063435326 0.0009791673 -0.0024390805 -0.00031567615 0.0008233974 -0.00090748345 0.0016488327 -0.0029287548
-0.000492671 0.0016379096 0.002411238 -0.0020876208 -0.0007650338 0.0027032278 -0.0015098983 0.004083615
-0.0018287947 0.0003403683 0.0023587528 0.00065810204 -0.0018596726 -0.0013298821 -0.00042073798 -0.00020233884
0.0018438303

exp_avg_sq f4 [9, 9]
00000000: 617d e338 00a6 9438 5ad2 b538 3366 a837
00000010: ca72 3f39 b254 2038 a734 7038 eac7 0d39
00000020: fa5e e138 ed0f 9f38 1c33 2238 3a45 2c38
00000030: 20d2 4837 c3ad b038 1abd 5c37 c689 4838
00000040: 2ad2 b937 71e6 3f38 a181 c638 9713 8838
00000050: 174b 8838 9656 a437 b9c2 0b39 1306 ed37
00000060: 8d76 1739 8531 2a38 6f68 6f38 2acf 9b39
00000070: d304 4e39 3671 6e39 2bfd ec38 7426 203a
00000080: 15ce 0939 f50d 5638 7c6e 8138 9338 a338
00000090: 58bf 1638 f291 d637 7a3d ab37 ec1e 0637
000000a0: 3690 5038 1237 0337 d61f 5f37 3a4c e937
000000b0: d454 0738 4ec7 9439 735f c638 32c9 ca38
000000c0: 3af0 6738 a467 9039 98e7 2938 788a 0839
000000d0: cd3d 9b38 41ac 8e38 ad6b 8638 803d 2e38
000000e0: 35ce b138 c427 af37 a5b0 ef38 d6cf 6537
000000f0: e873 8837 d55e 0538 44ac 6938 90a1 8038
00000100: 14a1 a038 b993 9538 47a7 0d38 c42f 0939
00000110: b633 4b37 9080 0838 e0db 2438 6974 f238
00000120: 3bb9 5038 a62e 6b38 981e 5238 b71f 2637
00000130: bf5f bb38 74bd c537 23cb 0a38 a693 4c37
00000140: 06d5 6238
0.00010847557 7.08811e-05 8.6699336e-05 2.007475e-05 0.00018257942 3.822585e-05 5.7269495e-05 0.00013521282
0.00010746527 7.584677e-05 3.867141e-05 4.1072468e-05 1.19698525e-05 8.4246996e-05 1.31570505e-05 4.7812027e-05
2.2151584e-05 4.5752564e-05 9.465521e-05 6.488634e-05 6.498972e-05 1.9590643e-05 0.00013328613 2.825543e-05
0.00014444646 4.0577277e-05 5.70793e-05 0.00029718253 0.00019647488 0.00022739623 0.00011300513 0.00061092456
0.0001314211 5.1034574e-05 6.171779e-05 7.7829834e-05 3.594099e-05 2.5578749e-05 2.0413416e-05 7.994222e-06
4.972537e-05 7.8210305e-06 1.3299248e-05 2.781126e-05 3.226551e-05 0.00028377253 9.4591545e-05 9.669586e-05
5.529842e-05 0.0002754304 4.050843e-05 0.00013021554 7.402487e-05 6.8031724e-05 6.409674e-05 4.154211e-05
8.478427e-05 2.0880143e-05 0.00011429311 1.3697854e-05 1.6266436e-05 3.179799e-05 5.5711964e-05 6.133609e-05
7.659398e-05 7.132389e-05 3.377281e-05 0.00013083132 1.2111783e-05 3.254466e-05 3.930542e-05 0.00011561142
4.9763574e-05 5.607181e-05 5.0096394e-05 9.901755e-06 8.934689e-05 2.3572451e-05 3.309095e-05 1.2193725e-05
5.4080992e-05

exp_avg f4 [9]
00000000: 53f9 74bb c40a 6c38 88e0 0bbb 6104 2dbc
00000010: a033 343b 0f41 05bc 0488 433a 348f 943a
00000020: 6f8f ecba
-0.0037380054 5.627681e-05 -0.0021343548 -0.010560126 0.0027496591 -0.008133187 0.00074589276 0.0011334182
-0.0018048118

exp_avg_sq f4 [9]
00000000: 3789 c339 67a6 f038 ed0e 4d39 2bdf 433a
00000010: cc3f 8938 57ce 073a cdf3 1d39 d042 7039
00000020: 080d 2539
0.0003729553 0.00011475087 0.00019555884 0.0007471914 6.544552e-05 0.00051805883 0.0001506351 0.00022913073
0.00015740481

exp_avg f4 [1, 9]
00000000: 9055 b3ba 3080 86bb a2b5 51ba 596d bf3a
00000010: aa2c b63a 309b 023c 3570 0fbb 1272 30bc
00000020: 6bdb 31bb
-0.0013682116 -0.0041046366 -0.00079997827 0.0014604732 0.0013898809 0.00797157 -0.002188695 -0.010769384
-0.002713884

exp_avg_sq f4 [1, 9]
00000000: 10ac 2e3a 5df3 703a bc96 3c3a 3d4e 503a
00000010: ffce 533a ff61 123a 0077 0c3a 906a 273a
00000020: 01c1 6c3a
0.00066632126 0.00091915374 0.0007194092 0.0007946229 0.0008079856 0.00055840606 0.00053583086 0.00063864235
0.00090314454

network_body._body_endoder.seq_layers.0.weight f4 [9, 9]
00000000: b8b1 b83d 81a4 73bf e6b6 28be 74a9 73bf
00000010: 9604 90be 4a45 a4be e01e 32bf b7d1 c73e
00000020: a1df 6fbd e92b 9d3f a639 92bf ac5e 003f
00000030: 1355 0cbf 7a56 5ebe 8b2e 8bbe 85f3 ab3e
00000040: 6a7b 9ebf f229 1c3f aac3 ee3e f264 0abe
00000050: c226 82bf f45f 35bf 037c 9abd 3733 31bf
00000060: c5de 8c3f 14ac 5fbe 8f4c 84bd b835 7dbe
00000070: 5294 d93e 1523 c8bd a785 45be 1192 983f
00000080: 9b1d b6bd 5311 86bf cb8f 27bf c634 a9bf
00000090: f345 653f ea62 d23d b747 8fbf ab58 b8be
000000a0: 397b 04bf 5e9e f7be fee4 93bf cb26 733e
000000b0: 0d58 423f 5a8c 873f 5474 a7be 80cf 243b
000000c0: 9cc0 c53d 685f 803e 1ec2 ccbe 9d69 4a3d
000000d0: fae0 c8be bcff 09bf d9d5 f2be a076 44bf
000000e0: fbbe 933f d445 5abe 677e 273f 27e5 94bd
000000f0: f976 5abf 379c 61ba fabc a53e 3182 1ebf
00000100: 7235 543e b4e4 14bd 47b1 81be abbb bcbe
00000110: 0459 a1bf 0f10 2dbf b66a b2be 4049 1d3f
00000120: 7d67 cabe 90f7 0d3f e5bb 543e 8bd1 8ebf
00000130: 7fa5 053e 1223 eb3d cf65 093d 6c8d b6bf
00000140: 3584 d03e
0.09018272 -0.9517289 -0.1647602 -0.9518044 -0.281285 -0.32084113 -0.6957836 0.39027187
-0.05856288 1.2279025 -1.1423843 0.5014446 -0.5481731 -0.21712676 -0.27183947 0.33584228
-1.2381413 0.61001503 0.46633655 -0.1351507 -1.0168078 -0.7084954 -0.075431846 -0.6921877
1.1005484 -0.21842986 -0.06459915 -0.24727523 0.42495972 -0.09772316 -0.19289266 1.1919576
-0.088923655 -1.0474037 -0.65453786 -1.321923 0.8955986 0.102727726 -1.1193761 -0.36005148
-0.5175052 -0.48363012 -1.1554258 0.23745267 0.75915605 1.0589707 -0.3270594 0.0025148094
0.09655878 0.2507279 -0.3999185 0.049417127 -0.39234143 -0.53905845 -0.47428778 -0.7674351
1.1542658 -0.213157 0.6542725 -0.0727027 -0.8533779 -0.00086063467 0.3237074 -0.61917406
0.20723513 -0.03635092 -0.25330564 -0.3686193 -1.260529 -0.6760263 -0.3484704 0.61439896
-0.3953208 0.55455875 0.20774801 -1.1157697 0.13051413 0.114812985 0.033544358 -1.4261909
0.40725866

network_body._body_endoder.seq_layers.0.bias f4 [9]
00000000: 9f4e 453c e993 88bf 1e07 42bf c5b6 1bbf
00000010: c139 86bf f43c 9cbe 3957 96bf f9c8 0bbe
00000020: 545c 0ebe
0.0120426705 -1.0670139 -0.7579211 -0.6082576 -1.0486375 -0.30515254 -1.1745368 -0.13650884
-0.13902408

value_heads.value_heads.extrinsic.weight f4 [1, 9]
00000000: aaff e0be a6ed b33e d7a6 d8be d53a 57bf
00000010: 3f5c 923e 2e98 19bf 97d7 23bf a4c4 bbbe
00000020: 3610 8dbe
-0.43945056 0.3514225 -0.4231479 -0.84074146 0.28586003 -0.5999783 -0.6400084 -0.36673462
-0.2755143
