Assets/onnx/Random_TTT_15_4/X_Behavior/X_Behavior-499999.pt (torch, 14695 bytes, 21 tensors)

network_body._body_endoder.seq_layers.0.weight f4 [9, 9]
0.21383864 0.9351349 0.29121494 0.077694766 0.30517346 -0.3660782 -0.8265165 -0.38514504
1.2628158 0.70294994 1.2704717 -0.36176106 0.6062142 -0.88474065 0.6236013 -1.4994843
1.0594488 1.4327643 -1.1381395 1.0179939 1.3089074 0.43727696 -0.4008911 1.633708
-0.5243495 0.39217606 -0.59155124 0.42292482 -1.7071904 2.1519735 -0.03460655 -0.18943417
0.67636615 0.49751976 -1.2586505 1.1702096 2.0936534 -0.2471725 -1.1697695 1.4579896
-0.9426861 0.7428851 1.4767759 -0.3090813 -0.23905051 -0.23777726 -0.494069 0.9594534
0.6751678 -0.21158373 1.0420495 -0.5359887 0.9528861 0.8526539 -0.6933703 1.4560139
-1.0918678 -0.3212558 0.59245795 0.7252072 0.7686542 -0.6327199 0.17591195 -1.3440037
0.8751414 1.7027445 0.35699004 -1.1856493 -0.10734426 1.7733254 0.4306942 -1.21012
-0.596591 0.3864895 -0.4263017 1.0028039 1.6297745 0.5247063 0.8734243 0.8610954
-0.67003757
00000000: 84f8 5a3e 0065 6f3f 201a 953e 6f1e 9f3d
00000010: b23f 9c3e 9a6e bbbe 9696 53bf bb31 c5be
00000020: f3a3 a13f 87f4 333f d19e a23f bf38 b9be
00000030: db30 1b3f 5d7e 62bf 56a4 1f3f 1aef bfbf
00000040: 059c 873f d264 b73f 8eae 91bf a04d 823f
00000050: 478a a73f c4e2 df3e 9941 cdbe 581d d13f
00000060: c53b 06bf 4dcb c83e e76f 17bf 9a89 d83e
00000070: 3785 dabf efb9 0940 99bf 0dbd 08fb 41be
00000080: 5526 2d3f e9ba fe3e 761b a1bf 6ec9 953f
00000090: 6bfe 0540 ca1a 7dbe 02bb 95bf 679f ba3f
000000a0: e053 71bf b82d 3e3f fe06 bd3f e73f 9ebe
000000b0: a8c9 74be e27b 73be 9df6 fcbe bd9e 753f
000000c0: ccd7 2c3f 68a9 58be e161 853f 8e36 09bf
000000d0: 58f0 733f 8747 5a3f b780 31bf aa5e ba3f
000000e0: 53c2 8bbf a47b a4be 53ab 173f 2ea7 393f
000000f0: 86c6 443f eef9 21bf 4322 343e 5008 acbf
00000100: 4409 603f 88f3 d93f 66c7 b63e 5bc3 97bf
00000110: 4fd7 dbbd 54fc e23f f383 dc3e 36e5 9abf
00000120: 30ba 18bf f4e1 c53e 3744 dabe e15b 803f
00000130: 739c d03f 2753 063f bc98 5f3f c070 5c3f
00000140: 9587 2bbf

network_body._body_endoder.seq_layers.0.bias f4 [9]
1.2514151 0.9249536 0.96781486 1.2005138 1.025749 1.0022467 1.2503146 0.74569696
1.5257634
00000000: 5f2e a03f c2c9 6c3f b7c2 773f 70aa 993f
00000010: be4b 833f 9f49 803f 4f0a a03f ffe5 3e3f
00000020: 374c c33f

action_model._discrete_distribution.branches.0.weight f4 [10, 9]
0.043702163 0.02065636 -0.05385643 0.005451812 0.04851863 -0.015424511 0.002361544 -0.029511278
-0.03408425 -0.4678985 -0.61019856 0.053419717 -0.49477178 0.3775984 -0.31809705 0.12291352
0.49617687 1.0332197 0.54862875 -0.27834433 -0.30935687 0.81858325 0.12172522 -0.29928598
0.54408383 0.015114047 0.03305952 0.7726593 0.56938905 0.43276948 0.10376495 -0.74954724
0.5021875 0.2031051 -0.8309206 0.37139753 0.042231448 -0.2793602 -0.44917887 -0.3745947
-0.9384794 -0.17753422 -0.4949803 -0.4570589 -0.61336404 0.58179384 0.9476638 0.77213657
0.6037227 0.8659346 0.7946217 0.5546455 0.69665104 0.8657548 -0.54724234 -0.8833725
-0.5835061 -0.9817324 -0.64110935 -1.0057765 -0.11927961 -0.6743009 -0.11298486 -0.30153254
0.7031008 -0.38707486 -0.8990996 0.8859315 -0.17804632 -0.077909075 -0.62185407 -0.6699965
-0.56929576 -0.3164385 -0.50516796 0.60423315 0.27686015 0.282333 -0.5287905 -0.22172324
-0.95895505 -0.48223138 -0.1191318 0.66445374 -0.13954969 -0.7836712 0.15581965 -0.21052308
0.8137802 -0.43884552
00000000: 0a01 333d 8737 a93c 8f98 5cbd 1da5 b23b
00000010: 79bb 463d 17b7 7cbc 22c4 1a3b a3c1 f1bc
00000020: ed9b 0bbd 6490 efbe f935 1cbf a2ce 5a3d
00000030: ba52 fdbe 9454 c13e 9edd a2be 15ba fb3d
00000040: e50a fe3e 8b40 843f ef72 0c3f 2683 8ebe
00000050: 0664 9ebe ac8e 513f 124b f93d 033c 99be
00000060: 1449 0b3f e8a0 773c 6b69 073d 00cd 453f
00000070: 7bc3 113f f693 dd3e b882 d43d 54e2 3fbf
00000080: 5c8f 003f c9fa 4f3e 36b7 54bf d127 be3e
00000090: e2fa 2c3d 4d08 8fbe c6fa e5be e0ca bfbe
000000a0: 3040 70bf 88cb 35be 0f6e fdbe a003 eabe
000000b0: 6d05 1dbf 71f0 143f 189a 723f beaa 453f
000000c0: 928d 1a3f e4ad 5d3f 546c 4b3f 3ffd 0d3f
000000d0: b957 323f 1ba2 5d3f 1318 0cbf b324 62bf
000000e0: a860 15bf d152 7bbf be1f 24bf 49bd 80bf
000000f0: de48 f4bd fc9e 2cbf 9b64 e7bd 7962 9abe
00000100: 6afe 333f ad2e c6be 642b 66bf 68cc 623f
00000110: c651 36be cb8e 9fbd d431 1fbf e484 2bbf
00000120: 5ebd 11bf 3a04 a2be b052 01bf 06af 1a3f
00000130: 9dc0 8d3e f38d 903e d05e 07bf 6b0b 63be
00000140: 147e 75bf 08e7 f6be 60fb f3bd a419 2a3f
00000150: 1de6 0ebe ad9e 48bf 308f 1f3e 5d93 57be
00000160: e653 503f 5cb0 e0be

action_model._discrete_distribution.branches.0.bias f4 [10]
0.0 0.2170234 0.1312496 0.3628373 -0.68407625 0.9242498 -0.56992364 -0.26901442
-0.42304903 -0.4261737
00000000: 0000 0000 623b 5e3e 4c66 063e d0c5 b93e
00000010: 9f1f 2fbf a39b 6c3f 84e6 11bf 42bc 89be
00000020: e299 d8be 7033 dabe

exp_avg f4 [9, 9]
0.0022842023 -0.0003813363 0.00394826 0.00074545696 -0.008747928 0.0022111568 0.00086759945 -0.003070669
-0.00036906026 -0.009942528 -0.0018670295 -0.0024441087 -0.0071073174 0.0038170947 0.0028502203 0.0058443956
-0.0038443909 0.005201047 0.003162225 -0.0056204363 -9.456893e-05 -0.002650428 -0.003769828 -0.002106267
0.0023110071 0.0011302709 0.0011115848 0.004383573 0.0005363272 0.0037324019 0.002888648 -0.01186655
0.0044717477 0.0020343773 -0.00014222013 -0.0010684249 -0.010967709 0.0012258282 0.005359532 -0.0029656866
-0.0023669244 -0.0014239517 0.0042248536 0.00042533493 0.00681051 -0.0034558536 -0.0044237366 -0.0018360066
-0.004057884 -0.0024835933 0.0008592492 0.0035646828 -0.0005063686 0.0031326485 0.0036029126 0.003034396
-0.001220674 0.0029244395 0.003518659 9.537205e-05 -0.0035808715 -0.0012441255 -0.0036631618 0.003803245
0.001679309 -0.0034879844 0.00215249 -0.0046899747 -0.002364304 0.002544645 0.0036124734 0.00058087026
0.00904746 0.006631485 -0.00087968924 0.010512783 -0.00095412927 -0.0040072193 -0.008517789 0.0031753955
-0.005609767
00000000: 8eb2 153b 17ee c7b9 6860 813b c56a 433a
00000010: 7853 0fbc 0ee9 103b 9d6f 633a 473d 49bb
00000020: 6e7e c1b9 fce5 22bc 1db7 f4ba 572d 20bb
00000030: 80e4 e8bb 3928 7a3b c3ca 3a3b 5882 bf3b
00000040: 2df2 7bbb 8b6d aa3b 553d 4f3b a32b b8bb
00000050: 4f53 c6b8 ceb2 2dbb 380f 77bb 4c09 0abb
00000060: 4474 173b 9925 943a 99b2 913a 13a4 8f3b
00000070: 4f98 0c3a 509b 743b 794f 3d3b eb6b 42bc
00000080: bd87 923b 3053 053b ed20 15b9 640a 8cba
00000090: e8b1 33bc f8ab a03a 039f af3b f75b 42bb
000000a0: 671e 1bbb e4a3 baba a470 8a3b 7dff de39
000000b0: b32a df3b 9a7b 62bb fef4 90bb 29a6 f0ba
000000c0: 00f8 84bb c8c3 22bb 3d3f 613a 749d 693b
000000d0: d2bd 04ba 1f4d 4d3b d81e 6c3b b8dc 463b
000000e0: 06ff 9fba f4a7 3f3b 4d99 663b 7b02 c838
000000f0: 0ead 6abb ed11 a3ba a811 70bb dd3f 793b
00000100: 421c dc3a ab96 64bb ca10 0d3b 5cae 99bb
00000110: 70f2 1abb 0fc4 263b 3fbf 6c3b 8b45 183a
00000120: cc3b 143c ee4c d93b f29a 66ba cf3d 2c3c
00000130: 881e 7aba fe4e 83bb 328e 0bbc 4c1a 503b
00000140: 23d2 b7bb

exp_avg_sq f4 [9, 9]
0.00042241014 0.00024520114 0.00053236453 0.00022504054 0.0016213547 0.00025150523 0.0002838375 0.00021197375
0.00031113566 0.00023783314 0.00026847312 0.00022728067 0.0001905315 0.0007182869 0.00014567461 8.215875e-05
0.0002405006 0.00020986829 0.00026632997 0.00021277687 0.00042130036 0.00014906265 0.00074414985 0.00025388823
0.0001754372 0.00012263434 9.598291e-05 0.00037999777 0.000117609394 0.00041704418 0.000235636 0.0014246008
0.00038515727 0.0005540904 0.00014944299 0.00035765435 0.0005048936 0.0004387879 0.00042330855 0.00036719526
0.0014165101 0.00032867776 0.00022664954 0.00032714682 0.00045436335 0.00022018775 0.000117401025 0.00017226094
0.00012053496 0.0006827461 0.0001097217 0.00010815944 0.00010934181 0.00018395961 0.00014778455 4.07908e-05
0.00010307041 3.9455586e-05 0.0003347417 8.236616e-05 0.00020060956 3.7430247e-05 7.47474e-05 0.0003154678
0.00055976916 0.0003608076 0.00027627248 0.00114211 0.00027663665 0.00027029263 0.00047113677 0.00011934306
0.00020520731 0.00031762765 0.0003721673 0.00035550646 0.0011560001 0.00022561642 0.00039623323 0.00025758086
0.00022256817
00000000: ee76 dd39 578e 8039 618e 0b3a dcf8 6b39
00000010: a383 d43a 76dc 8339 06d0 9439 4545 5e39
00000020: ec1f a339 d962 7939 dac1 8c39 3152 6e39
00000030: 69c9 4739 6b4b 3c3a 3bc0 1839 a54c ac38
00000040: e32e 7c39 1710 5c39 34a2 8b39 db1c 5f39
00000050: fae1 dc39 b34d 1c39 0d13 433a 4d1c 8539
00000060: 91f5 3739 6897 0039 6f4a c938 703a c739
00000070: 10a5 f638 b9a6 da39 0f15 7739 acb9 ba3a
00000080: efee c939 6140 113a ccb3 1c39 8e83 bb39
00000090: d65a 043a 1d0d e639 83ef dd39 1d84 c039
000000a0: 31aa b93a 6252 ac39 c6a8 6d39 e784 ab39
000000b0: 9e37 ee39 33e2 6639 3235 f638 f2a0 3439
000000c0: b7c7 fc38 51fa 323a 641a e638 a8d3 e238
000000d0: 704e e538 48e5 4039 9df6 1a39 ca16 2b38
000000e0: 8127 d838 1d7d 2538 4580 af39 ffbb ac38
000000f0: b85a 5239 6cfe 1c38 b4c1 9c38 5f65 a539
00000100: 79bd 123a c72a bd39 aad8 9039 dab2 953a
00000110: 8b09 9139 10b6 8d39 e802 f739 d147 fa38
00000120: eb2c 5739 4387 a639 731f c339 4563 ba39
00000130: ed84 973a 7293 6c39 86bd cf39 eb0b 8739
00000140: 3061 6939

exp_avg f4 [9]
0.0029304388 -0.00866017 -0.011396005 0.013020376 0.0028877903 -0.0098870145 0.004442028 0.003062831
0.0042992965
00000000: 9b0c 403b 63e3 0dbc 4fb6 3abc 6a53 553c
00000010: 1541 3d3b 25fd 21bc 6e8e 913b c7b9 483b
00000020: 1de1 8c3b

exp_avg_sq f4 [9]
0.0016568403 0.0008983751 0.0008698125 0.0014787633 0.001768804 0.0007768239 0.00038475305 0.001360175
0.0012927455
00000000: 562a d93a ef80 6b3a 2104 643a 10d3 c13a
00000010: 37d7 e73a c5a3 4b3a aeb8 c939 e647 b23a
00000020: 5771 a93a

exp_avg f4 [10, 9]
0.0 0.0 0.0 0.0 0.0 0.0 0.0 0.0
0.0 0.007190583 0.015270593 0.0054840622 -0.006985026 0.002102936 0.004435136 -0.0007855665
0.004514744 0.0049053445 0.011478068 0.012380318 0.015583256 0.029494783 0.022106618 0.014769445
0.0077053043 0.02105932 0.008862781 -0.0089420425 -0.006172676 -0.0070617967 -0.0037187727 -0.0020762363
-0.0049588582 -0.010197631 -0.0058199973 -0.018699195 0.00014779261 -0.0012542577 0.00025966932 -0.0008941759
-0.0014793421 -0.0020447741 0.0020746915 0.00067287794 -0.0018718597 -0.00035879062 -0.00019897972 -0.00036520316
-0.0003280508 -0.0005825862 -0.00022943092 -0.0005099512 -0.00033932272 -0.0007249703 0.0077512045 0.013095204
0.0015923418 0.00011830424 0.011228855 -0.000897728 0.00229805 -0.005693467 0.021299826 0.0038465676
-0.006577347 0.004834559 -0.002788364 -0.016460193 -0.0045472626 0.021416783 -0.004698119 0.020431511
-0.010787291 -0.016265038 -0.0017826322 -0.004389584 -0.018831983 0.0001179233 -0.006436603 0.0006527034
-0.020798279 -0.010326083 -0.010277805 -0.01854426 -0.010509118 0.0039919284 -0.0066444473 -0.015565074
-0.010348737 -0.0134051535
00000000: 0000 0000 0000 0000 0000 0000 0000 0000
00000010: 0000 0000 0000 0000 0000 0000 0000 0000
00000020: 0000 0000 fb9e eb3b 8231 7a3c a6b3 b33b
00000030: a5e2 e4bb 69d1 093b 9e54 913b 7aee 4dba
00000040: 6bf0 933b 03bd a03b 820e 3c3c d1d6 4a3c
00000050: ea50 7f3c 0b9f f13c f018 b53c 8bfb 713c
00000060: c77c fc3b 9884 ac3c 3335 113c a581 12bc
00000070: 2944 cabb a566 e7bb a7b6 73bb 7711 08bb
00000080: eb7d a2bb f713 27bc adb5 bebb 0e2f 99bc
00000090: c7f8 1a39 e865 a4ba 3a24 8839 2167 6aba
000000a0: 7ce6 c1ba 9e01 06bb 8cf7 073b 1364 303a
000000b0: 3059 f5ba 101c bcb9 36a5 50b9 bd78 bfb9
000000c0: 3cfe abb9 b3b8 18ba 6593 70b9 3fae 05ba
000000d0: 20e7 b1b9 ef0b 3eba d1fd fd3b 448d 563c
000000e0: 20b6 d03a 1b1a f838 3bf9 373c 8255 6bba
000000f0: e29a 163b 4390 babb f97c ae3c b216 7c3b
00000100: c986 d7bb 386b 9e3b fcbc 36bb 87d7 86bc
00000110: 3401 95bb 4072 af3c aef2 99bb fc5f a73c
00000120: 2ebd 30bc 423e 85bc 36a7 e9ba 80d6 8fbb
00000130: 8845 9abc 974d f738 24ea d2bb 2f1a 2b3a
00000140: 2761 aabc bb2e 29bc 3d64 28bc 22ea 97bc
00000150: 702e 2cbc b9ce 823b aab9 d9bb a704 7fbc
00000160: c08d 29bc 4aa1 5bbc

exp_avg_sq f4 [10, 9]
0.0 0.0 0.0 0.0 0.0 0.0 0.0 0.0
0.0 0.000886391 0.0022248523 0.001517115 0.002642509 0.0057286047 0.0017537745 0.0025735437
0.0042306907 0.0051315473 0.0014774898 0.0037523808 0.004169067 0.007381592 0.011904019 0.003333555
0.0029829317 0.00794879 0.0053532748 0.0018703821 0.0049521495 0.0018608811 0.0025621706 0.0041273776
0.0023460062 0.0019468272 0.0019926077 0.0053674113 0.00010316649 0.0002650363 0.00012444712 0.00047179384
0.00014581854 0.00031373953 0.00043833264 0.00020027022 0.0003532875 0.00035503143 0.00024717647 0.00012893279
0.00036584833 0.00032555294 0.00019102465 0.00033841532 0.00019189165 0.000486047 0.0002906644 0.00039463668
0.0001049147 4.822201e-05 0.00044060103 6.441082e-05 0.0014181345 0.00023662492 0.0015514331 0.00073503895
0.002877871 0.00097008934 0.0016312806 0.003316499 0.0013963229 0.0019748546 0.0007739423 0.0020854077
0.0004828463 0.001289754 0.0012399196 0.004537183 0.006692397 0.0011791454 0.0007851306 0.0028510755
0.0009900441 0.0007500738 0.0030170684 0.0042031296 0.004594952 0.0027921915 0.0026086895 0.0029722222
0.0053042225 0.0031237032
00000000: 0000 0000 0000 0000 0000 0000 0000 0000
00000010: 0000 0000 0000 0000 0000 0000 0000 0000
00000020: 0000 0000 b15c 683a d4ce 113b efd9 c63a
00000030: f22d 2d3b 05b7 bb3b e8de e53a e6a8 283b
00000040: 9ba1 8a3b 8a26 a83b 55a8 c13a 81ea 753b
00000050: ab9c 883b 48e1 f13b 1309 433c c677 5a3b
00000060: 4a7d 433b a43b 023c 866a af3b 9c27 f53a
00000070: a445 a23b cfe8 f33a 17ea 273b f43e 873b
00000080: 74bf 193b ae2c ff3a 6996 023b 1ce1 af3b
00000090: 165b d838 92f4 8a39 057e 0239 195b f739
000000a0: dee6 1839 687d a439 03d0 e539 a1ff 5139
000000b0: 7239 b939 8323 ba39 7797 8139 2232 0739
000000c0: 55cf bf39 faae aa39 ca4d 4839 566d b139
000000d0: 8636 4939 20d4 fe39 5164 9839 3de7 ce39
000000e0: a705 dc38 fd41 4a38 7800 e739 4c14 8738
000000f0: b3e0 b93a 851e 7839 7559 cb3a a1af 403a
00000100: aa9a 3c3b 984d 7e3a b2d0 d53a 9f59 593b
00000110: d204 b73a 906c 013b 63e2 4a3a 56ab 083b
00000120: 8926 fd39 f60c a93a cc84 a23a a6ac 943b
00000130: e54b db3b 8e8d 9a3a 39d1 4d3a 1cd9 3a3b
00000140: 5ec4 813a 9aa0 443a 02ba 453b 68ba 893b
00000150: 4091 963b 33fd 363b 8cf6 2a3b 9dc9 423b
00000160: 0bcf ad3b 0bb7 4c3b

exp_avg f4 [10]
0.0 0.0028341704 0.012453338 -0.0073253345 -0.0008717968 -0.00052510336 0.003670118 0.00046795956
-0.005138844 -0.005564502
00000000: 0000 0000 7dbd 393b 1609 4c3c 5c09 f0bb
00000010: 4b89 64ba 17a7 09ba 5d86 703b 7858 f539
00000020: bf63 a8bb 6d56 b6bb

exp_avg_sq f4 [10]
0.0 0.00089548796 0.0013285335 0.0010626273 4.2326512e-05 0.00027004618 8.400145e-05 0.00034920595
0.0004375754 0.0006246649
00000000: 0000 0000 2ebf 6a3a 3022 ae3a db47 8b3a
00000010: bf87 3138 fc94 8d39 ef29 b038 a115 b739
00000020: 606a e539 8dc0 233a

exp_avg f4 [9, 9]
0.001943263 0.0023703428 -0.0023258966 -0.0009464267 0.0031420656 -0.0018571679 -0.0032205298 0.00020701948
0.0016905206 -0.002637066 -0.0012473449 0.0012939827 0.00052517204 -0.002243327 -0.00023109019 0.0014390256
-0.00014223454 0.00027815008 0.0049660634 0.0033351572 -0.0012039699 -0.00069585675 0.0035785106 0.00057479006
-0.00089769927 -0.00047427544 -0.0021341227 0.014095372 0.0032533736 -0.0056878156 0.004032537 0.0033266942
0.0053037275 -0.0072596264 0.00037637356 -0.0058761886 -0.0086853765 -0.0011607504 0.0025286556 -0.0021560069
-0.0006164075 -0.00059825333 0.004872448 -0.0010432666 0.0016870414 0.013439814 0.0055807657 -0.008839118
0.0020716777 0.0061083846 0.0021073406 -0.005885663 -0.0009837368 -0.0029257345 0.0016283788 -0.0010574226
-0.004033925 0.0006129805 0.0011018729 -0.0005612034 -0.0009957843 0.0011791844 0.0018927468 0.000608088
0.00071781455 0.00022769846 -0.00032928638 -0.00047132865 -0.0012772041 -0.0007703546 0.00029603468 0.0011441947
0.0013024168 0.00036536928 -0.0020778272 0.00023661093 0.0013514081 0.0016335403 0.001997632 -0.000892257
-0.00044277
00000000: 16b5 fe3a c157 1b3b 126e 18bb 9f19 78ba
00000010: 1deb 4d3b 376c f3ba 860f 53bb 5e13 5939
00000020: 7594 dd3a a0d2 2cbb f37d a3ba db9a a93a
00000030: b3ab 093a c804 13bb cd50 72b9 b09d bc3a
00000040: cb24 15b9 acd4 9139 5cba a23b a792 5a3b
00000050: 87ce 9dba 286a 36ba 7285 6a3b 82ad 163a
00000060: 9453 6bba 2ca8 f8b9 a3dc 0bbb 46f0 663c
00000070: 8d36 553b db60 babb 5f23 843b ab04 5a3b
00000080: e4ca ad3b 29e2 edbb 0154 c539 0b8d c0bb
00000090: 1c4d 0ebc 5224 98ba cdb7 253b cb4b 0dbb
000000a0: 6896 21ba 1ad4 1cba 0ea9 9f3b 38be 88ba
000000b0: b71f dd3a aa32 5c3c dbde b63b f3d1 10bc
000000c0: fcc4 073b d828 c83b 4f1b 0a3b 85dc c0bb
000000d0: bbf0 80ba aebd 3fbb 536f d53a 3799 8aba
000000e0: 042f 84bb 6db0 203a b86c 903a b91d 13ba
000000f0: fa84 82ba dd8e 9a3a 0b16 f83a 1868 1f3a
00000100: b82b 3c3a 57c2 6e39 12a4 acb9 a91c f7b9
00000110: dc67 a7ba 9ff1 49ba 1a35 9b39 cef8 953a
00000120: dbb5 aa3a 098f bf39 282c 08bb c31a 7839
00000130: bb21 b13a 841c d63a b4ea 023b 5be6 69ba
00000140: 9523 e8b9

exp_avg_sq f4 [9, 9]
0.00019718272 0.00016382677 0.00024215733 9.573326e-05 0.0004648808 0.00010296883 0.00017995705 0.00025267262
0.00026104294 7.920622e-05 6.0514085e-05 8.629143e-05 3.1900825e-05 0.00017106312 4.8605e-05 7.9799116e-05
6.291314e-05 8.7463595e-05 0.00026423615 0.00019265505 0.00023127871 5.4582863e-05 0.00048786562 0.00010480291
0.00042556156 0.00014993366 0.00015243824 0.0005298938 0.0004909512 0.0006916369 0.0002384095 0.0011267912
0.00026332276 0.00023307677 0.00015370366 0.00025571047 0.00016310603 0.000123767 0.00012950716 3.4057426e-05
0.00024394415 4.1343363e-05 5.856189e-05 9.2277114e-05 0.00013953057 0.0005823062 0.0003327637 0.00045717915
0.00015593799 0.0008036619 0.00013270961 0.00030748086 0.00022416482 0.0001669617 0.00010619479 9.850083e-05
0.00019686513 8.602891e-06 0.00025910098 4.2326967e-05 5.910753e-05 0.0001356184 0.00016565743 0.0001302411
0.00017123598 0.00019293452 6.9534355e-05 0.00039495397 4.9454142e-05 0.00015118276 0.000104046754 0.00029547588
0.00015975385 0.00022057419 0.00023930577 3.3807697e-05 0.00039036662 0.000114105336 0.00013554003 2.8711824e-05
0.00020051259
00000000: d5c2 4e39 eac8 2b39 9deb 7d39 67c4 c838
00000010: 3fbb f339 f8f0 d738 dab2 3c39 2579 8439
00000020: 97dc 8839 841b a638 81d0 7d38 5cf7 b438
00000030: 40cd 0538 685f 3339 39dd 4b38 d359 a738
00000040: 3cf0 8338 a96c b738 2d89 8a39 7203 4a39
00000050: 6883 7239 e7ef 6438 37c8 ff39 a2c9 db38
00000060: e81d df39 8337 1d39 d4d7 1f39 92e8 0a3a
00000070: 2db3 003a f74e 353a 90fd 7939 d7b0 933a
00000080: 950e 8a39 1266 7439 832b 2139 e110 8639
00000090: 7107 2b39 73c7 0139 50cc 0739 e2d8 0e38
000000a0: 42cb 7f39 1968 2d38 5aa0 7538 e684 c138
000000b0: f44e 1239 e8a5 183a ca76 ae39 8cb1 ef39
000000c0: 4983 2339 d6ac 523a f727 0b39 6235 a139
000000d0: c90d 6b39 7112 2f39 e5b4 de38 3b92 ce38
000000e0: 956d 4e39 2355 1037 f2d7 8739 3c88 3138
000000f0: 3aea 7738 c934 0e39 54b4 2d39 5491 0839
00000100: cf8d 3339 774e 4a39 f9d2 9138 d311 cf39
00000110: fb6c 4f38 d086 1e39 ad33 da38 1aea 9a39
00000120: 9983 2739 ef49 6739 27ee 7a39 bdcc 0d38
00000130: 1faa cc39 d64b ef38 c01f 0e39 2cda f037
00000140: b040 5239

exp_avg f4 [9]
-0.0033630633 -0.00033509367 0.0032516855 0.0047273175 -0.003397207 0.0048927385 -0.0011614243 -0.0019031235
0.00015133836
00000000: d766 5cbb 83af afb9 3b1a 553b 9de7 9a3b
00000010: ada3 5ebb 4453 a03b ef3a 98ba 3a72 f9ba
00000020: 95b0 1e39

exp_avg_sq f4 [9]
0.0007290386 0.0002840964 0.0007453922 0.0018923013 0.00045326623 0.0015601411 0.0004445013 0.0005412023
0.00072773657
00000000: f41c 3f3a c6f2 9439 6c66 433a 1807 f83a
00000010: 5da4 ed39 a67d cc3a f40b e939 79df 0d3a
00000020: 93c5 3e3a

exp_avg f4 [1, 9]
0.0035441888 -0.003315388 -0.004170655 -0.008779806 -0.02668017 -0.021076132 0.000116509844 -0.001212234
-0.0009188702
00000000: 9f45 683b fb46 59bb fda9 88bb 2dd9 0fbc
00000010: 5f90 dabc daa7 acbc bf56 f438 d3e3 9eba
00000020: 56e0 70ba

exp_avg_sq f4 [1, 9]
0.0006146909 0.0012493797 0.00095148635 0.0007685782 0.0017984057 0.001007389 0.00052106817 0.0009735079
0.000502031
00000000: 3523 213a 3ac2 a33a 2b6d 793a 697a 493a
00000010: 7bb8 eb3a 5e0a 843a 4b98 083a 0233 7f3a
00000020: bb9a 033a

network_body._body_endoder.seq_layers.0.weight f4 [9, 9]
-0.21275057 -0.60821384 -0.11932936 -0.09097846 -0.4491261 -0.074345216 -0.4315654 0.41550642
0.1253391 0.23548065 -0.33572656 -0.34579644 0.15826677 0.30178946 0.40610728 0.14736307
0.43014076 0.6537273 0.45263758 -0.047792096 -1.0056938 -0.44178835 -0.21929213 -0.23521206
0.769814 -0.09958289 -0.23833796 -0.11321161 0.0010660195 -0.039491855 0.035678208 0.7671239
-0.050365344 -0.9449204 -0.39340195 -0.22559975 0.67045856 0.35800052 -0.7206828 -0.3888251
0.0690496 -0.3611904 -1.2534869 0.2109549 0.55340433 0.88099396 0.043642305 -0.21644507
-0.01931805 0.5134167 -0.1858156 -0.051787276 0.049206793 -0.70457387 -0.062204193 -0.2374611
0.46328643 -1.0557394 0.16447628 -0.1032748 -0.8047296 0.48235857 0.423994 -0.3470639
0.16886406 -0.035379473 -0.11121804 -0.64513355 -0.49543107 -0.29540333 -0.17308298 0.73916847
-0.35618103 0.5037897 0.048670605 -0.46405357 0.35458472 0.14047168 -0.120516814 -0.6839755
0.43627343
00000000: 49db 59be e7b3 1bbf f462 f4bd ea52 babd
00000010: dbf3 e5be 4e42 98bd 24f6 dcbe 42bd d43e
00000020: e558 003e d721 713e 5ae4 abbe 3b0c b1be
00000030: af10 223e 2684 9a3e 4bed cf3e 58e6 163e
00000040: 693b dc3e ac5a 273f 1dc0 e73e a5c1 43bd
00000050: 93ba 80bf 1532 e2be 1e8e 60be 6edb 70be
00000060: 8812 453f 1df2 cbbd de0e 74be 7ddb e7bd
00000070: aeb9 8b3a 36c2 21bd 5023 123d 3b62 443f
00000080: e44b 4ebd 4ee6 71bf fb6b c9be 9f03 67be
00000090: 2ca3 2b3f d84b b73e ab7e 38bf 1514 c7be
000000a0: e069 8d3d f3ed b8be 4272 a0bf 9004 583e
000000b0: e8ab 0d3f d288 613f 46c2 323d c7a3 5dbe
000000c0: e340 9ebc 476f 033f 7246 3ebe e51e 54bd
000000d0: 108d 493d f45e 34bf d3c9 7ebd 0129 73be
000000e0: e133 ed3e 7822 87bf 786c 283e bd81 d3bd
000000f0: c202 4ebf b4f7 f63e be15 d93e 5cb2 b1be
00000100: b3ea 2c3e 11ea 10bd 49c6 e3bd 7927 25bf
00000110: 24a9 fdbe 1b3f 97be aa3c 31be 253a 3d3f
00000120: 5c5d b6be 5df8 003f d45a 473d 6e98 edbe
00000130: 218c b53e cfd7 0f3e 85d1 f6bd 0519 2fbf
00000140: 3b5f df3e

network_body._body_endoder.seq_layers.0.bias f4 [9]
-0.07212787 0.083683595 -0.36086336 -0.111095406 0.06401783 0.038888868 -0.44151923 -0.2628337
-0.11765523
00000000: c7b7 93bd 4e62 ab3d 15c3 b8be fd85 e3bd
00000010: c81b 833d ef49 1f3d cf0e e2be 2492 86be
00000020: 3af5 f0bd

value_heads.value_heads.extrinsic.weight f4 [1, 9]
-0.53086066 0.26305592 -0.5905621 -1.0217474 0.3838735 -0.74586457 -0.61690235 -0.4705396
-0.5952784
00000000: 7ce6 07bf 44af 863e 142f 17bf 9ec8 82bf
00000010: 118b c43e fbf0 3ebf 50ed 1dbf 91ea f0be
00000020: 2a64 18bf
