Assets/onnx/TTT_26/X_Behavior/X_Behavior-26775.onnx (onnx, 5958 bytes, 8 tensors)

network_body._body_endoder.seq_layers.0.weight f4 [16, 9]
1.0375924 0.1111974 0.025272807 0.42946342 0.9335713 0.2914258 -0.6823072 -0.47332546
-0.22836581 -0.0017562192 -0.21847846 -0.20433205 -0.1965954 -0.41294342 0.8169218 0.86924636
-0.90387726 -0.89614034 -0.24129304 -0.5627972 -0.59961444 0.54828984 -0.1080501 -0.17170483
-0.1705731 -0.65587384 0.84449553 -0.2145425 -0.16144015 0.95370895 -0.22062457 1.0641438
-1.0933143 1.0463479 -0.16568993 -0.35759956 -0.4710216 -1.0946906 -1.4235897 0.608328
0.76770824 -0.2183335 0.32943448 0.37679714 -0.4558032 0.23878798 -0.2529194 0.13340098
-0.46775094 0.34591517 -0.16250515 0.16093685 -0.14054213 1.0044231 0.21302117 -0.06869795
-1.3991668 0.3979445 -1.1641252 0.094339885 -1.1912203 0.41138086 0.070476815 0.53777516
0.64826256 -0.531342 -0.21279585 0.40000376 -1.268654 0.19992755 0.7693093 0.42511016
0.2999564 -0.95341086 0.8729251 0.6622664 -0.39084348 0.1443789 0.18672639 -1.2600585
-0.79542965 -0.0706142 0.4404208 -0.16569726 -0.074874006 0.6593292 0.57883394 -0.7558104
-0.37034243 -0.69471604 0.6178181 -0.15214948 -0.78741026 -1.1337811 -0.86803585 -0.42650327
0.2854655 0.24733399 -0.7093407 0.5349949 0.45452255 -0.10584414 -0.21811843 0.08140345
0.16345477 -1.0497764 0.8690327 0.28540435 -1.2000964 0.533262 0.4023326 -1.0133259
0.26666552 0.22692594 -0.5951158 0.24012461 0.65343493 -0.017566822 0.64880127 -0.5144571
-0.91565424 0.25756165 0.15885393 -0.15037094 0.8398721 0.5669457 0.5238786 -0.8484352
0.06825137 -0.26947433 -0.6817936 -0.6421391 -0.6011956 -1.0193859 0.86810493 0.68459946
0.18634257 -0.38088438 -1.4000382 0.18082441 -0.07920362 -0.42374972 -0.035360392 0.8770036
00000000: d4cf 843f 76bb e33d eb08 cf3c a1e2 db3e
00000010: 87fe 6e3f c335 953e afab 2ebf b757 f2be
00000020: bad8 69be f030 e6ba d1b8 5fbe 6c3c 51be
00000030: 4e50 49be 526d d3be c921 513f ee86 5e3f
00000040: 8064 67bf 7469 65bf 8615 77be 7a13 10bf
00000050: 5580 19bf b95c 0c3f 5f49 ddbd 64d3 2fbe
00000060: b7aa 2ebe 59e7 27bf dc30 583f 07b1 5bbe
00000070: 9150 25be 4526 743f 68eb 61be dd35 883f
00000080: b9f1 8bbf baee 853f 9faa 29be 4a17 b7be
00000090: be29 f1be d21e 8cbf 3038 b6bf 62bb 1b3f
000000a0: 8788 443f d192 5fbe a3ab a83e 8eeb c03e
000000b0: 095f e9be d684 743e a77e 81be 449a 083e
000000c0: 0d7d efbe cb1b b13e c067 26be a1cc 243e
000000d0: 47ea 0fbe f090 803f 3922 5a3e 83b1 8cbd
000000e0: e617 b3bf 62bf cb3e 0e02 95bf 4535 c13d
000000f0: e879 98bf 83a0 d23e 2656 903d a2ab 093f
00000100: 89f4 253f 0806 08bf 28e7 59be 4bcd cc3e
00000110: 4163 a2bf cfb9 4c3e 74f1 443f 0aa8 d93e
00000120: e393 993e bc12 74bf 0578 5f3f 4a8a 293f
00000130: a31c c8be 10d8 133e 3435 3f3e 9949 a1bf
00000140: 47a1 4bbf 2d9e 90bd d67e e13e 8bac 29be
00000150: 8b57 99bd ccc9 283f 762e 143f ca7c 41bf
00000160: 869d bdbe e9d8 31bf 5429 1e3f 13cd 1bbe
00000170: b893 49bf bd1f 91bf 9937 5ebf a35e dabe
00000180: 8928 923e 1f45 7d3e 5a97 35bf 6df5 083f
00000190: 2eb7 e83e d0c4 d8bd 705a 5fbe dab6 a63d
000001a0: b060 273e 135f 86bf ed78 5e3f 8520 923e
000001b0: c29c 99bf dc83 083f 8afe cd3e aab4 81bf
000001c0: 6288 883e 465f 683e 8259 18bf 3ae3 753e
000001d0: 8347 273f 4ce8 8fbc d717 263f 76b3 03bf
000001e0: 5168 6abf 1fdf 833e 9baa 223e d7fa 19be
000001f0: dc01 573f 5a23 113f e81c 063f 0d33 59bf
00000200: 60c7 8b3d 8af8 89be 068a 2ebf 3a63 24bf
00000210: f4e7 19bf 3d7b 82bf 203c 5e3f e941 2f3f
00000220: 96d0 3e3e 4703 c3be 7434 b3bf 092a 393e
00000230: 8235 a2bd b9f5 d8be 0fd6 10bd 4f83 603f

network_body._body_endoder.seq_layers.0.bias f4 [16]
-0.27282974 0.02436728 -0.12832415 -0.5153976 -0.34620884 -0.30838788 -0.0925453 -0.27480614
0.08756282 -0.41537327 -0.33139715 -0.35893708 -0.8056567 0.017624706 -0.28189507 -0.052683596
00000000: 57b0 8bbe e49d c73c 6867 03be 19f1 03bf
00000010: 4942 b1be 04e5 9dbe 6488 bdbd 64b3 8cbe
00000020: 2354 b33d ceab d4be e3ac a9be 9ac6 b7be
00000030: 843f 4ebf b061 903c 8d54 90be c1ca 57bd

network_body._body_endoder.seq_layers.2.weight f4 [16, 16]
-0.5792374 -0.14211217 0.48378733 1.1028316 -0.31834498 0.32545435 0.77281123 -0.06991781
-0.34574077 -0.22989784 0.031763516 0.49501345 -0.0641991 -0.03603233 -0.16612934 0.05861246
0.28939945 -0.6089141 -0.33009344 -0.7878614 -0.3466632 -0.47211504 0.5504885 -0.2510085
0.20252065 0.38373452 0.27014068 0.6986807 -0.25494388 -0.1039784 -0.83346915 -0.45462912
-0.20840617 -0.6793022 -0.18533683 0.09219806 -0.4055702 0.0022066692 0.5214657 0.19717374
-0.97618425 0.15795568 -0.2457737 0.5256329 -0.11878862 -0.1746728 -0.26420385 0.9008375
0.17214873 0.39543867 -0.5012231 -0.16684286 0.7479427 -0.66079193 -0.48987025 0.30676678
0.31921303 0.67310303 0.13249367 0.40484986 -0.113507904 -0.18291672 0.4146069 -0.0083067585
0.07728314 -0.71513236 0.029167542 -0.16758358 0.8446247 -0.38129887 -0.3918391 0.28602943
-0.63271594 -0.7023712 -0.27791333 -0.4602076 0.19913812 -0.9395949 0.11740077 -0.56414104
-0.28590986 -0.6574937 0.21271493 0.33273146 -1.4330481 0.4769523 0.8012359 -0.20858721
0.039577354 -0.05864929 0.3506332 -0.0019291675 0.25999725 0.64610827 -0.069627725 -0.0018065056
0.89769757 -0.20412436 -0.48809463 -0.38978177 -0.955339 0.58513415 -0.348841 -0.09328965
0.10743769 0.025237259 -0.5492871 0.47673488 -0.12736832 0.081973694 -0.565418 0.13039713
-1.631269 0.23294081 0.63515204 -0.6943877 0.5313113 0.16723427 -0.47471848 -0.799754
0.64680547 -0.8012987 -0.96033823 -0.22581196 -0.2264146 -0.03695369 0.19572535 -0.07228423
0.1868406 0.19164953 -0.4606106 -0.049254 -0.21263307 0.054913614 0.0003649526 -0.1485768
0.429722 0.37687582 0.18473786 -0.14250709 -0.13639653 -0.48065987 0.18518104 -0.6801804
0.07319855 0.2987372 -0.13729677 -0.11388979 -0.7946588 0.6349378 -0.71536463 -0.68071216
-0.5135127 -0.10966539 0.32201138 -0.10743388 -0.04553816 -0.29687342 -0.0894032 0.42548987
-0.8491348 -0.25238514 0.15461656 -0.84449744 -0.32410094 0.7870738 -0.5705029 -0.14483885
-0.78323853 0.5028448 -0.12568855 0.33884695 0.85741067 0.49250305 -0.07435839 0.54098433
-0.02595216 -0.804375 -0.45471004 -0.33161712 0.18160348 0.21732356 0.08004577 -0.15065025
0.08729191 -0.6358314 -0.79743016 -0.03285128 -0.1425542 0.065713406 -0.07334415 -0.062189706
-0.6629535 0.06556229 -0.3533585 0.26400957 0.032829426 0.5083308 -0.11109092 -1.065731
1.0495776 -0.4708855 -0.28623477 0.14621808 -0.30035928 -0.65416723 0.636861 -0.6018274
0.010114248 -0.20623676 -0.38593504 -0.20177197 0.39640084 -0.30711657 0.100872874 -0.320067
0.22310385 0.452869 -0.10247071 0.258925 -0.025468156 -0.04408498 0.27157778 0.2895038
-0.53161424 -0.5163497 0.18329298 -0.43373415 -0.7564872 0.4365522 -0.90403515 0.052465025
-0.4877137 0.25350636 -0.12761004 0.30794784 0.33180454 0.028262563 -0.36191872 0.30409795
0.20642002 -0.7682408 -0.13180366 0.122207955 0.18858969 0.8215935 -0.13101278 0.88371617
-1.3882078 -0.7182902 -0.4482514 0.030120363 -0.56457096 0.6255341 0.46651912 0.68013316
00000000: e748 14bf da85 11be f9b2 f73e 9629 8d3f
00000010: 1dfe a2be f4a1 a63e f5d6 453f 1231 8fbd
00000020: ef04 b1be 576a 6bbe 761a 023d 6772 fd3e
00000030: d17a 83bd a396 13bd cf1d 2abe 9e13 703d
00000040: 2a2c 943e cbe1 1bbf 0202 a9be 49b1 49bf
00000050: d77d b1be 10b9 f1be d0ec 0c3f 3084 80be
00000060: 9361 4f3e da78 c43e e14f 8a3e bddc 323f
00000070: 0188 82be a1f2 d4bd 3c5e 55bf 26c5 e8be
00000080: 6d68 55be c0e6 2dbf f0c8 3dbe 56d2 bc3d
00000090: e6a6 cfbe c49d 103b c77e 053f eae7 493e
000000a0: 36e7 79bf 22bf 213e 1aac 7bbe e18f 063f
000000b0: 7347 f3bd 6ddd 32be ba45 87be 499d 663f
000000c0: c247 303e f076 ca3e 2850 00bf dbd8 2abe
000000d0: 2c79 3f3f a929 29bf 46d0 fabe 8910 9d3e
000000e0: e46f a33e 7b50 2c3f 6cac 073e 7b48 cf3e
000000f0: d576 e8bd 854e 3bbe 5b47 d43e 1219 08bc
00000100: 9f46 9e3d ea12 37bf c5f0 ee3c 089b 2bbe
00000110: 5339 583f 9b39 c3be 229f c8be 7372 923e
00000120: acf9 21bf 99ce 33bf a84a 8ebe 55a0 ebbe
00000130: ddea 4b3e 4b89 70bf d16f f03d 8c6b 10bf
00000140: c762 92be 8251 28bf f1d1 593e c75b aa3e
00000150: 1f6e b7bf 1833 f43e cc1d 4d3f e397 55be
00000160: dd1b 223d 3d3a 70bd 3286 b33e 1fdc fcba
00000170: 5c1e 853e 5a67 253f fb98 8ebd 45c8 ecba
00000180: 82cf 653f fa05 51be 8ae7 f9be 7a91 c7be
00000190: 1991 74bf 5acb 153f 4a9b b2be a50e bfbd
000001a0: 4b08 dc3d 5ebe ce3c 149e 0cbf 9816 f43e
000001b0: d76c 02be d3e1 a73d 3cbf 10bf d386 053e
000001c0: 6ccd d0bf 0988 6e3e 5399 223f 64c3 31bf
000001d0: 0404 083f 763f 2b3e 4d0e f3be aebc 4cbf
000001e0: 0b95 253f e921 4dbf bad8 75bf 403b 67be
000001f0: 3bd9 67be c15c 17bd 3a6c 483e c109 94bd
00000200: 2453 3f3e c63f 443e 27d5 ebbe 90be 49bd
00000210: 7cbc 59be 19ed 603d 1c57 bf39 8424 18be
00000220: 8604 dc3e def5 c03e ec2b 3d3e 61ed 11be
00000230: 88ab 0bbe 0d19 f6be 19a0 3d3e 4d20 2ebf
00000240: 1fe9 953d 15f4 983e 8697 0cbe 0d3f e9bd
00000250: c26e 4bbf 498b 223f 2322 37bf 2743 2ebf
00000260: 9175 03bf 3f98 e0bd adde a43e 4b06 dcbd
00000270: 3986 3abd cbff 97be 0619 b7bd cfd9 d93e
00000280: e660 59bf a038 81be ce53 1e3e fc30 58bf
00000290: 8ff0 a5be ab7d 493f 7a0c 12bf a350 14be
000002a0: 5282 48bf 70ba 003f 80b4 00be 597d ad3e
000002b0: 447f 5b3f 5c29 fc3e 3649 98bd f37d 0a3f
000002c0: a099 d4bc 85eb 4dbf c1cf e8be b8c9 a9be
000002d0: 43f6 393e 118a 5e3e 09ef a33d 0f44 1abe
000002e0: 1ac6 b23d d9c5 22bf 6224 4cbf 108f 06bd
000002f0: baf9 11be c094 863d 7535 96bd a2ba 7ebd
00000300: 52b7 29bf 8645 863d 68eb b4be 432c 873e
00000310: 2678 063d f821 023f a383 e3bd e069 88bf
00000320: 8f58 863f e717 f1be 5d8d 92be 31ba 153e
00000330: b1c8 99be 8177 27bf 5309 233f 5c11 1abf
00000340: 3bb6 253c bb2f 53be 4799 c5be 509d 4ebe
00000350: 0df5 ca3e 623e 9dbe 7096 ce3d d2df a3be
00000360: 5675 643e 72de e73e 2adc d1bd d191 843e
00000370: 98a2 d0bc 7492 34bd 3e0c 8b3e d839 943e
00000380: df17 08bf 7e2f 04bf 28b1 3b3e 6712 debe
00000390: 25a9 41bf c583 df3e d96e 67bf 91e5 563d
000003a0: 9cb5 f9be 96cb 813e 35ac 02be 57ab 9d3e
000003b0: 49e2 a93e e486 e73c 694d b9be bab2 9b3e
000003c0: c55f 533e 6eab 44bf 8af7 06be 2a48 fa3d
000003d0: a81d 413e f453 523f 3728 06be 393b 623f
000003e0: cbb0 b1bf dee1 37bf 3581 e5be fbbe f63c
000003f0: b987 10bf 0123 203f 98db ee3e 351d 2e3f

network_body._body_endoder.seq_layers.2.bias f4 [16]
-0.21315269 -0.19276783 0.08412994 -0.15070695 -0.3375085 -0.07670406 -0.33045903 -0.062006522
-0.34411713 -0.108978555 -0.69468 -0.18075255 -0.18930605 -0.10886475 -0.54673827 0.023799444
00000000: b344 5abe ee64 45be 514c ac3d ec52 1abe
00000010: eacd acbe 0517 9dbd ed31 a9be 8dfa 7dbd
00000020: 1f30 b0be 2630 dfbd 8cd6 31bf 3217 39be
00000030: 72d9 41be 7bf4 debd 0af7 0bbf 0df7 c23c

network_body._body_endoder.seq_layers.4.weight f4 [16, 16]
0.27173007 -0.6070169 -0.645737 -0.58305955 -0.31534752 -0.32983145 -0.2770741 -0.35882267
-0.15199034 0.15902613 0.27055544 -0.3287871 0.043627772 -0.40891048 0.44259953 -1.199062
0.09828561 -0.78605795 0.07178827 -0.13608852 0.24712378 0.3764541 0.105579115 -0.8734081
-0.08725213 0.4732056 -0.39890882 0.22037253 -0.32517925 -0.18860598 -0.17415635 0.6415881
0.4480465 -0.67876565 -0.21142168 -0.07766259 0.37096447 -0.9010988 -0.012396051 0.2963528
-0.46011418 -0.05987042 -0.065584846 0.1418186 -0.66346735 -0.30832803 -0.10257209 -0.12036018
-0.30010155 0.21994479 0.1078143 -0.22390565 0.083707176 -0.03429894 0.29282266 -0.08282053
-0.03150987 0.5886074 -0.4344757 0.5623205 0.067190945 0.24496059 0.34763256 -0.23169519
0.54663384 -0.003910172 0.4120376 -0.52311134 -0.655814 0.30145505 -0.5058129 -0.099147685
-0.28376424 0.121006645 0.5701188 -0.25349542 -0.056564886 -0.09956076 0.41338345 -0.17237133
-0.0337304 -0.40620238 -0.16669048 -0.26076502 0.37904495 -0.27181113 0.091867276 -1.1680475
-0.0388466 0.31628567 -0.073523745 0.22110371 -0.4506832 0.14008097 0.17370792 0.022462524
-0.01574136 0.7343346 0.35107833 -0.32035494 -0.75759405 0.38483092 0.0030675125 0.4793351
0.188968 -0.16405606 -0.13161393 0.414599 0.24106002 0.062163703 0.01871537 0.49610436
-0.3191925 -0.025834195 -0.107130736 -0.038386524 0.66346383 0.09434091 0.050662484 -1.2591109
-0.08733323 -0.43687955 0.2656249 0.55227077 -0.49966118 -0.06215366 0.49376568 -0.1354772
-0.6312699 -0.2664812 0.3700327 0.63040465 0.22510211 0.08184118 0.29606783 -0.08675606
-0.75492257 0.5157544 0.52214175 0.13053885 -0.44127324 0.23954932 0.4679272 -0.1208753
0.3607217 -0.19584425 -0.8187831 0.61449695 -0.046483096 -1.2478102 0.18094501 -0.47352907
0.26679492 0.23342352 0.11662815 -0.30905366 0.2719684 0.28293517 -0.15891518 -0.560333
-0.34039295 -0.2698506 -0.5507992 0.13330589 0.19902433 0.06892307 -0.571495 0.6412472
0.2622237 -0.064224616 -0.1953714 -0.012619093 0.7907936 0.11596816 -0.013342461 -0.5173225
0.16052783 -0.2216018 -0.05014967 0.031859048 0.3875966 -0.70759535 -0.14316177 0.116909094
-0.5277057 -0.08474223 -0.23491144 0.1373896 0.061269224 0.05244456 -0.16018838 0.70870984
0.765595 0.2762719 0.39562425 -0.47386387 -0.38861442 0.8361154 0.13475391 -0.22322899
-0.02063077 -0.028743798 -0.09288211 0.7391692 0.70591116 0.06295576 0.33749405 -0.41556558
-0.1862583 0.13076338 -0.050644282 0.26989475 0.58787256 0.22167236 0.09597718 -0.9740294
-0.0030318773 -0.6714141 0.5488419 0.48604384 -0.25800675 0.30427784 0.1836911 -0.35154557
0.5593641 -0.80584306 -0.3120223 -0.26229194 -0.28371912 0.3977207 -0.61796385 -0.3721312
0.13090758 0.42559814 0.6536381 -0.5810819 0.09159479 0.01634557 0.53660953 -0.20474361
-0.42543057 0.021587681 0.10627168 -0.21621911 -0.55578417 0.045019124 1.2431198 -0.063283905
-0.16021127 0.30285123 -0.5269945 0.098075464 -0.4976697 -0.08608998 0.3944211 0.122456186
00000000: 3420 8b3e 7665 1bbf 054f 25bf 6443 15bf
00000010: 3b75 a1be abdf a8be a8dc 8dbe 9bb7 b7be
00000020: 5ba3 1bbe bfd7 223e 3e86 8a3e c856 a8be
00000030: 09b3 323d b75c d1be 689c e23e dd7a 99bf
00000040: f749 c93d 183b 49bf ba05 933d ca5a 0bbe
00000050: 040e 7d3e 97be c03e dd39 d83d ac97 5fbf
00000060: 3fb1 b2bd 0148 f23e c73d ccbe 56a9 613e
00000070: e57d a6be ed21 41be 0b56 32be 1e3f 243f
00000080: 5a66 e53e 96c3 2dbf ed7e 58be 900d 9fbd
00000090: 0eef bd3e 69ae 66bf ce18 4bbc 8ebb 973e
000000a0: 1694 ebbe af3a 75bd 5951 86bd e538 113e
000000b0: ffd8 29bf 2cdd 9dbe 5111 d2bd 667f f6bd
000000c0: e9a6 99be 3539 613e becd dc3d 8647 65be
000000d0: ab6e ab3d 0c7d 0cbd daec 953e cf9d a9bd
000000e0: 7e10 01bd f9ae 163f 9973 debe 3cf4 0f3f
000000f0: 689b 893d f3d6 7a3e e5fc b13e 8141 6dbe
00000100: 32f0 0b3f e620 80bb 98f6 d23e a0ea 05bf
00000110: 6de3 27bf 5158 9a3e f47c 01bf f10d cbbd
00000120: 8c49 91be 55d2 f73d 4ef3 113f 27ca 81be
00000130: 95b0 67bd 83e6 cbbd ffa6 d33e 1c82 30be
00000140: e328 0abd c2f9 cfbe e9b0 2abe fe82 85be
00000150: 2e12 c23e d42a 8bbe e924 bc3d 9582 95bf
00000160: 9d1d 1fbd 32f0 a13e 9e93 96bd 0369 623e
00000170: f3bf e6be 6371 0f3e 7de0 313e 5403 b83c
00000180: 06f4 80bc 5afd 3b3f 8ac0 b33e 9005 a4be
00000190: aff1 41bf 8f08 c53e 5208 493b 696b f53e
000001a0: d480 413e 50fe 27be cdc5 06be 5246 d43e
000001b0: 70d8 763e 5e9f 7e3d fa50 993c 6401 fe3e
000001c0: 336d a3be 3ca2 d3bc 5c67 dbbd 303b 1dbd
000001d0: c4d8 293f cf35 c13d 7783 4f3d 8c2a a1bf
000001e0: c4db b2bd adae dfbe fdff 873e 9e61 0d3f
000001f0: 97d3 ffbe d694 7ebd dbce fc3e 89ba 0abe
00000200: e79a 21bf 3970 88be ed74 bd3e 3362 213f
00000210: 2b81 663e 599c a73d 3496 973e 29ad b1bd
00000220: 9b42 41bf 7b08 043f 15ab 053f faab 053e
00000230: 91ee e1be 6b4c 753e 2794 ef3e 788d f7bd
00000240: 84b0 b83e 658b 48be c59b 51bf ac4f 1d3f
00000250: 0f65 3ebd 3fb8 9fbf a649 393e 6772 f2be
00000260: 5899 883e 9306 6f3e bdda ee3d 483c 9ebe
00000270: 713f 8b3e e1dc 903e a9ba 22be fc71 0fbf
00000280: fc47 aebe dc29 8abe 2d01 0dbf 5781 083e
00000290: 09cd 4b3e 8a27 8d3d 7f4d 12bf c728 243f
000002a0: 2f42 863e 3288 83bd 710f 48be 50c0 4ebc
000002b0: 7371 4a3f b780 ed3d 569a 5abc 3f6f 04bf
000002c0: 6861 243e 95eb 62be be69 4dbd a27e 023d
000002d0: 1073 c63e f824 35bf 0099 12be 096e ef3d
000002e0: b917 07bf 568d adbd a08c 70be dcaf 0c3e
000002f0: 70f5 7a3d 1bd0 563d 6c08 24be 026e 353f
00000300: 09fe 433f 8373 8d3e 438f ca3e 499e f2be
00000310: 78f8 c6be a90b 563f eefc 093e 2496 64be
00000320: dc01 a9bc 1d78 ebbc fa38 bebd 313a 3d3f
00000330: 98b6 343f f3ee 803d 05cc ac3e 03c5 d4be
00000340: 7fba 3ebe d6e6 053e 6170 4fbd a52f 8a3e
00000350: d17e 163f 14fe 623e af8f c43d fe59 79bf
00000360: 76b2 46bb cbe1 2bbf e780 0c3f bdda f83e
00000370: 7619 84be 4eca 9b3e 8519 3c3e c8fd b3be
00000380: 7c32 0f3f bb4b 4ebf 63c1 9fbe 214b 86be
00000390: a243 91be 0ca2 cb3e e132 1ebf fb87 bebe
000003a0: a30c 063e 00e8 d93e d454 273f c9c1 14bf
000003b0: 0d96 bb3d 25e7 853c 3e5f 093f 4fa8 51be
000003c0: 09d2 d9be a6d8 b03c f7a4 d93d 8b68 5dbe
000003d0: df47 0ebf f965 383d 8d1e 9f3f fe9a 81bd
000003e0: 6c0e 24be 510f 9b3e 1de9 06bf cadb c83d
000003f0: 90ce febe f24f b0bd 90f1 c93e 4fca fa3d

network_body._body_endoder.seq_layers.4.bias f4 [16]
-0.5107677 0.20570455 -0.06512056 -0.4619177 -0.1799282 -0.12679824 -0.109626785 -0.19895278
-0.4822262 -0.19868128 -0.4734904 0.17871208 -0.116929315 -0.3087384 -0.20134263 -0.3243103
00000000: acc1 02bf 37a4 523e ee5d 85bd 7a80 ecbe
00000010: 193f 38be 66d7 01be 0284 e0bd 47ba 4bbe
00000020: 5ae6 f6be 1b73 4bbe 556d f2be 4d00 373e
00000030: a378 efbd f612 9ebe c32c 4ebe 000c a6be

action_model._discrete_distribution.branches.0.weight f4 [10, 16]
-0.024053462 0.01955724 -0.016130488 0.016377397 0.02246444 0.030786604 -0.04166524 0.022092368
-0.023609612 0.01179985 -0.014289396 0.015123262 -0.038527288 0.0049312706 0.018343225 -0.01718085
-0.17063491 -0.122237936 0.18744497 -0.2451109 -0.2457227 -0.75362283 0.37762117 -0.5078889
0.09005331 -0.063434854 0.6034998 0.40033454 -0.2925079 -0.24697918 -0.012346516 -0.8611466
-0.013539594 -0.48876676 -0.01641161 0.17829463 -0.44383252 -0.34255207 0.22906764 -0.25824937
0.1729926 0.01906133 0.42541003 -0.06253462 0.037772276 -0.1086642 -0.5615401 0.055609692
-0.6846433 0.3361034 0.34366062 -0.3635122 0.09615175 0.24713264 0.12370022 0.1022615
-0.24480903 -0.117778085 -0.60192233 0.22262938 0.20515992 -0.1999229 -0.1265714 -0.36060145
0.37492493 -0.35466307 -0.010311773 -0.2803924 0.390777 0.13801892 -0.3959528 0.52364343
0.17255677 0.5364288 0.24893755 -0.4084088 -0.0019253811 0.60584354 0.61516714 -0.6145713
0.38269672 0.14352037 0.09888488 -0.0137209585 0.00032610592 -0.22595815 0.16325627 -0.3550524
-0.37742046 0.25046587 0.35283858 0.2831726 0.37318084 -0.35330066 0.096019946 -0.37906405
-0.06930191 0.26362595 0.27600282 0.010883598 -0.45199654 0.5099944 -0.5060317 0.33783272
-0.17969567 0.48473778 -0.695523 0.07247675 -0.4918519 0.22399211 -0.14040391 0.081381194
0.81403536 -0.22439067 -0.12636654 0.5604239 0.61419415 0.23361883 -0.17212048 0.05853372
-0.015724752 -0.073161 -0.10668031 -0.5347237 0.5464824 0.12107938 0.76641047 0.29719153
0.23215503 -0.5043232 -0.707762 0.33857727 0.0528847 -0.02732253 0.14379576 0.250215
0.27969483 -0.21418393 0.2602004 -0.52705395 0.07533238 0.2715565 -0.26347077 0.38013828
-0.31849706 0.5175587 0.10647812 -0.05458111 0.013371035 0.0024727527 0.11945968 -0.013193633
-0.00046513363 -0.54580015 -0.39878443 0.33291945 -0.41373053 -0.14463075 -0.1428262 0.4727084
00000000: c40b c5bc 8136 a03c 1624 84bc e429 863c
00000010: 5807 b83c 3034 fc3c 2ca9 2abd 0efb b43c
00000020: f268 c1bc 2854 413c 121e 6abc 8fc7 773c
00000030: cace 1dbd 7f96 a13b 8844 963c dbbe 8cbc
00000040: ebba 2ebe e257 fabd 93f1 3f3e 5afe 7abe
00000050: bb9e 7bbe 6ded 40bf 9057 c13e 0205 02bf
00000060: df6d b83d 22ea 81bd f77e 1a3f a6f8 cc3e
00000070: 98c3 95be 1ce8 7cbe 0b49 4abc 1b74 5cbf
00000080: 2cd5 5dbc a33f fabe a471 86bc de92 363e
00000090: 043e e3be fc62 afbe b590 6a3e 4339 84be
000000a0: f924 313e 8226 9c3c 58cf d93e 2712 80bd
000000b0: 1ab7 1a3d 568b debd 18c1 0fbf fdc6 633d
000000c0: c944 2fbf bf15 ac3e 49f4 af3e 451e babe
000000d0: 35eb c43d 5710 7d3e 8a56 fd3d 7a6e d13d
000000e0: 38af 7abe a335 f1bd 9517 1abf f5f8 633e
000000f0: 7115 523e 97b8 4cbe ef9b 01be c1a0 b8be
00000100: 29f6 bf3e 6696 b5be b6f2 28bc 988f 8fbe
00000110: ec13 c83e d554 0d3e 53ba cabe 7f0d 063f
00000120: b9b2 303e 6653 093f 7ce9 7e3e f51a d1be
00000130: 125d fcba 9018 1b3f 987b 1d3f 8b54 1dbf
00000140: d3f0 c33e 01f7 123e 2884 ca3d dfcd 60bc
00000150: 32f9 aa39 9361 67be a72c 273e 6ec9 b5be
00000160: 413d c1be 103d 803e 42a7 b43e 00fc 903e
00000170: 8f11 bf3e d3e3 b4be 1ba6 c43d af14 c2be
00000180: 29ee 8dbd fbf9 863e 3e50 8d3e 1e51 323c
00000190: 176c e7be fe8e 023f 4b8b 01bf 69f8 ac3e
000001a0: 2402 38be 8d2f f83e cc0d 32bf b16e 943d
000001b0: 03d4 fbbe 305e 653e 0bc6 0fbe 2fab a63d
000001c0: 9f64 503f abc6 65be 3b66 01be f177 0f3f
000001d0: d43b 1d3f c639 6f3e 5a40 30be 0ec1 6f3d
000001e0: 32d1 80bc 6fd5 95bd 357b dabd a7e3 08bf
000001f0: 45e6 0b3f 77f8 f73d 7a33 443f 7d29 983e
00000200: 0cba 6d3e 531b 01bf e42f 35bf 005a ad3e
00000210: a19d 583d 80d3 dfbc 323f 133e 2e1c 803e
00000220: 2934 8f3e 0853 5bbe fd38 853e 02ed 06bf
00000230: dd47 9a3d 7409 8b3e a4e5 86be 7ca1 c23e
00000240: 0c12 a3be ba7e 043f 3311 da3d 7190 5fbd
00000250: 3012 5b3c e80d 223b 47a7 f43d 1c2a 58bc
00000260: 2edd f3b9 8fb9 0bbf 792d ccbe 6b74 aa3e
00000270: 7dd4 d3be 151a 14be 0841 12be d606 f23e

action_model._discrete_distribution.branches.0.bias f4 [10]
0.0 0.1798903 -0.29024795 0.30841437 -0.41253787 0.52889603 0.03767399 -0.079372175
-0.62844706 0.2928724
00000000: 0000 0000 2a35 383e 619b 94be 7de8 9d3e
00000010: 2a38 d3be bb65 073f 0b50 1a3d e18d a2bd
00000020: e8e1 20bf 5ff3 953e
