Assets/onnx/TTT_26/X_Behavior/X_Behavior-26775.pt (torch, 39079 bytes, 45 tensors)

network_body._body_endoder.seq_layers.0.weight f4 [16, 9]
00000000: d4cf 843f 76bb e33d eb08 cf3c a1e2 db3e
00000010: 87fe 6e3f c335 953e afab 2ebf b757 f2be
00000020: bad8 69be f030 e6ba d1b8 5fbe 6c3c 51be
00000030: 4e50 49be 526d d3be c921 513f ee86 5e3f
00000040: 8064 67bf 7469 65bf 8615 77be 7a13 10bf
00000050: 5580 19bf b95c 0c3f 5f49 ddbd 64d3 2fbe
00000060: b7aa 2ebe 59e7 27bf dc30 583f 07b1 5bbe
00000070: 9150 25be 4526 743f 68eb 61be dd35 883f
00000080: b9f1 8bbf baee 853f 9faa 29be 4a17 b7be
00000090: be29 f1be d21e 8cbf 3038 b6bf 62bb 1b3f
000000a0: 8788 443f d192 5fbe a3ab a83e 8eeb c03e
000000b0: 095f e9be d684 743e a77e 81be 449a 083e
000000c0: 0d7d efbe cb1b b13e c067 26be a1cc 243e
000000d0: 47ea 0fbe f090 803f 3922 5a3e 83b1 8cbd
000000e0: e617 b3bf 62bf cb3e 0e02 95bf 4535 c13d
000000f0: e879 98bf 83a0 d23e 2656 903d a2ab 093f
00000100: 89f4 253f 0806 08bf 28e7 59be 4bcd cc3e
00000110: 4163 a2bf cfb9 4c3e 74f1 443f 0aa8 d93e
00000120: e393 993e bc12 74bf 0578 5f3f 4a8a 293f
00000130: a31c c8be 10d8 133e 3435 3f3e 9949 a1bf
00000140: 47a1 4bbf 2d9e 90bd d67e e13e 8bac 29be
00000150: 8b57 99bd ccc9 283f 762e 143f ca7c 41bf
00000160: 869d bdbe e9d8 31bf 5429 1e3f 13cd 1bbe
00000170: b893 49bf bd1f 91bf 9937 5ebf a35e dabe
00000180: 8928 923e 1f45 7d3e 5a97 35bf 6df5 083f
00000190: 2eb7 e83e d0c4 d8bd 705a 5fbe dab6 a63d
000001a0: b060 273e 135f 86bf ed78 5e3f 8520 923e
000001b0: c29c 99bf dc83 083f 8afe cd3e aab4 81bf
000001c0: 6288 883e 465f 683e 8259 18bf 3ae3 753e
000001d0: 8347 273f 4ce8 8fbc d717 263f 76b3 03bf
000001e0: 5168 6abf 1fdf 833e 9baa 223e d7fa 19be
000001f0: dc01 573f 5a23 113f e81c 063f 0d33 59bf
00000200: 60c7 8b3d 8af8 89be 068a 2ebf 3a63 24bf
00000210: f4e7 19bf 3d7b 82bf 203c 5e3f e941 2f3f
00000220: 96d0 3e3e 4703 c3be 7434 b3bf 092a 393e
00000230: 8235 a2bd b9f5 d8be 0fd6 10bd 4f83 603f
1.0375924 0.1111974 0.025272807 0.42946342 0.9335713 0.2914258 -0.6823072 -0.47332546
-0.22836581 -0.0017562192 -0.21847846 -0.20433205 -0.1965954 -0.41294342 0.8169218 0.86924636
-0.90387726 -0.89614034 -0.24129304 -0.5627972 -0.59961444 0.54828984 -0.1080501 -0.17170483
-0.1705731 -0.65587384 0.84449553 -0.2145425 -0.16144015 0.95370895 -0.22062457 1.0641438
-1.0933143 1.0463479 -0.16568993 -0.35759956 -0.4710216 -1.0946906 -1.4235897 0.608328
0.76770824 -0.2183335 0.32943448 0.37679714 -0.4558032 0.23878798 -0.2529194 0.13340098
-0.46775094 0.34591517 -0.16250515 0.16093685 -0.14054213 1.0044231 0.21302117 -0.06869795
-1.3991668 0.3979445 -1.1641252 0.094339885 -1.1912203 0.41138086 0.070476815 0.53777516
0.64826256 -0.531342 -0.21279585 0.40000376 -1.268654 0.19992755 0.7693093 0.42511016
0.2999564 -0.95341086 0.8729251 0.6622664 -0.39084348 0.1443789 0.18672639 -1.2600585
-0.79542965 -0.0706142 0.4404208 -0.16569726 -0.074874006 0.6593292 0.57883394 -0.7558104
-0.37034243 -0.69471604 0.6178181 -0.15214948 -0.78741026 -1.1337811 -0.86803585 -0.42650327
0.2854655 0.24733399 -0.7093407 0.5349949 0.45452255 -0.10584414 -0.21811843 0.08140345
0.16345477 -1.0497764 0.8690327 0.28540435 -1.2000964 0.533262 0.4023326 -1.0133259
0.26666552 0.22692594 -0.5951158 0.24012461 0.65343493 -0.017566822 0.64880127 -0.5144571
-0.91565424 0.25756165 0.15885393 -0.15037094 0.8398721 0.5669457 0.5238786 -0.8484352
0.06825137 -0.26947433 -0.6817936 -0.6421391 -0.6011956 -1.0193859 0.86810493 0.68459946
0.18634257 -0.38088438 -1.4000382 0.18082441 -0.07920362 -0.42374972 -0.035360392 0.8770036

network_body._body_endoder.seq_layers.0.bias f4 [16]
00000000: 57b0 8bbe e49d c73c 6867 03be 19f1 03bf
00000010: 4942 b1be 04e5 9dbe 6488 bdbd 64b3 8cbe
00000020: 2354 b33d ceab d4be e3ac a9be 9ac6 b7be
00000030: 843f 4ebf b061 903c 8d54 90be c1ca 57bd
-0.27282974 0.02436728 -0.12832415 -0.5153976 -0.34620884 -0.30838788 -0.0925453 -0.27480614
0.08756282 -0.41537327 -0.33139715 -0.35893708 -0.8056567 0.017624706 -0.28189507 -0.052683596

network_body._body_endoder.seq_layers.2.weight f4 [16, 16]
00000000: e748 14bf da85 11be f9b2 f73e 9629 8d3f
00000010: 1dfe a2be f4a1 a63e f5d6 453f 1231 8fbd
00000020: ef04 b1be 576a 6bbe 761a 023d 6772 fd3e
00000030: d17a 83bd a396 13bd cf1d 2abe 9e13 703d
00000040: 2a2c 943e cbe1 1bbf 0202 a9be 49b1 49bf
00000050: d77d b1be 10b9 f1be d0ec 0c3f 3084 80be
00000060: 9361 4f3e da78 c43e e14f 8a3e bddc 323f
00000070: 0188 82be a1f2 d4bd 3c5e 55bf 26c5 e8be
00000080: 6d68 55be c0e6 2dbf f0c8 3dbe 56d2 bc3d
00000090: e6a6 cfbe c49d 103b c77e 053f eae7 493e
000000a0: 36e7 79bf 22bf 213e 1aac 7bbe e18f 063f
000000b0: 7347 f3bd 6ddd 32be ba45 87be 499d 663f
000000c0: c247 303e f076 ca3e 2850 00bf dbd8 2abe
000000d0: 2c79 3f3f a929 29bf 46d0 fabe 8910 9d3e
000000e0: e46f a33e 7b50 2c3f 6cac 073e 7b48 cf3e
000000f0: d576 e8bd 854e 3bbe 5b47 d43e 1219 08bc
00000100: 9f46 9e3d ea12 37bf c5f0 ee3c 089b 2bbe
00000110: 5339 583f 9b39 c3be 229f c8be 7372 923e
00000120: acf9 21bf 99ce 33bf a84a 8ebe 55a0 ebbe
00000130: ddea 4b3e 4b89 70bf d16f f03d 8c6b 10bf
00000140: c762 92be 8251 28bf f1d1 593e c75b aa3e
00000150: 1f6e b7bf 1833 f43e cc1d 4d3f e397 55be
00000160: dd1b 223d 3d3a 70bd 3286 b33e 1fdc fcba
00000170: 5c1e 853e 5a67 253f fb98 8ebd 45c8 ecba
00000180: 82cf 653f fa05 51be 8ae7 f9be 7a91 c7be
00000190: 1991 74bf 5acb 153f 4a9b b2be a50e bfbd
000001a0: 4b08 dc3d 5ebe ce3c 149e 0cbf 9816 f43e
000001b0: d76c 02be d3e1 a73d 3cbf 10bf d386 053e
000001c0: 6ccd d0bf 0988 6e3e 5399 223f 64c3 31bf
000001d0: 0404 083f 763f 2b3e 4d0e f3be aebc 4cbf
000001e0: 0b95 253f e921 4dbf bad8 75bf 403b 67be
000001f0: 3bd9 67be c15c 17bd 3a6c 483e c109 94bd
00000200: 2453 3f3e c63f 443e 27d5 ebbe 90be 49bd
00000210: 7cbc 59be 19ed 603d 1c57 bf39 8424 18be
00000220: 8604 dc3e def5 c03e ec2b 3d3e 61ed 11be
00000230: 88ab 0bbe 0d19 f6be 19a0 3d3e 4d20 2ebf
00000240: 1fe9 953d 15f4 983e 8697 0cbe 0d3f e9bd
00000250: c26e 4bbf 498b 223f 2322 37bf 2743 2ebf
00000260: 9175 03bf 3f98 e0bd adde a43e 4b06 dcbd
00000270: 3986 3abd cbff 97be 0619 b7bd cfd9 d93e
00000280: e660 59bf a038 81be ce53 1e3e fc30 58bf
00000290: 8ff0 a5be ab7d 493f 7a0c 12bf a350 14be
000002a0: 5282 48bf 70ba 003f 80b4 00be 597d ad3e
000002b0: 447f 5b3f 5c29 fc3e 3649 98bd f37d 0a3f
000002c0: a099 d4bc 85eb 4dbf c1cf e8be b8c9 a9be
000002d0: 43f6 393e 118a 5e3e 09ef a33d 0f44 1abe
000002e0: 1ac6 b23d d9c5 22bf 6224 4cbf 108f 06bd
000002f0: baf9 11be c094 863d 7535 96bd a2ba 7ebd
00000300: 52b7 29bf 8645 863d 68eb b4be 432c 873e
00000310: 2678 063d f821 023f a383 e3bd e069 88bf
00000320: 8f58 863f e717 f1be 5d8d 92be 31ba 153e
00000330: b1c8 99be 8177 27bf 5309 233f 5c11 1abf
00000340: 3bb6 253c bb2f 53be 4799 c5be 509d 4ebe
00000350: 0df5 ca3e 623e 9dbe 7096 ce3d d2df a3be
00000360: 5675 643e 72de e73e 2adc d1bd d191 843e
00000370: 98a2 d0bc 7492 34bd 3e0c 8b3e d839 943e
00000380: df17 08bf 7e2f 04bf 28b1 3b3e 6712 debe
00000390: 25a9 41bf c583 df3e d96e 67bf 91e5 563d
000003a0: 9cb5 f9be 96cb 813e 35ac 02be 57ab 9d3e
000003b0: 49e2 a93e e486 e73c 694d b9be bab2 9b3e
000003c0: c55f 533e 6eab 44bf 8af7 06be 2a48 fa3d
000003d0: a81d 413e f453 523f 3728 06be 393b 623f
000003e0: cbb0 b1bf dee1 37bf 3581 e5be fbbe f63c
000003f0: b987 10bf 0123 203f 98db ee3e 351d 2e3f
-0.5792374 -0.14211217 0.48378733 1.1028316 -0.31834498 0.32545435 0.77281123 -0.06991781
-0.34574077 -0.22989784 0.031763516 0.49501345 -0.0641991 -0.03603233 -0.16612934 0.05861246
0.28939945 -0.6089141 -0.33009344 -0.7878614 -0.3466632 -0.47211504 0.5504885 -0.2510085
0.20252065 0.38373452 0.27014068 0.6986807 -0.25494388 -0.1039784 -0.83346915 -0.45462912
-0.20840617 -0.6793022 -0.18533683 0.09219806 -0.4055702 0.0022066692 0.5214657 0.19717374
-0.97618425 0.15795568 -0.2457737 0.5256329 -0.11878862 -0.1746728 -0.26420385 0.9008375
0.17214873 0.39543867 -0.5012231 -0.16684286 0.7479427 -0.66079193 -0.48987025 0.30676678
0.31921303 0.67310303 0.13249367 0.40484986 -0.113507904 -0.18291672 0.4146069 -0.0083067585
0.07728314 -0.71513236 0.029167542 -0.16758358 0.8446247 -0.38129887 -0.3918391 0.28602943
-0.63271594 -0.7023712 -0.27791333 -0.4602076 0.19913812 -0.9395949 0.11740077 -0.56414104
-0.28590986 -0.6574937 0.21271493 0.33273146 -1.4330481 0.4769523 0.8012359 -0.20858721
0.039577354 -0.05864929 0.3506332 -0.0019291675 0.25999725 0.64610827 -0.069627725 -0.0018065056
0.89769757 -0.20412436 -0.48809463 -0.38978177 -0.955339 0.58513415 -0.348841 -0.09328965
0.10743769 0.025237259 -0.5492871 0.47673488 -0.12736832 0.081973694 -0.565418 0.13039713
-1.631269 0.23294081 0.63515204 -0.6943877 0.5313113 0.16723427 -0.47471848 -0.799754
0.64680547 -0.8012987 -0.96033823 -0.22581196 -0.2264146 -0.03695369 0.19572535 -0.07228423
0.1868406 0.19164953 -0.4606106 -0.049254 -0.21263307 0.054913614 0.0003649526 -0.1485768
0.429722 0.37687582 0.18473786 -0.14250709 -0.13639653 -0.48065987 0.18518104 -0.6801804
0.07319855 0.2987372 -0.13729677 -0.11388979 -0.7946588 0.6349378 -0.71536463 -0.68071216
-0.5135127 -0.10966539 0.32201138 -0.10743388 -0.04553816 -0.29687342 -0.0894032 0.42548987
-0.8491348 -0.25238514 0.15461656 -0.84449744 -0.32410094 0.7870738 -0.5705029 -0.14483885
-0.78323853 0.5028448 -0.12568855 0.33884695 0.85741067 0.49250305 -0.07435839 0.54098433
-0.02595216 -0.804375 -0.45471004 -0.33161712 0.18160348 0.21732356 0.08004577 -0.15065025
0.08729191 -0.6358314 -0.79743016 -0.03285128 -0.1425542 0.065713406 -0.07334415 -0.062189706
-0.6629535 0.06556229 -0.3533585 0.26400957 0.032829426 0.5083308 -0.11109092 -1.065731
1.0495776 -0.4708855 -0.28623477 0.14621808 -0.30035928 -0.65416723 0.636861 -0.6018274
0.010114248 -0.20623676 -0.38593504 -0.20177197 0.39640084 -0.30711657 0.100872874 -0.320067
0.22310385 0.452869 -0.10247071 0.258925 -0.025468156 -0.04408498 0.27157778 0.2895038
-0.53161424 -0.5163497 0.18329298 -0.43373415 -0.7564872 0.4365522 -0.90403515 0.052465025
-0.4877137 0.25350636 -0.12761004 0.30794784 0.33180454 0.028262563 -0.36191872 0.30409795
0.20642002 -0.7682408 -0.13180366 0.122207955 0.18858969 0.8215935 -0.13101278 0.88371617
-1.3882078 -0.7182902 -0.4482514 0.030120363 -0.56457096 0.6255341 0.46651912 0.68013316

network_body._body_endoder.seq_layers.2.bias f4 [16]
00000000: b344 5abe ee64 45be 514c ac3d ec52 1abe
00000010: eacd acbe 0517 9dbd ed31 a9be 8dfa 7dbd
00000020: 1f30 b0be 2630 dfbd 8cd6 31bf 3217 39be
00000030: 72d9 41be 7bf4 debd 0af7 0bbf 0df7 c23c
-0.21315269 -0.19276783 0.08412994 -0.15070695 -0.3375085 -0.07670406 -0.33045903 -0.062006522
-0.34411713 -0.108978555 -0.69468 -0.18075255 -0.18930605 -0.10886475 -0.54673827 0.023799444

network_body._body_endoder.seq_layers.4.weight f4 [16, 16]
00000000: 3420 8b3e 7665 1bbf 054f 25bf 6443 15bf
00000010: 3b75 a1be abdf a8be a8dc 8dbe 9bb7 b7be
00000020: 5ba3 1bbe bfd7 223e 3e86 8a3e c856 a8be
00000030: 09b3 323d b75c d1be 689c e23e dd7a 99bf
00000040: f749 c93d 183b 49bf ba05 933d ca5a 0bbe
00000050: 040e 7d3e 97be c03e dd39 d83d ac97 5fbf
00000060: 3fb1 b2bd 0148 f23e c73d ccbe 56a9 613e
00000070: e57d a6be ed21 41be 0b56 32be 1e3f 243f
00000080: 5a66 e53e 96c3 2dbf ed7e 58be 900d 9fbd
00000090: 0eef bd3e 69ae 66bf ce18 4bbc 8ebb 973e
000000a0: 1694 ebbe af3a 75bd 5951 86bd e538 113e
000000b0: ffd8 29bf 2cdd 9dbe 5111 d2bd 667f f6bd
000000c0: e9a6 99be 3539 613e becd dc3d 8647 65be
000000d0: ab6e ab3d 0c7d 0cbd daec 953e cf9d a9bd
000000e0: 7e10 01bd f9ae 163f 9973 debe 3cf4 0f3f
000000f0: 689b 893d f3d6 7a3e e5fc b13e 8141 6dbe
00000100: 32f0 0b3f e620 80bb 98f6 d23e a0ea 05bf
00000110: 6de3 27bf 5158 9a3e f47c 01bf f10d cbbd
00000120: 8c49 91be 55d2 f73d 4ef3 113f 27ca 81be
00000130: 95b0 67bd 83e6 cbbd ffa6 d33e 1c82 30be
00000140: e328 0abd c2f9 cfbe e9b0 2abe fe82 85be
00000150: 2e12 c23e d42a 8bbe e924 bc3d 9582 95bf
00000160: 9d1d 1fbd 32f0 a13e 9e93 96bd 0369 623e
00000170: f3bf e6be 6371 0f3e 7de0 313e 5403 b83c
00000180: 06f4 80bc 5afd 3b3f 8ac0 b33e 9005 a4be
00000190: aff1 41bf 8f08 c53e 5208 493b 696b f53e
000001a0: d480 413e 50fe 27be cdc5 06be 5246 d43e
000001b0: 70d8 763e 5e9f 7e3d fa50 993c 6401 fe3e
000001c0: 336d a3be 3ca2 d3bc 5c67 dbbd 303b 1dbd
000001d0: c4d8 293f cf35 c13d 7783 4f3d 8c2a a1bf
000001e0: c4db b2bd adae dfbe fdff 873e 9e61 0d3f
000001f0: 97d3 ffbe d694 7ebd dbce fc3e 89ba 0abe
00000200: e79a 21bf 3970 88be ed74 bd3e 3362 213f
00000210: 2b81 663e 599c a73d 3496 973e 29ad b1bd
00000220: 9b42 41bf 7b08 043f 15ab 053f faab 053e
00000230: 91ee e1be 6b4c 753e 2794 ef3e 788d f7bd
00000240: 84b0 b83e 658b 48be c59b 51bf ac4f 1d3f
00000250: 0f65 3ebd 3fb8 9fbf a649 393e 6772 f2be
00000260: 5899 883e 9306 6f3e bdda ee3d 483c 9ebe
00000270: 713f 8b3e e1dc 903e a9ba 22be fc71 0fbf
00000280: fc47 aebe dc29 8abe 2d01 0dbf 5781 083e
00000290: 09cd 4b3e 8a27 8d3d 7f4d 12bf c728 243f
000002a0: 2f42 863e 3288 83bd 710f 48be 50c0 4ebc
000002b0: 7371 4a3f b780 ed3d 569a 5abc 3f6f 04bf
000002c0: 6861 243e 95eb 62be be69 4dbd a27e 023d
000002d0: 1073 c63e f824 35bf 0099 12be 096e ef3d
000002e0: b917 07bf 568d adbd a08c 70be dcaf 0c3e
000002f0: 70f5 7a3d 1bd0 563d 6c08 24be 026e 353f
00000300: 09fe 433f 8373 8d3e 438f ca3e 499e f2be
00000310: 78f8 c6be a90b 563f eefc 093e 2496 64be
00000320: dc01 a9bc 1d78 ebbc fa38 bebd 313a 3d3f
00000330: 98b6 343f f3ee 803d 05cc ac3e 03c5 d4be
00000340: 7fba 3ebe d6e6 053e 6170 4fbd a52f 8a3e
00000350: d17e 163f 14fe 623e af8f c43d fe59 79bf
00000360: 76b2 46bb cbe1 2bbf e780 0c3f bdda f83e
00000370: 7619 84be 4eca 9b3e 8519 3c3e c8fd b3be
00000380: 7c32 0f3f bb4b 4ebf 63c1 9fbe 214b 86be
00000390: a243 91be 0ca2 cb3e e132 1ebf fb87 bebe
000003a0: a30c 063e 00e8 d93e d454 273f c9c1 14bf
000003b0: 0d96 bb3d 25e7 853c 3e5f 093f 4fa8 51be
000003c0: 09d2 d9be a6d8 b03c f7a4 d93d 8b68 5dbe
000003d0: df47 0ebf f965 383d 8d1e 9f3f fe9a 81bd
000003e0: 6c0e 24be 510f 9b3e 1de9 06bf cadb c83d
000003f0: 90ce febe f24f b0bd 90f1 c93e 4fca fa3d
0.27173007 -0.6070169 -0.645737 -0.58305955 -0.31534752 -0.32983145 -0.2770741 -0.35882267
-0.15199034 0.15902613 0.27055544 -0.3287871 0.043627772 -0.40891048 0.44259953 -1.199062
0.09828561 -0.78605795 0.07178827 -0.13608852 0.24712378 0.3764541 0.105579115 -0.8734081
-0.08725213 0.4732056 -0.39890882 0.22037253 -0.32517925 -0.18860598 -0.17415635 0.6415881
0.4480465 -0.67876565 -0.21142168 -0.07766259 0.37096447 -0.9010988 -0.012396051 0.2963528
-0.46011418 -0.05987042 -0.065584846 0.1418186 -0.66346735 -0.30832803 -0.10257209 -0.12036018
-0.30010155 0.21994479 0.1078143 -0.22390565 0.083707176 -0.03429894 0.29282266 -0.08282053
-0.03150987 0.5886074 -0.4344757 0.5623205 0.067190945 0.24496059 0.34763256 -0.23169519
0.54663384 -0.003910172 0.4120376 -0.52311134 -0.655814 0.30145505 -0.5058129 -0.099147685
-0.28376424 0.121006645 0.5701188 -0.25349542 -0.056564886 -0.09956076 0.41338345 -0.17237133
-0.0337304 -0.40620238 -0.16669048 -0.26076502 0.37904495 -0.27181113 0.091867276 -1.1680475
-0.0388466 0.31628567 -0.073523745 0.22110371 -0.4506832 0.14008097 0.17370792 0.022462524
-0.01574136 0.7343346 0.35107833 -0.32035494 -0.75759405 0.38483092 0.0030675125 0.4793351
0.188968 -0.16405606 -0.13161393 0.414599 0.24106002 0.062163703 0.01871537 0.49610436
-0.3191925 -0.025834195 -0.107130736 -0.038386524 0.66346383 0.09434091 0.050662484 -1.2591109
-0.08733323 -0.43687955 0.2656249 0.55227077 -0.49966118 -0.06215366 0.49376568 -0.1354772
-0.6312699 -0.2664812 0.3700327 0.63040465 0.22510211 0.08184118 0.29606783 -0.08675606
-0.75492257 0.5157544 0.52214175 0.13053885 -0.44127324 0.23954932 0.4679272 -0.1208753
0.3607217 -0.19584425 -0.8187831 0.61449695 -0.046483096 -1.2478102 0.18094501 -0.47352907
0.26679492 0.23342352 0.11662815 -0.30905366 0.2719684 0.28293517 -0.15891518 -0.560333
-0.34039295 -0.2698506 -0.5507992 0.13330589 0.19902433 0.06892307 -0.571495 0.6412472
0.2622237 -0.064224616 -0.1953714 -0.012619093 0.7907936 0.11596816 -0.013342461 -0.5173225
0.16052783 -0.2216018 -0.05014967 0.031859048 0.3875966 -0.70759535 -0.14316177 0.116909094
-0.5277057 -0.08474223 -0.23491144 0.1373896 0.061269224 0.05244456 -0.16018838 0.70870984
0.765595 0.2762719 0.39562425 -0.47386387 -0.38861442 0.8361154 0.13475391 -0.22322899
-0.02063077 -0.028743798 -0.09288211 0.7391692 0.70591116 0.06295576 0.33749405 -0.41556558
-0.1862583 0.13076338 -0.050644282 0.26989475 0.58787256 0.22167236 0.09597718 -0.9740294
-0.0030318773 -0.6714141 0.5488419 0.48604384 -0.25800675 0.30427784 0.1836911 -0.35154557
0.5593641 -0.80584306 -0.3120223 -0.26229194 -0.28371912 0.3977207 -0.61796385 -0.3721312
0.13090758 0.42559814 0.6536381 -0.5810819 0.09159479 0.01634557 0.53660953 -0.20474361
-0.42543057 0.021587681 0.10627168 -0.21621911 -0.55578417 0.045019124 1.2431198 -0.063283905
-0.16021127 0.30285123 -0.5269945 0.098075464 -0.4976697 -0.08608998 0.3944211 0.122456186

network_body._body_endoder.seq_layers.4.bias f4 [16]
00000000: acc1 02bf 37a4 523e ee5d 85bd 7a80 ecbe
00000010: 193f 38be 66d7 01be 0284 e0bd 47ba 4bbe
00000020: 5ae6 f6be 1b73 4bbe 556d f2be 4d00 373e
00000030: a378 efbd f612 9ebe c32c 4ebe 000c a6be
-0.5107677 0.20570455 -0.06512056 -0.4619177 -0.1799282 -0.12679824 -0.109626785 -0.19895278
-0.4822262 -0.19868128 -0.4734904 0.17871208 -0.116929315 -0.3087384 -0.20134263 -0.3243103

action_model._discrete_distribution.branches.0.weight f4 [10, 16]
00000000: c40b c5bc 8136 a03c 1624 84bc e429 863c
00000010: 5807 b83c 3034 fc3c 2ca9 2abd 0efb b43c
00000020: f268 c1bc 2854 413c 121e 6abc 8fc7 773c
00000030: cace 1dbd 7f96 a13b 8844 963c dbbe 8cbc
00000040: ebba 2ebe e257 fabd 93f1 3f3e 5afe 7abe
00000050: bb9e 7bbe 6ded 40bf 9057 c13e 0205 02bf
00000060: df6d b83d 22ea 81bd f77e 1a3f a6f8 cc3e
00000070: 98c3 95be 1ce8 7cbe 0b49 4abc 1b74 5cbf
00000080: 2cd5 5dbc a33f fabe a471 86bc de92 363e
00000090: 043e e3be fc62 afbe b590 6a3e 4339 84be
000000a0: f924 313e 8226 9c3c 58cf d93e 2712 80bd
000000b0: 1ab7 1a3d 568b debd 18c1 0fbf fdc6 633d
000000c0: c944 2fbf bf15 ac3e 49f4 af3e 451e babe
000000d0: 35eb c43d 5710 7d3e 8a56 fd3d 7a6e d13d
000000e0: 38af 7abe a335 f1bd 9517 1abf f5f8 633e
000000f0: 7115 523e 97b8 4cbe ef9b 01be c1a0 b8be
00000100: 29f6 bf3e 6696 b5be b6f2 28bc 988f 8fbe
00000110: ec13 c83e d554 0d3e 53ba cabe 7f0d 063f
00000120: b9b2 303e 6653 093f 7ce9 7e3e f51a d1be
00000130: 125d fcba 9018 1b3f 987b 1d3f 8b54 1dbf
00000140: d3f0 c33e 01f7 123e 2884 ca3d dfcd 60bc
00000150: 32f9 aa39 9361 67be a72c 273e 6ec9 b5be
00000160: 413d c1be 103d 803e 42a7 b43e 00fc 903e
00000170: 8f11 bf3e d3e3 b4be 1ba6 c43d af14 c2be
00000180: 29ee 8dbd fbf9 863e 3e50 8d3e 1e51 323c
00000190: 176c e7be fe8e 023f 4b8b 01bf 69f8 ac3e
000001a0: 2402 38be 8d2f f83e cc0d 32bf b16e 943d
000001b0: 03d4 fbbe 305e 653e 0bc6 0fbe 2fab a63d
000001c0: 9f64 503f abc6 65be 3b66 01be f177 0f3f
000001d0: d43b 1d3f c639 6f3e 5a40 30be 0ec1 6f3d
000001e0: 32d1 80bc 6fd5 95bd 357b dabd a7e3 08bf
000001f0: 45e6 0b3f 77f8 f73d 7a33 443f 7d29 983e
00000200: 0cba 6d3e 531b 01bf e42f 35bf 005a ad3e
00000210: a19d 583d 80d3 dfbc 323f 133e 2e1c 803e
00000220: 2934 8f3e 0853 5bbe fd38 853e 02ed 06bf
00000230: dd47 9a3d 7409 8b3e a4e5 86be 7ca1 c23e
00000240: 0c12 a3be ba7e 043f 3311 da3d 7190 5fbd
00000250: 3012 5b3c e80d 223b 47a7 f43d 1c2a 58bc
00000260: 2edd f3b9 8fb9 0bbf 792d ccbe 6b74 aa3e
00000270: 7dd4 d3be 151a 14be 0841 12be d606 f23e
-0.024053462 0.01955724 -0.016130488 0.016377397 0.02246444 0.030786604 -0.04166524 0.022092368
-0.023609612 0.01179985 -0.014289396 0.015123262 -0.038527288 0.0049312706 0.018343225 -0.01718085
-0.17063491 -0.122237936 0.18744497 -0.2451109 -0.2457227 -0.75362283 0.37762117 -0.5078889
0.09005331 -0.063434854 0.6034998 0.40033454 -0.2925079 -0.24697918 -0.012346516 -0.8611466
-0.013539594 -0.48876676 -0.01641161 0.17829463 -0.44383252 -0.34255207 0.22906764 -0.25824937
0.1729926 0.01906133 0.42541003 -0.06253462 0.037772276 -0.1086642 -0.5615401 0.055609692
-0.6846433 0.3361034 0.34366062 -0.3635122 0.09615175 0.24713264 0.12370022 0.1022615
-0.24480903 -0.117778085 -0.60192233 0.22262938 0.20515992 -0.1999229 -0.1265714 -0.36060145
0.37492493 -0.35466307 -0.010311773 -0.2803924 0.390777 0.13801892 -0.3959528 0.52364343
0.17255677 0.5364288 0.24893755 -0.4084088 -0.0019253811 0.60584354 0.61516714 -0.6145713
0.38269672 0.14352037 0.09888488 -0.0137209585 0.00032610592 -0.22595815 0.16325627 -0.3550524
-0.37742046 0.25046587 0.35283858 0.2831726 0.37318084 -0.35330066 0.096019946 -0.37906405
-0.06930191 0.26362595 0.27600282 0.010883598 -0.45199654 0.5099944 -0.5060317 0.33783272
-0.17969567 0.48473778 -0.695523 0.07247675 -0.4918519 0.22399211 -0.14040391 0.081381194
0.81403536 -0.22439067 -0.12636654 0.5604239 0.61419415 0.23361883 -0.17212048 0.05853372
-0.015724752 -0.073161 -0.10668031 -0.5347237 0.5464824 0.12107938 0.76641047 0.29719153
0.23215503 -0.5043232 -0.707762 0.33857727 0.0528847 -0.02732253 0.14379576 0.250215
0.27969483 -0.21418393 0.2602004 -0.52705395 0.07533238 0.2715565 -0.26347077 0.38013828
-0.31849706 0.5175587 0.10647812 -0.05458111 0.013371035 0.0024727527 0.11945968 -0.013193633
-0.00046513363 -0.54580015 -0.39878443 0.33291945 -0.41373053 -0.14463075 -0.1428262 0.4727084

action_model._discrete_distribution.branches.0.bias f4 [10]
00000000: 0000 0000 2a35 383e 619b 94be 7de8 9d3e
00000010: 2a38 d3be bb65 073f 0b50 1a3d e18d a2bd
00000020: e8e1 20bf 5ff3 953e
0.0 0.1798903 -0.29024795 0.30841437 -0.41253787 0.52889603 0.03767399 -0.079372175
-0.62844706 0.2928724

exp_avg f4 [16, 9]
00000000: d0b3 513a 37eb 77bb 6f43 81bb 7762 393b
00000010: 04d7 743b 1129 173b 5b17 153c 4954 90ba
00000020: 231f e9ba c591 1eba 928e 4939 0851 4e3a
00000030: 6995 deba 64f9 5f3b 803d 00ba 9380 133a
00000040: 7429 98ba bc53 43b8 401f 213a c386 483b
00000050: 0b4e 4d3b dcf5 91bb cf59 eeba 8dd7 82ba
00000060: caa3 90bb 4c03 1538 da11 5139 17ea 1dbb
00000070: 634f 61ba 0f5a 61bb b5cd 7b3b 4a23 a93a
00000080: f648 b3b9 488f 15bb c72b a039 0af4 fe3a
00000090: 6693 82ba 1a40 0f3a 1033 1ab9 e241 e738
000000a0: fab3 2a3b 6c41 ac3a 967a 3db9 b7ad 3abb
000000b0: fe2a 60ba 006a 54bb 91fd c93a d188 b03a
000000c0: 25b9 93ba 4459 55bb af09 ee3a db16 4abb
000000d0: 88ce 833a 7494 7d3a 271d 8a3a 8adb 91ba
000000e0: 6512 4139 f682 603b 96cf 4fbb eaf6 acba
000000f0: 762d 3c3b a10f b73b 4b0a 07bb f828 a13b
00000100: 04b5 d0bb 15fa b3ba 8a20 18bb f0ee bfba
00000110: 9682 803b ec22 f63a 3183 41bb 6649 8dba
00000120: b87f 9fbb 4334 6839 f817 053a fdcb 043c
00000130: 3dfe 0c3c 07b5 8bbb ee5c 29ba 061a cfba
00000140: 4cc2 bc3a 1143 01b9 f34e 3c3a b8b6 333a
00000150: 147e 873a ca20 a13b 8d29 d03a f02e 7fb8
00000160: a687 3eba c7dd deba 45cf fa3a ccbc 03bb
00000170: e5b5 c1ba 07f4 173b 673a dbba 2539 80ba
00000180: fc4e f13b 0380 0b3a ba5f 153a a94d 2a3a
00000190: 85cd f538 9144 85b8 fa0f 14ba 5985 a9b9
000001a0: c52d 9e3a 13d4 8e39 7c60 7f3b f847 04ba
000001b0: c3b5 12bb 90ed 9839 86b3 6e3a d058 9939
000001c0: 5e84 26ba 5983 d93a d962 13ba 483f f439
000001d0: 0508 e83a e084 453a 2709 d8b9 b4c6 f13a
000001e0: a8a2 a7ba effc ebba f6e7 d63a 9aad 213a
000001f0: 4af4 8e3a 7fde c8b9 76bf 07ba 8367 3bb9
00000200: 9b81 14b9 da61 90ba ab72 c93a 761c 1239
00000210: 4a41 28bb f82f 4539 d64f d8b9 5cda c3b8
00000220: f808 353a 68d6 8e3a dc0c b1ba 48a2 72ba
00000230: bec4 0d3b 2255 443a deba 6f3a 1926 beba
0.00079995114 -0.0037829408 -0.0039448063 0.002828745 0.0037359605 0.002306525 0.009099807 -0.0011011447
-0.0017785769 -0.0006048943 0.00019221965 0.0007870351 -0.0016981784 0.0034175748 -0.0004891977 0.0005626764
-0.0011609034 -4.6569607e-05 0.0006146319 0.0030597902 0.0031327035 -0.0044543575 -0.0018184724 -0.0009982452
-0.0044140564 3.552744e-05 0.00019938443 -0.0024095827 -0.00085948984 -0.0034385954 0.0038422171 0.0012904194
-0.000341959 -0.0022820998 0.00030550195 0.0019451391 -0.0009962141 0.0005464569 -0.00014705607 0.0001102721
0.0026047216 0.0013142056 -0.00018070111 -0.002848489 -0.0008551328 -0.0032411814 0.0015410652 0.0013468509
-0.0011270387 -0.0032554427 0.0018160845 -0.0030836377 0.0010056058 0.00096733053 0.0010537253 -0.001112805
0.00018412767 0.0034257746 -0.0031709424 -0.0013196145 0.002871362 0.00558658 -0.00206055 0.004918214
-0.006369235 -0.0013731146 -0.0023212754 -0.0014643352 0.003921817 0.0018778718 -0.002952766 -0.0010779321
-0.00486752 0.00022144713 0.0005077119 0.008105275 0.008605537 -0.0042635235 -0.0006460686 -0.0015800602
0.0014401167 -0.00012327383 0.0007183395 0.00068555353 0.0010337257 0.004917239 0.0015881524 -6.084045e-05
-0.0007268138 -0.0017003351 0.0019135257 -0.0020101545 -0.001477894 0.0023186223 -0.0016725779 -0.0009782655
0.007364152 0.00053215044 0.00056981633 0.00064965576 0.000117207914 -6.354706e-05 -0.00056481326 -0.00032333544
0.0012068084 0.00027242358 0.0038967421 -0.00050461246 -0.002238617 0.00029168697 0.00091057306 0.00029248605
-0.00063521217 0.0016594931 -0.00056223344 0.00046586455 0.0017702585 0.00075347535 -0.0004120555 0.0018446059
-0.0012789564 -0.0018004457 0.0016396034 0.0006167531 0.0010906544 -0.00038312745 -0.0005178371 -0.00017872271
-0.00014162662 -0.001101549 0.0015369257 0.00013934248 -0.002567368 0.00018805254 -0.00041258213 -9.338997e-05
0.00069059385 0.0010897638 -0.0013507861 -0.0009255749 0.002163216 0.00074894924 0.0009144972 -0.0014507204

exp_avg_sq f4 [16, 9]
00000000: e451 f739 9a7b 1a39 58d7 8939 ff47 bb39
00000010: c747 203a 0ff6 1d39 0eac 9c39 91c9 c738
00000020: 25eb 9c39 9379 1039 ae89 1638 6d84 a538
00000030: 677c 6138 a837 e438 acd9 a037 db13 0139
00000040: 6ba3 fe37 a737 7238 39d9 0538 88c2 5937
00000050: 88c6 ce37 f794 6e38 0dde 5638 e0ce 6537
00000060: dd60 0d38 655d 0f37 c54b 7d37 51e6 dd39
00000070: 5c94 8439 047d 9939 ce2e de38 a5e5 023a
00000080: 17a1 9739 fdfe a139 cc70 8139 1b65 073a
00000090: 206a 8f39 2e91 c538 c56f 0839 c65a 0c39
000000a0: 3fd2 e539 a50e a938 a2fe e738 4bda 8a38
000000b0: be83 8939 02dd 9138 c75c 9037 5314 2938
000000c0: 3dbf d637 e323 bb38 01fb b337 9e75 2238
000000d0: a087 3237 deec c837 846a 2239 6295 b938
000000e0: dfa9 0b38 8fba f238 abaa 4239 389c a537
000000f0: dee2 f238 d478 a738 3fb4 d838 7747 9d39
00000100: 2fc9 9e38 d34b 2039 27a9 dc38 334c c239
00000110: 63b5 1139 f05e 4439 a5a8 c738 c03a 5639
00000120: 6d02 c439 9771 e738 5737 2039 3420 af39
00000130: 750d c839 c966 2c39 ff07 9939 5035 b738
00000140: 17df 5c39 34a8 3439 f7e7 b638 d322 1039
00000150: 04e5 4738 3bc0 8939 3d3a a638 355f b038
00000160: 3990 3938 c263 3f39 15b8 6238 218c b837
00000170: 2cee 1038 e8c5 a337 1e35 4938 3c97 ad37
00000180: 66b6 3438 519d be37 e8bc dd37 ae52 0338
00000190: 427f 6f37 6330 5237 c8f3 2f37 16db 0f38
000001a0: 46e6 e836 2fdd 9d37 b115 6837 858d e937
000001b0: e127 b238 7e35 3438 1103 b738 9018 3f37
000001c0: acb4 fe38 7330 1f38 af80 b538 8dbd 1438
000001d0: b0e8 4638 5704 8f38 b5c1 0738 d3da 2438
000001e0: e5cf 8637 1722 c538 6330 9137 35a1 4038
000001f0: 55bd e237 70ef 1238 024c f938 53de 9c37
00000200: 405b 4238 e959 3938 63c8 7838 b247 8e37
00000210: 5ad4 3638 400c f837 acc0 0438 42c4 1539
00000220: 77fc 8f37 de40 8e38 afdb fd37 fa5f 1b39
00000230: efe4 0e38 125e a238 af34 6637 e4bb 5238
0.00047172525 0.0001473263 0.0002629112 0.0003572106 0.0006114211 0.00015064351 0.0002988283 9.526604e-05
0.00029929835 0.000137782 3.589101e-05 7.892479e-05 5.376004e-05 0.00010882254 1.9174848e-05 0.00012309795
3.0355257e-05 5.7749126e-05 3.1911975e-05 1.2979501e-05 2.4649562e-05 5.6882356e-05 5.1228377e-05 1.36976305e-05
3.370723e-05 8.545209e-06 1.5097617e-05 0.00042324004 0.00025287538 0.00029275578 0.00010594503 0.0004993326
0.00028920986 0.00030898294 0.00024688838 0.0005164907 0.00027354155 9.420734e-05 0.00013011608 0.00013385256
0.0004383493 8.061276e-05 0.000110623674 6.621013e-05 0.00026228832 6.955305e-05 1.720934e-05 4.031167e-05
2.559984e-05 8.923539e-05 2.1455346e-05 3.873335e-05 1.0641204e-05 2.3952158e-05 0.00015489204 8.849312e-05
3.3298387e-05 0.000115742085 0.0001856486 1.9742278e-05 0.000115817165 7.9856865e-05 0.00010333256 0.0002999862
7.5715005e-05 0.00015287036 0.000105219246 0.00037059336 0.0001389585 0.00018727384 9.520472e-05 0.00020430516
0.0003738584 0.00011036096 0.00015279405 0.00033402594 0.00038157 0.00016441489 0.00029188392 8.73605e-05
0.00021063942 0.00017228798 8.721643e-05 0.00013745883 4.7658585e-05 0.000262739 7.9263446e-05 8.410068e-05
4.4241755e-05 0.00018252342 5.405404e-05 2.1999762e-05 3.455409e-05 1.9523271e-05 4.7971604e-05 2.0693631e-05
4.3085216e-05 2.2723021e-05 2.643322e-05 3.1309835e-05 1.427514e-05 1.2528241e-05 1.0487573e-05 3.4297896e-05
6.940946e-06 1.8818855e-05 1.3833328e-05 2.7841665e-05 8.4951294e-05 4.2965163e-05 8.726691e-05 1.1390206e-05
0.000121453166 3.7953676e-05 8.654722e-05 3.5462483e-05 4.7423586e-05 6.81958e-05 3.2366912e-05 3.9304443e-05
1.6070853e-05 9.400042e-05 1.7307879e-05 4.5926503e-05 2.7029464e-05 3.5032106e-05 0.00011887403 1.8700177e-05
4.6338188e-05 4.4191172e-05 5.9314432e-05 1.6961105e-05 4.358995e-05 2.9569608e-05 3.1650692e-05 0.00014282859
1.7164492e-05 6.78317e-05 3.0262248e-05 0.00014817706 3.406865e-05 7.742284e-05 1.3721335e-05 5.024289e-05

exp_avg f4 [16]
00000000: dae2 813c ecf4 a2ba 268e b5bb dc9a 693a
00000010: 479d e7ba 34b5 56bb 58b5 fa3b 7fc6 f83a
00000020: c13d c5bb 80e2 bf3b e556 033c 8235 723b
00000030: 50c7 103b ad79 673b c87d 8abb fcbe b83b
0.015855242 -0.0012432612 -0.005540627 0.00089113205 -0.0017670774 -0.0032761814 0.0076510124 0.0018980055
-0.0060193245 0.0058558583 0.008016323 0.0036958163 0.0022091456 0.0035320327 -0.00422642 0.0056380015

exp_avg_sq f4 [16]
00000000: f827 b83a cb50 a139 2595 2139 c259 563a
00000010: 0497 243a ae02 4639 8cf7 9839 5f1b 2c3a
00000020: 4b15 8f3a 09d2 c739 b7c6 f938 2e9b 6a38
00000030: 012d 1d39 3b88 1e39 17a7 5e39 aa1f a039
0.0014049998 0.00030768508 0.00015409717 0.0008176827 0.00062786066 0.0001888375 0.00029176136 0.0006565358
0.001091638 0.00038112726 0.00011910259 5.593447e-05 0.00014989452 0.00015118804 0.00021233816 0.0003054117

exp_avg f4 [16, 16]
00000000: 1476 18ba b9f5 0abb 4372 82b9 511c 47bb
00000010: 38a8 ceb9 3530 7eba 5dc6 b53a fe1a c9b7
00000020: 8873 c7ba a902 ddb9 b9d3 02bb a64f 8239
00000030: 9323 68ba 4afd 4f3a 704f 3bba c34a b0ba
00000040: 0e3e c039 929a cc37 c4b6 8bba a49e 8f38
00000050: 3564 f439 4d49 0338 96d9 e63a 3fbd f83a
00000060: 2ed4 7aba 4876 8c37 0c9d fd3a ca7d 143b
00000070: 83ef 9939 348f 083b c2b8 dfb9 2b64 cf39
00000080: d43b 6fba 5920 9b39 f1e6 a0ba aab5 ceba
00000090: 543c 03ba af84 55ba 6b42 a23a 3f80 a339
000000a0: d708 2eba 062d 5aba 47eb 883a 6026 a63a
000000b0: 23ca 50ba 41d8 ca3a 9445 84ba 14bb ab39
000000c0: c9b4 833b 662d 5d3b 072c 3a38 b6d1 563b
000000d0: a818 9c3b a50e 8bb9 4326 cfba 4d4f 9739
000000e0: bf03 573b cbdf 043b 3a1e f139 3c79 a8ba
000000f0: b9f5 c2b9 5f28 76ba fb13 36ba 4647 3fb9
00000100: a8ff 3b39 2198 6339 85cf 713a d2ef a3ba
00000110: fbd4 3e3b 46cd c537 170f 1638 e986 72ba
00000120: 1ed6 813a a07c 37b9 3417 beb9 075a 21ba
00000130: f23b 1bba 8024 51ba 387d 3a39 6aae 9439
00000140: 2b7e 97ba b956 8db8 e042 03ba 2c9f c4b8
00000150: 411d 93b9 77f0 8fb8 547e 873a b8e0 e43a
00000160: d498 6fba 9a69 94ba eebc 873a d4d6 2a3a
00000170: 8618 2cb8 ed91 2d3a a365 5e39 873d 0dba
00000180: 62d6 10ba 68ce ee3a b2a3 86b9 3bc9 20ba
00000190: 8433 5aba 21fe 18ba 5737 51b9 09fe d1ba
000001a0: 6eac c03a 6abf a6b9 25fe 043a 742a 8aba
000001b0: 3cc5 a3ba 8577 32b8 f226 dbb9 9125 643a
000001c0: 9ba8 593a 41ba 89bb 4011 2abb f368 fe3a
000001d0: 746b 51bc 5107 f53a f288 a3ba e645 af3a
000001e0: f23f 5fbb 4096 023b 28ea 3f3a 8992 663b
000001f0: c58e b23a 488a 193b d9e4 263b 4573 013b
00000200: de0d aa3a 2b6a b2b7 e0b3 da39 077b ed3a
00000210: 3216 de3a 3b8d 0739 603d 37ba 0208 ab3a
00000220: 7f28 a239 18f8 263a e577 b8b9 bad6 2439
00000230: 8b28 cc39 b706 b1b9 fbe0 5139 72b1 4938
00000240: 79e4 37ba 13df 9f3a f99b 4bb9 9030 ad39
00000250: 4d20 90b9 85cb ccb9 f33b 7db9 5316 10ba
00000260: 67c3 293a eb63 48ba 1d0a b339 dbbd 01ba
00000270: 4804 34ba 58e6 ea37 6ec1 63ba e8b3 67b8
00000280: 2293 22ba 7943 2d3a 7e69 c739 d78d 4fba
00000290: 2b33 2cba 5b2e 9339 0174 493a 208e 4fba
000002a0: e463 a5b8 da0d acb9 85a6 73b8 b4ce b239
000002b0: a2f4 b13a b4c8 9739 ee33 9939 6ab8 3639
000002c0: 4790 5fba ddec 0938 3a30 c8b8 0efb 84ba
000002d0: 606c 573a c671 40ba 4be7 b53a 1eef 73b9
000002e0: fb1b 1a3a f98f 5fba 77f8 3ab9 b9a0 29b8
000002f0: 4c32 7eba b2d5 e538 ffa4 3dba 103c 63b9
00000300: 42c4 34ba 8425 80bb f516 443b 2ec1 14ba
00000310: c5b1 743b 7644 02ba a436 0bba 1568 8bba
00000320: e68b 87ba 0bd5 4e39 9e30 aebb 3c9e 693a
00000330: f17c 6b3a f03c 73ba a2df cd39 0f8a 8cba
00000340: fbc3 df3a d19c 2c3a d2c8 ef38 27f3 a23a
00000350: 61bb 0d3b 6d59 1db9 9a61 cbb9 5967 c239
00000360: 113b 5c3a 8dae 5e3a 04cb 98b9 aa75 ecb7
00000370: 665a 92b8 28db 95b9 9f4f a2b9 692f cfb8
00000380: f525 deb8 0d5e 9939 b217 ea38 04e0 4238
00000390: 432b 4fb9 1eaa 9d39 eecf ab38 84fe 0939
000003a0: d9ca 33b9 e394 5bb9 99f9 ca39 48d2 7f39
000003b0: f1e6 313a fb5a 8839 27a9 b038 312f 2639
000003c0: cbe6 2dbb 8ddb 913a 3221 a6ba 7909 e7bb
000003d0: 618f 39bb e031 02ba d940 3e3a ecf2 c0bb
000003e0: c5c9 6eba c73f 9b39 4bc8 c6ba 0724 943a
000003f0: 71d6 88b9 941b 1139 3183 80ba 0801 6d3a
-0.0005815935 -0.002120359 -0.00024880664 -0.0030381868 -0.00039416715 -0.00096965145 0.0013868321 -2.3973636e-05
-0.0015216926 -0.00042154387 -0.0019962622 0.00024854875 -0.00088553986 0.00079341664 -0.0007145321 -0.0013450015
0.00036667328 2.4390672e-05 -0.0010659327 6.8483205e-05 0.00046613967 3.13011e-05 0.0017612453 0.0018977298
-0.00095683604 1.674438e-05 0.0019349172 0.0022657984 0.00029360884 0.002083731 -0.0004267153 0.00039556748
-0.00091260416 0.00029588005 -0.0012275857 -0.0015770693 -0.0005006243 -0.00081450766 0.0012379413 0.00031185334
-0.00066388905 -0.0008322749 0.0010446095 0.0012676232 -0.0007964691 0.0015475826 -0.0010091537 0.00032755046
0.004019354 0.0033748983 4.438686e-05 0.0032778806 0.0047636814 -0.00026523057 -0.001580425 0.00028860048
0.003280863 0.0020274993 0.00045989623 -0.0012853513 -0.0003718564 -0.0009390171 -0.00069457263 -0.00018241731
0.00017928949 0.0002170508 0.0009224343 -0.0012507385 0.0029118645 2.3579818e-05 3.577684e-05 -0.00092516706
0.0009905731 -0.00017498666 -0.00036256912 -0.0006155078 -0.00059217133 -0.0007978156 0.0001778499 0.00028358708
-0.0011557987 -6.739557e-05 -0.00050072186 -9.3756564e-05 -0.0002805982 -6.8635614e-05 0.0010337331 0.0017461991
-0.00091398996 -0.0011322976 0.0010355988 0.0006516997 -4.1030835e-05 0.0006621171 0.00021209432 -0.00053878914
-0.00055251096 0.0018219473 -0.00025680434 -0.00061335013 -0.00083237165 -0.0005836208 -0.00019952409 -0.0016021143
0.0014699826 -0.00031804602 0.0005073271 -0.0010541216 -0.0012494694 -4.254982e-05 -0.00041799952 0.00087031076
0.0008303017 -0.0042031114 -0.0025950223 0.0019409939 -0.0127819665 0.0018694197 -0.0012476726 0.0013372272
-0.0034065214 0.0019925982 0.0007320964 0.0035182557 0.0013622871 0.002342837 0.0025465994 0.0019752544
0.0012974103 -2.1268692e-05 0.00041714218 0.001811833 0.001694387 0.00012927216 -0.00069900416 0.0013048651
0.0003092922 0.00063693663 -0.00035184543 0.0001572025 0.0003894012 -0.00033765074 0.00020015605 4.8087393e-05
-0.0007014941 0.0012197219 -0.00019417693 0.00033033313 -0.00027489886 -0.00039061546 -0.00024150293 -0.00054964906
0.00064759556 -0.00076442835 0.00034149076 -0.000494925 -0.0006867093 2.8002236e-05 -0.0008688186 -5.5242243e-05
-0.0006201734 0.00066094805 0.00038034836 -0.0007917559 -0.0006568904 0.00028072562 0.00076848274 -0.00079176016
-7.886419e-05 -0.00032816717 -5.8090798e-05 0.00034104811 0.0013576935 0.000289505 0.00029221125 0.00017425572
-0.0008528274 3.288394e-05 -9.545726e-05 -0.0010145621 0.0008217748 -0.00073411723 0.0013878135 -0.00023263364
0.0005878803 -0.00085282285 -0.00017830903 -4.0442425e-05 -0.0009696826 0.00010959375 -0.0007234364 -0.00021670782
-0.00068957 -0.003910722 0.002992091 -0.0005674538 0.0037337404 -0.0004969308 -0.0005310571 -0.0010635877
-0.0010341376 0.00019725056 -0.005315854 0.00089118234 0.00089831563 -0.0009278795 0.00039267266 -0.0010722297
0.0017071957 0.0006584647 0.00011433814 0.0012432084 0.002162658 -0.00015006 -0.00038791896 0.00037079563
0.00084011356 0.0008494638 -0.00029142958 -2.8188184e-05 -6.9786605e-05 -0.0002858278 -0.0003095837 -9.87936e-05
-0.00010592855 0.00029252507 0.00011162403 4.6461835e-05 -0.00019757175 0.0003007212 8.192645e-05 0.00013160153
-0.00017146337 -0.00020940932 0.00038714407 0.00024397031 0.0006786427 0.00026007727 8.423841e-05 0.00015848574
-0.0026535268 0.0011128053 -0.0012674688 -0.00705069 -0.002831422 -0.00049665384 0.0007257588 -0.0058883335
-0.00091090455 0.00029611422 -0.0015165893 0.0011302241 -0.00026099713 0.00013838551 -0.0009804723 0.0009040986

exp_avg_sq f4 [16, 16]
00000000: 256b a339 eb3f 5038 4693 0d38 5f94 873a
00000010: 0cce de38 eae2 8b37 bc13 d838 f0c1 ed38
00000020: 3064 bf38 c4d0 7b37 2692 2f38 29aa c137
00000030: 9659 0338 a90f 0a38 37eb 0338 ff6a f137
00000040: 9d08 3d39 47e0 6037 fb76 0237 1dec 1638
00000050: 5726 2338 419f ef36 1bd8 ab38 5fcd e637
00000060: 046f d637 bb65 f137 1a69 a738 1bb0 ad37
00000070: 866c 6137 1c49 1c37 c47b 2c37 501c 0737
00000080: 4c70 ba37 0b0b 2037 3f07 9736 b632 9937
00000090: 903e 9137 27b7 6d36 1c42 7538 b42a 9e37
000000a0: 47fe 9636 7a82 0537 32ee aa38 8b7e 8237
000000b0: 8beb 1837 8ccc 1437 27c8 ed36 7b20 7337
000000c0: be8a 9538 13c2 5837 666c 6536 3a2d 6e37
000000d0: a009 1d38 c05d 1536 7b52 6e37 1fb4 9e37
000000e0: f731 3b37 3bbe 8037 9ca6 c537 2a07 8f36
000000f0: 9f32 b836 90ed ff36 2ec4 b136 2d6d 3937
00000100: a49e 6739 400a 6837 af84 7437 025e 0039
00000110: fda9 4d39 253c 0837 6ce2 2338 7976 a738
00000120: 3779 8837 d91e 1538 7bd9 f137 4190 2537
00000130: e5c1 4f37 e937 5c37 c2ff 6037 4981 0f37
00000140: d863 d437 f40d 7537 5ab6 4937 0277 8d38
00000150: 9a34 3837 d34a 1537 5b60 0739 6151 f337
00000160: 83c5 c037 1507 1d37 3f12 0a39 71e1 c337
00000170: c9f4 ff37 7cb5 b037 6574 c337 3fa9 b437
00000180: 2a49 583a 51f7 1838 28d4 e237 303d 4239
00000190: 3a6e 4a38 a70d 9137 5553 8438 d594 bf38
000001a0: b10a 1439 d58b e838 9930 cd37 ca68 cc37
000001b0: 2251 3d38 3838 fc37 3f70 2038 eee4 1638
000001c0: b2c0 0038 4745 8438 bfea 5238 7e62 6d38
000001d0: 435a d439 473e a937 00bf 5338 f5af c937
000001e0: 98ee 8938 b4e0 d737 e5c3 f237 d318 be37
000001f0: 71a9 8138 0171 2b38 6318 4538 8967 0738
00000200: d083 7d38 09c1 8d37 5e1b a036 583a 9538
00000210: b238 9237 eab7 5b36 3d30 3537 dc52 5e37
00000220: f2a2 c037 d9bf 6537 3007 4037 9a2e 7436
00000230: 0bd0 ff36 41db 9036 69c1 1837 b1a5 c236
00000240: 0122 c037 f9ba a136 ebc3 a435 9380 9c36
00000250: 7f68 1336 40e2 7135 802b 4336 1acc 5036
00000260: 2768 5736 e58c e036 fcbf b936 e77b d935
00000270: c856 6536 1cf3 0836 af35 0836 1b63 7a36
00000280: 52ef cf37 5088 1737 c6c9 1037 3c9c da36
00000290: f32d 5337 6cd1 9a36 cda2 0837 0242 c036
000002a0: ad3c a636 069e 2238 faab b537 e2cf e736
000002b0: 49b1 8a38 a789 1838 13f1 cc36 ac74 7c37
000002c0: 6c98 9037 e924 3836 ffcb 8736 f988 4a37
000002d0: 10ed e337 7594 2036 5f55 fb36 5c9f 1337
000002e0: 085f c736 3316 2636 2182 2c36 446f 0236
000002f0: 5f2b ce36 bd70 f636 84bf 8236 cd46 b436
00000300: 0711 8c38 6d9b 8638 f81e ba37 17ac 9b38
00000310: 7543 e638 1fe4 5137 c53c 5f38 26f1 7a37
00000320: 0045 0f39 735e 9d37 5bc4 2638 ef3d 8f37
00000330: 7e93 cc37 555a 4437 06b3 5438 043c 9237
00000340: ebda 2437 0ea7 b935 6dc0 9035 999b 1636
00000350: 571e 0d37 f847 0735 71d0 dc35 125f f835
00000360: c44f 0c36 eea9 9936 6bda 7035 2539 5035
00000370: d6a6 3936 6895 c835 2707 a935 b2ef b535
00000380: b711 aa36 5b5c 1536 1df6 2436 e1ec 5d36
00000390: 2ccc 4336 fdcc 1636 7e6d cf35 d31a e335
000003a0: 976e c735 4f9d fd36 f4fd 7a36 96ac ba35
000003b0: 39ab 9337 950c 3737 6799 bd35 ad72 0437
000003c0: 0358 bb39 5809 6a38 017d e037 29ec a439
000003d0: 9830 8a39 018e 9137 db62 5a38 7e36 9439
000003e0: aac6 d737 f476 4238 3acd db38 b2e0 bf37
000003f0: d429 2438 3e19 7838 e346 4238 d5c6 b638
0.00031169612 4.9650593e-05 3.375418e-05 0.0010343901 0.00010624164 1.6675756e-05 0.000103033584 0.00011337164
9.126251e-05 1.5009373e-05 4.1859363e-05 2.308663e-05 3.1316267e-05 3.291635e-05 3.1451895e-05 2.8779263e-05
0.00018027653 1.3403659e-05 7.776306e-06 3.5982684e-05 3.8897935e-05 7.1412946e-06 8.194168e-05 2.751377e-05
2.5562484e-05 2.877681e-05 7.982757e-05 2.0705213e-05 1.3436313e-05 9.315347e-06 1.0280815e-05 8.053219e-06
2.222522e-05 9.539314e-06 4.5009942e-06 1.8262635e-05 1.731448e-05 3.542236e-06 5.847412e-05 1.8854953e-05
4.49995e-06 7.957797e-06 8.150599e-05 1.5556134e-05 9.114748e-06 8.869112e-06 7.086451e-06 1.4491491e-05
7.1307164e-05 1.291979e-05 3.4186755e-06 1.4196436e-05 3.744068e-05 2.22573e-06 1.4205109e-05 1.8918943e-05
1.1157702e-05 1.5347372e-05 2.3561814e-05 4.262566e-06 5.4895204e-06 7.627248e-06 5.2978494e-06 1.1052279e-05
0.00022088975 1.3830664e-05 1.4574426e-05 0.00012242052 0.00019613649 8.120235e-06 3.90731e-05 7.985248e-05
1.6268908e-05 3.5553097e-05 2.8830711e-05 9.868353e-06 1.2383306e-05 1.3126039e-05 1.3410989e-05 8.553566e-06
2.5318863e-05 1.4606387e-05 1.2022991e-05 6.745571e-05 1.0979502e-05 8.898513e-06 0.00012910498 2.9005752e-05
2.2980157e-05 9.359578e-06 0.00013167503 2.335079e-05 3.0512356e-05 2.1065345e-05 2.3300012e-05 2.1536483e-05
0.00082506484 3.6469955e-05 2.7040092e-05 0.00018524076 4.826321e-05 1.7291704e-05 6.309772e-05 9.135312e-05
0.00014118363 0.00011088668 2.4460534e-05 2.4367491e-05 4.5136672e-05 3.006692e-05 3.825151e-05 3.5975994e-05
3.069704e-05 6.3071544e-05 5.0286526e-05 5.659693e-05 0.0004050304 2.017537e-05 5.0484203e-05 2.4043004e-05
6.5771106e-05 2.5734633e-05 2.8939869e-05 2.2661325e-05 6.18276e-05 4.087482e-05 4.6991172e-05 3.2282933e-05
6.044266e-05 1.6898399e-05 4.7715575e-06 7.115741e-05 1.7430957e-05 3.2740595e-06 1.0799672e-05 1.3251523e-05
2.2964061e-05 1.3694132e-05 1.1445765e-05 3.638596e-06 7.6238116e-06 4.317059e-06 9.104938e-06 5.8009396e-06
2.2904018e-05 4.8199404e-06 1.2275972e-06 4.6641303e-06 2.1965532e-06 9.0108733e-07 2.9082585e-06 3.1113218e-06
3.2098121e-06 6.6921225e-06 5.5357796e-06 1.620382e-06 3.4174172e-06 2.0407088e-06 2.0296827e-06 3.731059e-06
2.4787765e-05 9.032039e-06 8.630048e-06 6.5150944e-06 1.2587278e-05 4.6139376e-06 8.144137e-06 5.72973e-06
4.954249e-06 3.877098e-05 2.1656964e-05 6.908537e-06 6.613375e-05 3.6367823e-05 6.1077385e-06 1.5047535e-05
1.7237115e-05 2.743962e-06 4.047062e-06 1.207203e-05 2.71709e-05 2.3928271e-06 7.4903214e-06 8.7989865e-06
5.9417252e-06 2.474885e-06 2.5705742e-06 1.9436275e-06 6.1443275e-06 7.3444958e-06 3.8965973e-06 5.3726603e-06
6.678892e-05 6.418568e-05 2.2187349e-05 7.42303e-05 0.000109798195 1.2510484e-05 5.322394e-05 1.4957308e-05
0.00013663247 1.875984e-05 3.9760354e-05 1.7075768e-05 2.4387376e-05 1.1703542e-05 5.0711467e-05 1.7432503e-05
9.826133e-06 1.3832193e-06 1.0784839e-06 2.2442312e-06 8.411319e-06 5.039615e-07 1.6451942e-06 1.8505109e-06
2.0908055e-06 4.5795377e-06 8.9724807e-07 7.7569194e-07 2.766426e-06 1.4944644e-06 1.2593563e-06 1.3555311e-06
5.068457e-06 2.2256488e-06 2.4581161e-06 3.3069448e-06 2.9176108e-06 2.247106e-06 1.5454568e-06 1.6920625e-06
1.4858841e-06 7.5583007e-06 3.7400723e-06 1.3908309e-06 1.7603497e-05 1.09105795e-05 1.4126243e-06 7.894513e-06
0.00035732993 5.579865e-05 2.676109e-05 0.0003145647 0.00026357616 1.7351473e-05 5.2067317e-05 0.0002826936
2.5722507e-05 4.6363988e-05 0.0001048096 2.2873606e-05 3.9139602e-05 5.9151316e-05 4.6319223e-05 8.7154716e-05

exp_avg f4 [16]
00000000: 73ac 093b 26ab b0ba 8206 4c3b 1f75 583b
00000010: d0ed 08ba 4d69 d93a c622 5e3b 136f 6dbc
00000020: 0bf4 feb8 f16e 883b c194 a83a abd4 393b
00000030: 2abf 64bb 5813 963a 48d5 993a 0452 92bb
0.0021007329 -0.0013478741 0.0031131809 0.0033028794 -0.0005223425 0.0016587168 0.0033895238 -0.014491814
-0.0001215712 0.004163616 0.0012861715 0.002835552 -0.0034903982 0.0011449857 0.0011736536 -0.0044653434

exp_avg_sq f4 [16]
00000000: 575a dc39 3d3d 5339 473a ea38 d49e 9338
00000010: 393e 6239 6aa3 3c39 3424 2d3a e367 383a
00000020: 1089 e038 38e4 2238 a84f ac38 c1e6 4038
00000030: c2ee e039 bbd7 6237 cfef df37 5eaf 153a
0.00042028978 0.00020145341 0.000111688445 7.03909e-05 0.0002157622 0.00017989954 0.0006604821 0.00070345233
0.00010706682 3.8836355e-05 8.216436e-05 4.5991274e-05 0.00042902498 1.3520878e-05 2.6695341e-05 0.00057100307
