Assets/onnx/Self_TTT_1/X_Behavior/X_Behavior-11214.onnx (onnx, 2542 bytes, 4 tensors)

network_body._body_endoder.seq_layers.0.weight f4 [9, 9]
-0.32696927 -1.1827465 0.39008525 0.33917946 -0.27167338 0.63065207 0.851156 -0.47344926
0.044574175 0.026713934 -0.83958507 -1.2905157 -0.23658349 1.0073109 -0.48024294 0.23221198
-0.47004807 0.60572445 -0.7954971 -0.2115521 0.08363817 -0.6863244 0.6937275 0.31735143
-0.2008552 0.850899 0.71199864 -0.51581436 0.475083 -0.07324997 0.6877088 0.25830168
0.13385051 -0.5014793 -0.4136735 -1.1177081 -1.1971296 -0.41517434 -0.45370653 -0.19663933
0.77742755 -0.07577622 -0.266886 0.46822247 0.15906039 0.10867325 0.5241457 -0.8972844
0.16135207 0.86936253 -1.1354456 0.012157004 0.4733465 -1.0249059 0.17923824 0.30747378
-0.48327988 -0.07289618 0.13168573 -0.98917013 -0.4829361 -0.7219754 0.8459856 1.2555149
-0.2608968 -0.47652188 -0.92721814 1.0210794 -0.378565 -0.565123 0.09594414 1.0133929
-0.34520742 0.4260979 0.97469306 0.12172327 0.5040015 0.5904157 -0.19403297 1.3967327
-0.6966752
00000000: 8468 a7be 3d64 97bf 41b9 c73e eea8 ad3e
00000010: c618 8bbe 6a72 213f 5ce5 593f f167 f2be
00000020: 6993 363d 2ed7 da3c 0cef 56bf 9e2f a5bf
00000030: f142 72be 90ef 803f 67e2 f5be fac8 6d3e
00000040: 24aa f0be c210 1b3f b3a5 4bbf 1da1 58be
00000050: 7d4a ab3d f5b2 2fbf 2098 313f e37b a23e
00000060: fcac 4dbe 84d4 593f 8b45 363f 690c 04bf
00000070: 143e f33e 1504 96bd af0d 303f 1e40 843e
00000080: 1c10 093e f360 00bf 03cd d3be 0f11 8fbf
00000090: 8b3b 99bf bb91 d4be 394c e8be d25b 49be
000000a0: 7e05 473f 9030 9bbd 48a5 88be dbba ef3e
000000b0: bae0 223e 1590 de3d 6a2e 063f 6eb4 65bf
000000c0: 7a39 253e 8b8e 5e3f 4856 91bf 2c2e 473c
000000d0: 795a f23e 1e30 83bf 3b8a 373e 346d 9d3e
000000e0: 7670 f7be 984a 95bd a0d8 063e 413a 7dbf
000000f0: 6743 f7be 61d3 38bf 8392 583f b6b4 a03f
00000100: 4494 85be adfa f3be 2b5e 6dbf bbb2 823f
00000110: 46d3 c1be e7ab 10bf 5c7e c43d dcb6 813f
00000120: 07bf b0be 8129 da3e 7c85 793f 0d4a f93d
00000130: 3e06 013f 7c25 173f 94b0 46be 23c8 b23f
00000140: 4e59 32bf

network_body._body_endoder.seq_layers.0.bias f4 [9]
-0.38127643 -0.6040222 -0.35328236 0.1417456 -0.45375758 -0.44485268 0.055158395 -0.5726263
-0.31639546
00000000: aa36 c3be 33a1 1abf 6de1 b4be c225 113e
00000010: ea52 e8be bbc3 e3be c5ed 613d a397 12bf
00000020: 96fe a1be

action_model._discrete_distribution.branches.0.weight f4 [10, 9]
-0.06417596 -0.008876199 0.0041775135 0.004919806 -0.03272135 -0.008168708 -0.058538254 0.07364901
0.024986837 0.2388982 0.23808132 0.09403923 -0.13398716 0.028199505 -0.44521767 -0.24587205
0.4816212 0.4770474 0.32355317 0.37394077 0.06266365 -0.33688772 0.44878983 -0.36193687
-0.058474734 -0.6490661 -0.49818438 0.053429585 0.047569223 0.047542054 -0.28652823 -0.085891426
0.27455 0.11774619 -0.4106291 -0.18248431 -0.60460824 -0.30296496 0.33279628 -0.40796164
0.47321767 -0.4519072 0.2870027 -0.29799685 0.28327787 0.19224048 0.049522057 -0.20990698
0.21786644 -0.3109791 0.14387451 0.5408307 0.48711815 0.23455438 -0.43433088 0.07348374
-0.19854099 -0.09994897 -0.12281316 0.74770206 -0.45868233 0.020885313 -0.44350865 -0.21181972
-0.68959445 0.39582387 0.28323394 -0.07010597 -0.43261513 -0.15804619 0.10469439 -0.0040760445
0.39874443 -0.18227617 -0.3184731 -0.015354336 -0.10354528 0.23288989 -0.25266957 0.13523014
0.28830057 -0.32888263 0.34846333 -0.26929626 0.5057352 -0.25653726 0.032901447 0.29879546
0.24354874 -0.12547629
00000000: b06e 83bd 7a6d 11bc 86e3 883b 5336 a13b
00000010: d306 06bd 0bd6 05bc cfc5 6fbd 4bd5 963d
00000020: 32b1 cc3c bba1 743e 97cb 733e a497 c03d
00000030: ee33 09be a602 e73c 92f3 e3be e2c5 7bbe
00000040: 0e97 f63e 8f3f f43e c3a8 a53e 2a75 bf3e
00000050: cd55 803d 8c7c acbe c8c7 e53e ca4f b9be
00000060: 3483 6fbd 3229 26bf 0612 ffbe fbd8 5a3d
00000070: f2d7 423d 75bb 423d d4b3 92be d8e7 afbd
00000080: d191 8c3e ea24 f13d fa3d d2be 2bdd 3abe
00000090: 9bc7 1abf 391e 9bbe 4664 aa3e 59e0 d0be
000000a0: 9649 f23e 6160 e7be 05f2 923e 0b93 98be
000000b0: cc09 913e b0da 443e a4d7 4a3d dbf1 56be
000000c0: 6118 5f3e a738 9fbe d753 133e e173 0a3f
000000d0: 8d67 f93e 062f 703e 9e60 debe a57e 963d
000000e0: 544e 4bbe 0cb2 ccbd 7785 fbbd 6769 3f3f
000000f0: 69d8 eabe ad17 ab3c 9113 e3be 45e7 58be
00000100: 4389 30bf 6da9 ca3e 0a04 913e b893 8fbd
00000110: bb7f ddbe dcd6 21be 036a d63d 5790 85bb
00000120: 3b28 cc3e 9ba6 3abe e80e a3be c190 7bbc
00000130: 8c0f d4bd b07a 6e3e e85d 81be c579 0a3e
00000140: 229c 933e 4e63 a8be c969 b23e 33e1 89be
00000150: dd77 013f da58 83be abc3 063d b8fb 983e
00000160: d764 793e db7c 00be

action_model._discrete_distribution.branches.0.bias f4 [10]
0.0 0.10225697 -0.19735937 0.46266186 -0.6456365 0.1175475 -0.49497917 0.6191383
-0.52061164 0.2720675
00000000: 0000 0000 1a6c d13d 9318 4abe 04e2 ec3e
00000010: 6f48 25bf bebc f03d e96d fdbe d97f 1e3f
00000020: ce46 05bf 6e4c 8b3e
