Assets/onnx/Self_TTT_1/X_Behavior/X_Behavior-0.onnx (onnx, 2542 bytes, 4 tensors)

network_body._body_endoder.seq_layers.0.weight f4 [9, 9]
000000 f6 74 a5 3e 2b 89 b4 3d c4 b0 a5 be 10 de 87 be
       0.32315797 0.08815225 -0.32361424 -0.26536608
000010 70 02 a0 be 63 79 62 3e af b4 c4 3a 88 08 17 3e
       -0.3125186 0.22116618 0.0015007461 0.14749348
000020 e2 c9 31 bf 88 de 1b bb ab 8d cb 3e d4 ef ce be
       -0.69448674 -0.0023783762 0.39756522 -0.4041735
000030 be f0 bf 3e 99 33 86 3e 29 fe 11 bf 86 fe 24 3e
       0.3748836 0.2621124 -0.5702844 0.16112718
000040 9b 3f d1 3e 46 2a 2f 3e b6 8b 54 3e 14 5e 8f be
       0.4086884 0.1710597 0.2075642 -0.28001463
000050 c7 a0 5a be ca 38 4c 3e f3 4a 28 be a2 05 9f 3d
       -0.21350394 0.19943538 -0.16434841 0.07764746
000060 0c 85 b6 3c 6e df 85 bd 8a 83 f5 bc 44 84 18 3e
       0.022280239 -0.065367565 -0.02996995 0.14894205
000070 3e 66 ed bd 13 19 b3 be 92 38 02 bf 8a 51 24 be
       -0.11591767 -0.34980068 -0.5086757 -0.1604673
000080 12 2e cf be fc 50 af 3d 64 90 78 3e 8f d8 63 be
       -0.40464836 0.085603684 0.2427383 -0.2225058
000090 cc 24 83 3d de 78 69 3e 1a b0 ac be 88 c6 cf be
       0.06403503 0.22800013 -0.33728105 -0.40581155
0000a0 90 5f 6d be b7 99 8f 3e f7 8e cd be a6 12 ce 3c
       -0.23180985 0.28046963 -0.40148136 0.025155377
0000b0 28 83 e0 bd 3c e0 86 3e 2f a0 c2 3a eb 81 3e 3d
       -0.10962516 0.26342952 0.0014848764 0.04651062
0000c0 2a ed 3d bf 04 22 47 bb 10 60 53 3e 72 09 b5 3d
       -0.7419001 -0.0030385265 0.20642114 0.08839692
0000d0 32 1f 2e bf b2 66 bb 3d da c0 04 3f 6b 26 69 3c
       -0.6801635 0.09150447 0.5185677 0.014230351
0000e0 52 b9 5e bf f3 64 21 3d 07 1d 11 be d2 23 b9 3d
       -0.87001526 0.039402913 -0.1417123 0.09040035
0000f0 08 1c df 3d 66 f9 06 3e f4 18 4a 3e 64 61 ca bd
       0.108940184 0.13181075 0.19736081 -0.09881857
000100 66 a0 3c bf d4 37 ab be a6 32 8c 3d bc a3 ce 3e
       -0.7368225 -0.3344103 0.06845598 0.40359294
000110 b3 a9 95 be ee 0b 4f be 54 9c e1 bd 1b 3d 61 be
       -0.29231033 -0.20219395 -0.11016145 -0.21995966
000120 ce 12 04 3e a2 de 00 be 6b 20 49 bf ec 4c 84 be
       0.12897798 -0.12584928 -0.7856509 -0.25839937
000130 f6 ea 16 be f1 59 92 3e d6 d7 40 bf 74 8f f3 bc
       -0.14738068 0.28584245 -0.7532934 -0.02973149
000140 2c 38 b8 3d
       0.08995089

network_body._body_endoder.seq_layers.0.bias f4 [9]
000000 00 00 00 00 00 00 00 00 00 00 00 00 00 00 00 00
       0.0 0.0 0.0 0.0
000010 00 00 00 00 00 00 00 00 00 00 00 00 00 00 00 00
       0.0 0.0 0.0 0.0
000020 00 00 00 00
       0.0

action_model._discrete_distribution.branches.0.weight f4 [10, 9]
000000 33 dd fb bc 76 51 86 3c bf 32 2b bc c5 b5 e1 3b
       -0.030745124 0.016396265 -0.0104491105 0.0068881237
000010 e3 08 e5 3c 4f e0 c1 3c 9a 59 a0 bc f5 f6 5d 3d
       0.02795834 0.023666529 -0.019573975 0.054190595
000020 02 97 43 bd 35 37 8a bc b0 d8 7a 38 9a 29 21 bc
       -0.047751434 -0.016872028 5.980645e-05 -0.009836579
000030 18 31 42 3b 90 cc 2f bc ad 04 5e bc b9 f0 a4 3c
       0.0029631313 -0.010729924 -0.0135509195 0.020134317
000040 dd 53 ea 3c d3 6a c2 bc a9 13 ab 3b 05 86 ef 3b
       0.028604442 -0.023732578 0.0052208495 0.0073096775
000050 63 3f c6 3c a5 52 ae 3c 7d 66 b5 bb f5 63 a5 3c
       0.024200147 0.021279642 -0.005535899 0.020189265
000060 67 4f 2b 3c 3f 85 4c 3a ff fd 91 bc d6 14 1f bd
       0.010455943 0.00078018376 -0.01782131 -0.03883823
000070 65 f6 5d 3d 32 cf bc bc 93 87 7c 3c 95 60 36 3c
       0.05419006 -0.023048017 0.015413183 0.011131425
000080 15 f1 23 bc 33 5e 1a 3d bb 44 79 3d b2 c0 78 bc
       -0.010006209 0.03768749 0.060856562 -0.015182661
000090 e3 93 c1 bc 43 70 eb bc 1a d0 6e 3d bd 9d e2 3c
       -0.023630088 -0.028740054 0.05830393 0.027663106
0000a0 06 e0 35 bd 13 a2 1c bc 6d f3 5a 3d 28 fc b2 3b
       -0.0444031 -0.009560126 0.053454805 0.0054621883
0000b0 87 d7 b8 3c 56 e8 8c bc 95 93 75 bc 33 18 8b bd
       0.022563709 -0.01720063 -0.0149888 -0.06791725
0000c0 7b 30 bc 3c 7a 60 6c bc 89 f2 bf bc 03 31 bd bd
       0.022972336 -0.014427299 -0.02343108 -0.09237864
0000d0 26 59 87 bb 1a 7d 91 bc 7f 90 b8 bc 7c 55 12 3d
       -0.0041305004 -0.017759848 -0.022529839 0.035726056
0000e0 5f ec 49 ba 7a b9 cb 3c 2b f3 b2 3b 78 24 74 bc
       -0.00077027635 0.024868716 0.005461117 -0.014901273
0000f0 40 1c 50 3d 05 38 0f bc b7 62 ae 3c f5 a9 94 bd
       0.05080819 -0.008741383 0.021287305 -0.07258979
000100 93 45 22 3d 83 9b a7 3d 3a 3a df 3c 2c ca b6 3c
       0.039617132 0.081839584 0.027249444 0.0223132
000110 8b 3a 4a bb 4d 85 2d 3d 5d 37 61 3d 4c d0 99 b8
       -0.0030857648 0.042363454 0.05498444 -7.334407e-05
000120 52 32 82 bc 05 9f 43 3d 1f 14 ab bb 00 e4 fb bc
       -0.015893135 0.047759075 -0.0052209045 -0.030748367
000130 f9 1f 89 bd 93 ce 13 3c cf 43 f5 3a cf ec 1f bd
       -0.066955514 0.009021419 0.0018712225 -0.039044198
000140 c0 3b 1d 3d f5 1a 83 bd 29 e2 12 3d db 85 f0 bc
       0.03838706 -0.06401626 0.035860214 -0.029360702
000150 a2 6a f3 3c 63 ea b9 bc d7 be 0f 3b f3 3f 3a bc
       0.029713932 -0.022694772 0.0021933818 -0.011367786
000160 a7 66 bd bc 07 e8 42 bc
       -0.023120238 -0.01189614

action_model._discrete_distribution.branches.0.bias f4 [10]
000000 00 00 00 00 00 00 00 00 00 00 00 00 00 00 00 00
       0.0 0.0 0.0 0.0
000010 00 00 00 00 00 00 00 00 00 00 00 00 00 00 00 00
       0.0 0.0 0.0 0.0
000020 00 00 00 00 00 00 00 00
       0.0 0.0
