Assets/onnx/Self_TTT_1/X_Behavior/X_Behavior-5827.onnx (onnx, 2542 bytes, 4 tensors)

network_body._body_endoder.seq_layers.0.weight f4 [9, 9]
-0.030834539 -0.40870956 0.19649032 -0.63413244 0.64325154 -0.2069766 -1.2591009 -0.87025285
-0.6158293 -0.690041 0.03789793 0.37031516 0.10421226 0.100181594 -0.12666781 0.029981697
0.018501053 -0.14457141 0.11339414 0.04563328 0.6341836 -0.5168522 -0.24968047 0.021885632
-0.23137668 0.6340234 -0.5314834 0.21092938 0.16255201 -0.18654197 0.8655601 -0.26047644
-0.029713122 0.3465818 -0.3792236 -0.25188643 -0.08602343 0.40731952 0.016483445 -1.0553825
0.001043677 -0.12776446 -0.8531486 -0.34306034 0.58663523 -0.09926151 -0.4424874 -0.407251
-0.08113736 1.2677699 -0.41583875 0.8634705 0.4628754 0.38065484 -0.11461467 0.09393135
-0.1688992 0.32154983 0.25670668 0.47184223 -0.19102979 0.030497847 0.17777334 0.31027517
-0.8201009 0.47253105 0.41512227 -0.09451444 0.4973443 0.40951267 -0.25097573 0.07639262
0.24255085 0.52671856 -0.29513872 -0.04745488 -0.37545323 0.16400497 0.5235859 -0.3534206
-0.3249598
00000000: b798 fcbc 6142 d1be c234 493e 8156 22bf
00000010: 22ac 243f adf1 53be 382a a1bf e4c8 5ebf
00000020: fda6 1dbf 87a6 30bf dc3a 1b3d f399 bd3e
00000030: 3d6d d53d 022c cd3d 35b5 01be 2d9c f53c
00000040: 858f 973c 870a 14be 303b e83d f6e9 3a3d
00000050: db59 223f 6d50 04bf 3dac 7fbe 7f49 b33c
00000060: 02ee 6cbe 5c4f 223f 4c0f 08bf dffd 573e
00000070: 0974 263e dc04 3fbe 5995 5d3f 2b5d 85be
00000080: ef68 f3bc 2b73 b13e 9829 c2be 42f7 80be
00000090: 0d2d b0bd 2f8c d03e 4a08 873c c616 87bf
000000a0: fdcb 883a b0d4 02be f267 5abf 9ba5 afbe
000000b0: ba2d 163f 9e49 cbbd b58d e2be 3483 d0be
000000c0: 582b a6bd 4946 a23f d1e8 d4be 670c 5d3f
000000d0: 01fe ec3e 31e5 c23e 19bb eabd 145f c03d
000000e0: e9f3 2cbe 2ea2 a43e 0f6f 833e 4e95 f13e
000000f0: 509d 43be 9fd6 f93c 370a 363e 63dc 9e3e
00000100: 22f2 51bf 97ef f13e e88a d43e c990 c1bd
00000110: e9a3 fe3e a5ab d13e e47f 80be bc73 9c3d
00000120: 405f 783e 07d7 063f 6c1c 97be 0c60 42bd
00000130: 683b c0be ebf0 273e ba09 063f 8bf3 b4be
00000140: 2261 a6be

network_body._body_endoder.seq_layers.0.bias f4 [9]
-0.15407713 -0.043083817 -0.15020864 -0.002377288 -0.4176877 -0.34950662 -0.123086214 -0.18491082
-0.19069624
00000000: 65c6 1dbe a878 30bd 4bd0 19be 46cc 1bbb
00000010: 2adb d5be 88f2 b2be a014 fcbd 4359 3dbe
00000020: e045 43be

action_model._discrete_distribution.branches.0.weight f4 [10, 9]
0.028228045 0.005160096 0.041923698 0.069494545 0.00344134 -0.039162423 0.0034481534 0.007273075
0.03864343 0.19299866 0.10201201 0.17124233 0.18784133 0.05748032 0.110091455 -0.036562625
0.025756676 -0.0046603032 -0.14444987 -0.03316341 -0.06689683 0.04409423 -0.23056167 0.16743405
0.03703351 0.10766315 0.21758842 -0.48897475 -0.09151152 0.027169663 -0.17707202 -0.16354887
0.29903027 0.016890137 -0.14643566 -0.15639298 0.019980049 0.07216915 -0.075179435 -0.020200541
0.11702283 -0.34220383 0.1932005 0.07036822 -0.055743992 -0.38793704 0.14707977 0.16299108
0.048546556 0.04885194 -0.06725419 0.11338538 0.24137141 -0.15793309 -0.040580418 -0.020906908
0.15907997 -0.33951196 0.07303907 -0.09223503 -0.03247486 -0.20425662 0.17261884 0.16482326
0.124300115 -0.26816848 0.35412356 0.07167893 -0.28830245 0.056788318 -0.13038184 0.09183678
0.36802503 -0.13607481 0.22191064 -0.18839617 -0.13094027 -0.059187572 -0.4174064 0.3026879
-0.15448302 0.1514212 -0.1434295 -0.27323505 -0.089791946 -0.18271817 0.07619602 -0.1357319
-0.072471395 -0.025608074
00000000: 803e e73c 0616 a93b 2fb8 2b3d 2853 8e3d
00000010: 1b88 613b c768 20bd 6afa 613b fa52 ee3b
00000020: 9348 1e3d 71a1 453e aceb d03d 265a 2f3e
00000030: 7a59 403e 7c70 6b3d a177 e13d b1c2 15bd
00000040: aaff d23c 75b5 98bb abea 13be 5bd6 07bd
00000050: 3501 89bd 279c 343d 5c18 6cbe d573 2b3e
00000060: 73b0 173d 7f7e dc3d 80cf 5e3e e65a fabe
00000070: 646a bbbd ea92 de3c 5e52 35be 5b79 27be
00000080: 7f1a 993e 2f5d 8a3c 3bf3 15be 7b25 20be
00000090: 33ad a33c 6bcd 933d adf7 99bd 9b7b a5bc
000000a0: aaa9 ef3d 5735 afbe 5ad6 453e 371d 903d
000000b0: d053 64bd af9f c6be 149c 163e 22e7 263e
000000c0: c1d8 463d f918 483d 91bc 89bd 9836 e83d
000000d0: 112a 773e 36b9 21be a737 26bd f744 abbc
000000e0: dce5 223e 83d4 adbe 8295 953d b8e5 bcbd
000000f0: 5c04 05bd a628 51be fec2 303e 6ec7 283e
00000100: 0f91 fe3d 614d 89be af4f b53e 67cc 923d
00000110: 619c 93be de9a 683d d182 05be ec14 bc3d
00000120: c76d bc3e 3257 0bbe 8b3c 633e edea 40be
00000130: 3515 06be ab6e 72bd 4bb6 d5be e9f9 9a3e
00000140: cc30 1ebe 290e 1b3e 2fdf 12be 77e5 8bbe
00000150: d7e4 b7bd 791a 3bbe a90c 9c3d 4efd 0abe
00000160: e26b 94bd 06c8 d1bc

action_model._discrete_distribution.branches.0.bias f4 [10]
0.0 -0.00082640635 -0.059589338 -0.052960303 -0.10623807 0.2867771 -0.32004184 0.15577711
-0.16510163 0.1837394
00000000: 0000 0000 31a3 58ba f313 74bd e7ec 58bd
00000010: 5893 d9bd 73d4 923e 86dc a3be 0984 1f3e
00000020: 6710 29be 2e26 3c3e
