Assets/onnx/Self_TTT_1/X_Behavior/X_Behavior-150038.onnx (onnx, 2542 bytes, 4 tensors)

network_body._body_endoder.seq_layers.0.weight f4 [9, 9]
1.1169555 1.2627962 -1.642189 0.31745902 -1.70923 0.9216684 0.7972875 0.5866955
-0.034547 -1.980424 -1.779353 -1.1607937 0.61015105 1.6513914 0.48075375 0.9784642
0.9227197 0.0014929343 1.7305043 1.5619271 0.029516583 0.0822977 0.4712435 -0.97598845
1.2112474 1.2211515 1.8116506 1.6134117 0.050221764 -1.7202386 1.4711708 0.93166566
-2.0794995 0.8373472 -0.70727396 -2.8657281 -1.5508848 0.5878602 0.7202088 -1.4963645
2.1357062 -0.5613771 -1.2561749 -1.7397709 0.2430373 -1.944159 0.6632993 2.2292387
-0.5800897 -1.3495256 1.6498282 1.5939345 -0.029473092 1.4281702 0.5517117 0.8949117
0.5933232 -0.801871 0.69680923 -1.127561 -1.397158 0.91709036 -1.3751806 -2.0780175
0.34709978 0.76917547 -0.65449506 0.9567724 0.08396608 -1.2461146 -0.29097068 -0.76912135
1.9807868 -2.8786554 1.7814896 0.47195607 -1.778845 -0.9218663 1.3071826 -1.1813744
-0.10015397
00000000: 66f8 8e3f 4ea3 a13f 4033 d2bf fd89 a23e
00000010: 0cc8 dabf 76f2 6b3f 091b 4c3f ad31 163f
00000020: 2881 0dbd 897e fdbf d7c1 e3bf e394 94bf
00000030: dc32 1c3f cb60 d33f 5b25 f63e a17c 7a3f
00000040: 5c37 6c3f 90ae c33a 2a81 dd3f 3aed c73f
00000050: c3cc f13c b28b a83d d446 f13e 61da 79bf
00000060: 280a 9b3f b14e 9c3f 2be4 e73f 4684 ce3f
00000070: 56b5 4d3d c730 dcbf 534f bc3f a481 6e3f
00000080: 8516 05c0 635c 563f e80f 35bf 1768 37c0
00000090: 6583 c6bf 027e 163f 9b5f 383f df88 bfbf
000000a0: 69af 0840 69b6 0fbf 57ca a0bf d0b0 debf
000000b0: c5de 783e 34da f8bf fccd 293f d9ab 0e40
000000c0: c280 14bf 41bd acbf 922d d33f 0c06 cc3f
000000d0: 8e71 f1bc 48ce b63f fa3c 0d3f ef18 653f
000000e0: 07e4 173f 6b47 4dbf 1762 323f eb53 90bf
000000f0: 13d6 b2bf 6fc6 6a3f eb05 b0bf 3dfe 04c0
00000100: 10b7 b13e afe8 443f fd8c 27bf 09ef 743f
00000110: 68f6 ab3d af80 9fbf 1cfa 94be 23e5 44bf
00000120: 6c8a fd3f e43b 38c0 da07 e43f 3aa4 f13e
00000130: 31b1 e3bf 6eff 6bbf c251 a73f 4737 97bf
00000140: 861d cdbd

network_body._body_endoder.seq_layers.0.bias f4 [9]
-0.77665704 -0.09962314 -0.028144171 0.055175275 -1.1420773 -0.20426686 -0.20014627 -1.4286824
-0.18762133
00000000: ffd2 46bf 3807 ccbd 9b8e e6bc 78ff 613d
00000010: 972f 92bf 552b 51be 25f3 4cbe 11df b6bf
00000020: ce1f 40be

action_model._discrete_distribution.branches.0.weight f4 [10, 9]
-0.0043437295 -0.0039975313 -0.05963422 0.05426691 0.029545207 0.020948445 -0.009693771 0.00968749
-0.0001266313 0.08321462 0.8178114 -0.52237034 -0.91781837 1.3434801 0.56912506 1.553847
-0.65755266 -2.0924916 -0.38772753 1.7153705 -1.2060004 -1.8546767 -2.040688 -1.2186219
1.8697906 -0.17362125 2.0293887 0.8117471 0.9053133 0.30018434 1.2147311 -0.4726045
-1.3279535 0.99393874 0.39414552 -2.446834 -0.050103713 -0.25604415 0.99822307 1.2081213
0.0652899 -0.4476539 -2.0588 0.972822 0.4879461 0.426277 -2.370006 0.5393494
-1.9881213 -0.9027676 1.0268421 -0.26602593 0.0024808862 1.2930171 -1.1627077 -0.8124176
1.7007918 1.3397428 0.6310044 1.1130301 -1.1191314 -0.0320833 -0.55739945 1.3069159
-0.71033156 -0.37182197 -0.84898704 0.8868707 -0.55165213 -0.1766956 0.5705568 -0.60498863
-0.72140145 0.18711384 -0.96502167 -0.45421085 -0.17325108 -1.1973193 0.7967704 0.84297425
1.1853313 -0.35314664 -0.7626274 -0.76902765 0.50703675 -0.123616084 1.2937169 -1.1759846
-2.2185574 -1.8202482
00000000: d855 8ebb b9fd 82bb 0343 74bd fb46 5e3d
00000010: ca08 f23c 139c ab3c 9fd2 1ebc 47b8 1e3c
00000020: 55c8 04b9 6d6c aa3d 175c 513f 10ba 05bf
00000030: 25f6 6abf 28f7 ab3f 2eb2 113f 75e4 c63f
00000040: 5f55 28bf 62eb 05c0 3984 c6be 4391 db3f
00000050: 395e 9abf 0c66 edbf a29a 02c0 cdfb 9bbf
00000060: 4c55 ef3f c5c9 31be 81e1 0140 a8ce 4f3f
00000070: 9dc2 673f c3b1 993e 4f7c 9b3f 38f9 f1be
00000080: 61fa a9bf c572 7e3f 71cd c93e ee98 1cc0
00000090: 8d39 4dbd 3818 83be 8c8b 7f3f b8a3 9a3f
000000a0: b6b6 853d e432 e5be 61c3 03c0 dd0a 793f
000000b0: 12d4 f93e fb40 da3e 2eae 17c0 cd12 0a3f
000000c0: c27a febf c71b 67bf 906f 833f 8d34 88be
000000d0: 5d96 223b 9681 a53f 9bd3 94bf 9afa 4fbf
000000e0: 8cb3 d93f b17c ab3f 8189 213f c577 8e3f
000000f0: b33f 8fbf c769 03bd bbb1 0ebf 0549 a73f
00000100: 4ad8 35bf 735f bebe 3757 59bf f509 633f
00000110: 1339 0dbf b1ef 34be 0310 123f 89e0 1abf
00000120: c4ad 38bf c59a 3f3e a90b 77bf 538e e8be
00000130: bb68 31be c241 99bf 25f9 4b3f 29cd 573f
00000140: f0b8 973f a3cf b4be 8d3b 43bf ffde 44bf
00000150: 29cd 013f 6e2a fdbd 8498 a53f aa86 96bf
00000160: d8fc 0dc0 e5fd e8bf

action_model._discrete_distribution.branches.0.bias f4 [10]
0.0 -0.08120716 -0.9793414 -0.20017894 0.51120883 0.7007424 0.30134243 -0.15212703
-1.1554874 0.8137328
00000000: 0000 0000 f14f a6bd 1eb6 7abf b5fb 4cbe
00000010: 95de 023f db63 333f 8e49 9a3e 30c7 1bbe
00000020: 03e7 93bf cb50 503f
