Assets/onnx/Self_TTT_1/X_Behavior/X_Behavior-746.pt (torch, 7911 bytes, 7 tensors)

network_body._body_endoder.seq_layers.0.weight f4 [9, 9]
00000000: 4c5c b8be a2aa 1e3f 4e16 d23e 8783 8ebe
00000010: d6d0 f63e 8861 a7bd 47eb 0f3e dce8 bebe
00000020: 347a 17bd d499 93bc 22f8 22be a84a 003e
00000030: 543a 73be 48d4 43bf 3469 243e 200a ce3e
00000040: 76b6 d8be 2ebb 2f3e b44f 5a3e 7551 0abf
00000050: 0ef8 6b3e 67a0 d23e d9e8 9abd 84b7 4fbe
00000060: b014 48bf 27e9 233e 52fa b03c f2cd 32be
00000070: 8467 b83d 77ed c4be be58 3bbd ebb8 463f
00000080: ce57 95be 77e4 0ebd bb28 90be c0d0 b63e
00000090: 4a3b 3abe 20c4 39bf ec1c 3b3f 4606 f43e
000000a0: fe82 df3c 3b08 2a3f bb18 063f 1b68 c6be
000000b0: 54a9 9b3e e63e 96be 7994 853d dfe6 343d
000000c0: 9155 83be c9bc 0f3e 3cb9 1a3f 17b1 fbbc
000000d0: f6d8 ab3e 0866 463d 08b8 99ba a3e1 85be
000000e0: abe7 453e 8c71 193e 89a0 a73e b218 97be
000000f0: 36a1 103e 83ed 3d3e de63 83be a3fe 79be
00000100: 3bda ae3e df44 45ba ee3b f2bd 5acc 8bbd
00000110: ec7f 84be 64db a7bd c4d5 d7bd 2a7e 1abe
00000120: f086 843e 9051 953d 6df3 853e 6a7a b43d
00000130: 6219 16bf 2b8b fcbc 54f4 2d3e 625c 59be
00000140: 9ad7 b13e
-0.36007917 0.61979115 0.41032642 -0.27834722 0.48206204 -0.081728995 0.14054595 -0.37287033
-0.036981776 -0.018017687 -0.15914968 0.12528479 -0.23752719 -0.7649579 0.16055757 0.402421
-0.42326707 0.17161247 0.21319467 -0.54030544 0.23043844 0.41138002 -0.075639434 -0.2028485
-0.78156567 0.1600691 0.021603737 -0.17461374 0.09004119 -0.3846242 -0.045738928 0.7762591
-0.29168552 -0.03488585 -0.28156075 0.3570614 -0.1818668 -0.7256489 0.73091006 0.47661036
0.027284142 0.6641881 0.52381486 -0.387513 0.30402625 -0.29344863 0.065224595 0.04416549
-0.2565122 0.1403686 0.60438895 -0.030724091 0.33563966 0.04843715 -0.0011727819 -0.2614871
0.19326656 0.14984721 0.32739666 -0.2951103 0.14123997 0.18547635 -0.2566213 -0.24413542
0.34150872 -0.0007525216 -0.11827837 -0.06826086 -0.25878847 -0.08196142 -0.105388194 -0.1508719
0.258842 0.072909474 0.26162282 0.08812411 -0.5863248 -0.03082808 0.16987735 -0.21226647
0.34734803

network_body._body_endoder.seq_layers.0.bias f4 [9]
00000000: 0000 0000 0000 0000 0000 0000 0000 0000
00000010: 0000 0000 0000 0000 0000 0000 0000 0000
00000020: 0000 0000
0.0 0.0 0.0 0.0 0.0 0.0 0.0 0.0
0.0

action_model._discrete_distribution.branches.0.weight f4 [10, 9]
00000000: 585b 1d3d 95a1 1fbc 205d ea3c 05e2 f03c
00000010: 4fc5 1c3b eb59 503d e7b3 46bc 57f0 b83b
00000020: cba9 2a3c 972c 5abd 3852 aa3d dbee 033c
00000030: f491 86bd 580c 393b 2a98 e63b 121c 8b3c
00000040: 02cc 783b c6a9 3c3d 4740 4fbd ea64 133d
00000050: 15d5 093d 7bc3 723d 2f5b 423b 6a1c 5f3d
00000060: 2457 803d c9b5 18bd dd51 fcba 15bc 85bc
00000070: 737f 8b3d 4fba a93c 0f0a f83c 8f80 84b9
00000080: e295 c03c 3d24 ac3b c5cf 073d 5f42 56bd
00000090: ffdd 45bd 3659 9d3c 6bbe 05bd bb3b 0bb8
000000a0: fae1 2ebd 6b1a 643c ccec aebc 1aa9 a03d
000000b0: fdeb 3f3c a5a0 25bd f35e 5cbd 2bbb 06bd
000000c0: 7bda c13b 6729 c4bb 739d 43bb 53b7 133d
000000d0: 9b14 99bd 6cf2 063d 9249 e7bc 1c78 1d3d
000000e0: 0520 9ebc cacf e23b e8e7 c8bc c0d5 b93c
000000f0: 931b 74bc c89d a23c 37c1 7e3c 50db 87bd
00000100: bfc4 dabc 7934 323b 5fbd 7fbc c75f 25bc
00000110: 4868 cf3c f8aa 033d eaa3 32bc faf1 a03d
00000120: 4c20 0ebd 80ef ef3c fffb 13bc d39c 523d
00000130: 0b7c 383c 8666 a83c 8390 7cbd 26c2 32bd
00000140: 9fe0 26bd d001 a53a 2df0 d23c 0387 38bd
00000150: 220f 30bd 7b46 03bd ed83 2cbc 3203 89bb
00000160: 7fb8 e2bc 405c 113b
0.03841719 -0.009743114 0.028608859 0.02940465 0.0023921316 0.050867002 -0.012127853 0.005643885
0.010416458 -0.05326518 0.08316463 0.008052553 -0.06570807 0.0028236117 0.0070371823 0.016981158
0.0037963395 0.046060346 -0.05059841 0.03598491 0.033650476 0.059268456 0.00296564 0.054470457
0.06266621 -0.03728274 -0.0019250471 -0.016325036 0.068114184 0.020718722 0.030278234 -0.00025272786
0.02350897 0.0052533434 0.03315713 -0.05230939 -0.048307415 0.019207578 -0.0326523 -3.319581e-05
-0.042695977 0.013922314 -0.021353148 0.078447536 0.011713979 -0.040436406 -0.053801488 -0.03289334
0.0059159375 -0.005986381 -0.0029848486 0.036063503 -0.07474633 0.032946035 -0.028233323 0.038444623
-0.019302377 0.006921743 -0.024524644 0.022684932 -0.014899152 0.019850627 0.015548996 -0.066336274
-0.026705144 0.002719192 -0.015609114 -0.010093636 0.02531828 0.03214547 -0.010903338 0.07858653
-0.03469877 0.029289007 -0.0090322485 0.05141909 0.011260043 0.0205567 -0.061661255 -0.043642186
-0.04074156 0.0012589041 0.02574929 -0.045050632 -0.04298318 -0.032049637 -0.0105295 -0.004181289
-0.027675865 0.002218023

action_model._discrete_distribution.branches.0.bias f4 [10]
00000000: 0000 0000 0000 0000 0000 0000 0000 0000
00000010: 0000 0000 0000 0000 0000 0000 0000 0000
00000020: 0000 0000 0000 0000
0.0 0.0 0.0 0.0 0.0 0.0 0.0 0.0
0.0 0.0

network_body._body_endoder.seq_layers.0.weight f4 [9, 9]
00000000: 33d4 07bf 1708 8dbe 622d 783f 67a9 debd
00000010: 3ac8 3ebf 672c dabe c2f7 a13e 00e0 fcbd
00000020: 99d9 24bf 9223 cf3d aea1 5fbf a31a 2dbd
00000030: fa66 163f 28f9 0c3f cfe9 833d 4161 223e
00000040: 0c45 1cbf 960c 213e aee6 0bbf d708 483e
00000050: 0ccf 113f 2494 8fbe 3e40 0cbe a1b9 a9be
00000060: b323 f03c ebcf 84bd 131a 3dbe d2dd 7d3e
00000070: 7415 9ebe 4b90 743e 7b5e fdbd bf5f b1be
00000080: 721d 74be 45d4 943e ab6f 61be 5b09 723d
00000090: 9348 513e 5e98 8d3d 771d 44be 4ad0 bbbd
000000a0: b4c7 163c 95c4 13be c2f6 b23d 986e f5bc
000000b0: eb60 acbe 8d77 9a3d 26e5 2bbd e32d aa3d
000000c0: 2c3c 3e3e 6e3e 603e cefd c63b b4fb 32bf
000000d0: cc8f 8abe 4c88 9a3e e747 edbd ea7b 3f3f
000000e0: b789 ba3d 3305 323e 806b 063f d60c c13d
000000f0: dab1 36be 6eb0 29bc 3b02 9a3e f77a b4be
00000100: 376a 7c3d c0d1 c93c d024 253e 5669 253d
00000110: 9f1a a2bd 2a96 6e3c 8afd a2b9 6628 0b3f
00000120: 38b0 cabc 9719 26bf e3e8 553f a254 e5be
00000130: 52e8 9e3e 6e36 6fbd 2760 b2be 4373 4f3d
00000140: 0a27 753d
-0.53058165 -0.27545235 0.9694425 -0.10872155 -0.7452427 -0.42612 0.31634337 -0.12347412
-0.6439453 0.101142064 -0.8735608 -0.04226173 0.5875088 0.5506768 0.0644108 0.15857412
-0.6104286 0.15727457 -0.54648864 0.19534622 0.56956553 -0.2804271 -0.13696381 -0.33149436
0.029313898 -0.0648497 -0.18466978 0.24791649 -0.30875742 0.23883168 -0.12371536 -0.3464336
-0.23839357 0.290682 -0.22015254 0.059090953 0.20437841 0.06913827 -0.19151865 -0.09170587
0.009202886 -0.14430459 0.087384716 -0.029959962 -0.33667693 0.07542334 -0.04196658 0.083095334
0.18577641 0.21898815 0.0060727363 -0.6991532 -0.27062833 0.3018211 -0.1158598 0.7479845
0.09108298 0.17384796 0.5250778 0.094262764 -0.17841282 -0.0103570055 0.30079827 -0.35250065
0.061624732 0.02463615 0.16127324 0.04038366 -0.07915234 0.014562169 -0.0003108795 0.5435852
-0.02474223 -0.64882797 0.8355848 -0.44791132 0.3103662 -0.058401518 -0.34838983 0.05064703
0.059851684

network_body._body_endoder.seq_layers.0.bias f4 [9]
00000000: 0000 0000 0000 0000 0000 0000 0000 0000
00000010: 0000 0000 0000 0000 0000 0000 0000 0000
00000020: 0000 0000
0.0 0.0 0.0 0.0 0.0 0.0 0.0 0.0
0.0

value_heads.value_heads.extrinsic.weight f4 [1, 9]
00000000: db87 b2be ed63 c0be b35a a13e a081 243f
00000010: 6354 9fbe bab3 4e3e b2f9 eebe 7844 473e
00000020: 2f56 35bf
-0.34869274 -0.37576237 0.3151451 0.6426029 -0.3111907 0.20185748 -0.46674877 0.19459713
-0.7083463
