Assets/onnx/Self_TTT_1/X_Behavior/X_Behavior-6467.onnx (onnx, 2542 bytes, 4 tensors)

network_body._body_endoder.seq_layers.0.weight f4 [9, 9]
00000000: e33f 8bbe b012 e03e 4978 ee3e 8fc9 013b
00000010: 2c49 25bf 435d d13d 0fdd 0ebf 1844 e6be
00000020: 0475 c7be f1ad 8fbf 588d 47be 7e58 e23d
00000030: dfec 2c3f 2063 28bf 0a1f 473f 86ad 403f
00000040: 61c6 113f e0ca b6bf e124 403e 0127 033f
00000050: c324 a1be 0836 063f 8cd2 32be f9f8 8a3e
00000060: e441 1ebf 2376 e5be 8643 8a3e 2c2f 3e3f
00000070: 295e cbbe 10b4 0e3f e705 1b3f d956 b0be
00000080: 96bb 6f3f 6a49 0abf ebd4 b4be 1802 b93c
00000090: c279 063f 2e1f e03d 988e 54be c8be 9d3e
000000a0: f83b 4c3f cb1a f6be 8bee cabe 5926 fbbe
000000b0: 4146 b6bf e3f8 d5bd 2959 49b9 3823 563f
000000c0: b798 db3d a284 4e3f 4d99 073f 4f9f 683e
000000d0: 5a20 fabd ca91 fabe b648 95bf 1a94 85bf
000000e0: ef25 ccbd beb5 37be 12e2 1d3f 81d7 623e
000000f0: 444e 2dbd c259 5e3e ce3f 713e 7942 cdbe
00000100: 0136 0a3e b4c1 773f b27a 023f 8dfb 5a3e
00000110: 5499 b33d f7a5 63bf dca2 473e ae5e 6d3d
00000120: 0574 43bf 741e d53e 2de5 bebe 3a5b 10be
00000130: 689c 9fbe e86d ddbd 805e 013e 658d d1be
00000140: 6bf4 a9be
-0.2719718 0.43764257 0.46576145 0.0019803976 -0.64564776 0.102228664 -0.5580606 -0.44973826
-0.38956463 -1.1224958 -0.19487512 0.11052035 0.67548937 -0.6577625 0.77781737 0.75264776
0.5694333 -1.4280663 0.18764068 0.5123139 -0.3147336 0.52426195 -0.1746313 0.27143076
-0.6181929 -0.44816694 0.2700464 0.7429073 -0.39720276 0.55743504 0.6055588 -0.3444126
0.9364561 -0.5401827 -0.35318694 0.022584006 0.5252954 0.10943447 -0.2075752 0.30809617
0.79779005 -0.48067316 -0.3963512 -0.49052694 -1.424019 -0.10447862 -0.00019202069 0.8364749
0.107224874 0.8067113 0.52968293 0.22717021 -0.12213202 -0.48939353 -1.1662815 -1.0435822
-0.09968173 -0.17940423 0.6167308 0.2215252 -0.042310968 0.21713927 0.23559496 -0.40089777
0.13497163 0.9677994 0.5096847 0.21385022 0.087694794 -0.8892512 0.1949572 0.05795162
-0.76348907 0.41624796 -0.37284222 -0.140973 -0.31174016 -0.108119786 0.12633705 -0.40928188
-0.3319429

network_body._body_endoder.seq_layers.0.bias f4 [9]
00000000: d59c 98be d4b9 cebe a5da 093d a66e 50be
00000010: b184 2dbe 855d 6fbe b0be 73be 55bd 1a3d
00000020: f688 253b
-0.29807153 -0.4037615 0.03365578 -0.20354709 -0.16945149 -0.23375519 -0.2380321 0.037778217
0.0025258637

action_model._discrete_distribution.branches.0.weight f4 [10, 9]
00000000: 5c15 233d 20e2 7a3c 90d1 033d 2bc8 233c
00000010: a024 19bd 4794 edbc 8b06 fdbc a6c0 093d
00000020: dd80 eebb 91cf 433e ad85 c63e 5cbe 0fbe
00000030: 2137 0fbf 1e5b 2abf 3682 bfbd 606a 7c3e
00000040: c9bf 2a3e c2a0 f73d 35fa e03d f0ab abbd
00000050: 7968 abbd f578 013e bf31 acbd 5eea 57bd
00000060: ea3e a43e 7c70 a5be 65b9 ab3e ac7e 193e
00000070: f3f6 95bc 614e b93d 635e 2e3e ed93 493e
00000080: d33e e53d 8f6a bb3e ede6 3e3e 27ad 80be
00000090: 93f9 2fbe 591f f0be 56c7 4bbe 4eff 18bf
000000a0: 1d7c 44be c8b4 b2bd 0a47 483d ced1 dc3e
000000b0: e4b3 0abe 701d 05bf 7336 883e ab1a d73c
000000c0: 51d9 dd3d 7c79 e9be d7fb 62be bfdd 93be
000000d0: 3814 f2bd 7183 48be a3d3 5cbd 772d 57be
000000e0: 9924 d0be 5fc5 4cbe c2db 133e be75 c5be
000000f0: 1443 ecbe 93bd 2bbf 6117 023e f27e 0abd
00000100: cd5e 37be 69ca de3e 763d f53d b233 393e
00000110: 5d80 eb3e eb18 3dbd 2987 b93d 497f 223d
00000120: 1b64 5bbd 2fd8 2bbe 023e 9a3b 92fc b23e
00000130: fb42 363e b787 9b3c 9a5b 1ebe 7b20 9f3d
00000140: 6e81 32be e009 2f3e 64dd 863d 9562 0b3e
00000150: 2790 6b3d 7453 0a3f 2d43 07be 2347 d8be
00000160: ba06 3d3e 63e1 e23d
0.03981529 0.015312701 0.032182276 0.009996454 -0.037388444 -0.029001368 -0.030886909 0.03363099
-0.0072785453 0.19122149 0.38773862 -0.1403746 -0.55943495 -0.66545284 -0.09351008 0.24649954
0.16674723 0.12091209 0.10985223 -0.08382404 -0.08369536 0.12643798 -0.08407926 -0.052713744
0.3207925 -0.3231238 0.33539882 0.14989728 -0.018306231 0.09048153 0.17028193 0.19685335
0.111936234 0.36604735 0.18642779 -0.25132105 -0.17185049 -0.46898916 -0.1990026 -0.59764564
-0.1918797 -0.087258875 0.048895873 0.43128818 -0.13545185 -0.51998043 0.2660404 0.026257833
0.108324654 -0.45600498 -0.22166382 -0.28880116 -0.11820263 -0.19581391 -0.05391277 -0.21013437
-0.40652922 -0.19997166 0.144393 -0.38566393 -0.46144927 -0.6708614 0.12704231 -0.03381247
-0.17907257 0.43513802 0.11974613 0.18086126 0.4599637 -0.04616634 0.09058983 0.03967217
-0.053562265 -0.16781686 0.004707099 0.3495832 0.17798989 0.018985612 -0.1546463 0.07769867
-0.17432186 0.17093611 0.06585196 0.13611825 0.05751052 0.5403359 -0.1320922 -0.42241773
0.18459597 0.11078145

action_model._discrete_distribution.branches.0.bias f4 [10]
00000000: 0000 0000 125b 8a3e 3533 aebe ecda 15be
00000010: b625 8fbe aefd ae3e 0a41 f13d cab3 813e
00000020: 2b96 a8be 5cfd a83d
0.0 0.27022606 -0.34023443 -0.14634293 -0.2795846 0.34177917 0.11779983 0.2533248
-0.3292707 0.082514495
