Assets/onnx/Self_TTT_1/X_Behavior/X_Behavior-150038.pt (torch, 14695 bytes, 21 tensors)

network_body._body_endoder.seq_layers.0.weight f4 [9, 9]
0	0x3f8ef866	1.1169555
1	0x3fa1a34e	1.2627962
2	0xbfd23340	-1.642189
3	0x3ea289fd	0.31745902
4	0xbfdac80c	-1.70923
5	0x3f6bf276	0.9216684
6	0x3f4c1b09	0.7972875
7	0x3f1631ad	0.5866955
8	0xbd0d8128	-0.034547
9	0xbffd7e89	-1.980424
10	0xbfe3c1d7	-1.779353
11	0xbf9494e3	-1.1607937
12	0x3f1c32dc	0.61015105
13	0x3fd360cb	1.6513914
14	0x3ef6255b	0.48075375
15	0x3f7a7ca1	0.9784642
16	0x3f6c375c	0.9227197
17	0x3ac3ae90	0.0014929343
18	0x3fdd812a	1.7305043
19	0x3fc7ed3a	1.5619271
20	0x3cf1ccc3	0.029516583
21	0x3da88bb2	0.0822977
22	0x3ef146d4	0.4712435
23	0xbf79da61	-0.97598845
24	0x3f9b0a28	1.2112474
25	0x3f9c4eb1	1.2211515
26	0x3fe7e42b	1.8116506
27	0x3fce8446	1.6134117
28	0x3d4db556	0.050221764
29	0xbfdc30c7	-1.7202386
30	0x3fbc4f53	1.4711708
31	0x3f6e81a4	0.93166566
32	0xc0051685	-2.0794995
33	0x3f565c63	0.8373472
34	0xbf350fe8	-0.70727396
35	0xc0376817	-2.8657281
36	0xbfc68365	-1.5508848
37	0x3f167e02	0.5878602
38	0x3f385f9b	0.7202088
39	0xbfbf88df	-1.4963645
40	0x4008af69	2.1357062
41	0xbf0fb669	-0.5613771
42	0xbfa0ca57	-1.2561749
43	0xbfdeb0d0	-1.7397709
44	0x3e78dec5	0.2430373
45	0xbff8da34	-1.944159
46	0x3f29cdfc	0.6632993
47	0x400eabd9	2.2292387
48	0xbf1480c2	-0.5800897
49	0xbfacbd41	-1.3495256
50	0x3fd32d92	1.6498282
51	0x3fcc060c	1.5939345
52	0xbcf1718e	-0.029473092
53	0x3fb6ce48	1.4281702
54	0x3f0d3cfa	0.5517117
55	0x3f6518ef	0.8949117
56	0x3f17e407	0.5933232
57	0xbf4d476b	-0.801871
58	0x3f326217	0.69680923
59	0xbf9053eb	-1.127561
60	0xbfb2d613	-1.397158
61	0x3f6ac66f	0.91709036
62	0xbfb005eb	-1.3751806
63	0xc004fe3d	-2.0780175
64	0x3eb1b710	0.34709978
65	0x3f44e8af	0.76917547
66	0xbf278cfd	-0.65449506
67	0x3f74ef09	0.9567724
68	0x3dabf668	0.08396608
69	0xbf9f80af	-1.2461146
70	0xbe94fa1c	-0.29097068
71	0xbf44e523	-0.76912135
72	0x3ffd8a6c	1.9807868
73	0xc0383be4	-2.8786554
74	0x3fe407da	1.7814896
75	0x3ef1a43a	0.47195607
76	0xbfe3b131	-1.778845
77	0xbf6bff6e	-0.9218663
78	0x3fa751c2	1.3071826
79	0xbf973747	-1.1813744
80	0xbdcd1d86	-0.10015397

network_body._body_endoder.seq_layers.0.bias f4 [9]
0	0xbf46d2ff	-0.77665704
1	0xbdcc0738	-0.09962314
2	0xbce68e9b	-0.028144171
3	0x3d61ff78	0.055175275
4	0xbf922f97	-1.1420773
5	0xbe512b55	-0.20426686
6	0xbe4cf325	-0.20014627
7	0xbfb6df11	-1.4286824
8	0xbe401fce	-0.18762133

action_model._discrete_distribution.branches.0.weight f4 [10, 9]
0	0xbb8e55d8	-0.0043437295
1	0xbb82fdb9	-0.0039975313
2	0xbd744303	-0.05963422
3	0x3d5e46fb	0.05426691
4	0x3cf208ca	0.029545207
5	0x3cab9c13	0.020948445
6	0xbc1ed29f	-0.009693771
7	0x3c1eb847	0.00968749
8	0xb904c855	-0.0001266313
9	0x3daa6c6d	0.08321462
10	0x3f515c17	0.8178114
11	0xbf05ba10	-0.52237034
12	0xbf6af625	-0.91781837
13	0x3fabf728	1.3434801
14	0x3f11b22e	0.56912506
15	0x3fc6e475	1.553847
16	0xbf28555f	-0.65755266
17	0xc005eb62	-2.0924916
18	0xbec68439	-0.38772753
19	0x3fdb9143	1.7153705
20	0xbf9a5e39	-1.2060004
21	0xbfed660c	-1.8546767
22	0xc0029aa2	-2.040688
23	0xbf9bfbcd	-1.2186219
24	0x3fef554c	1.8697906
25	0xbe31c9c5	-0.17362125
26	0x4001e181	2.0293887
27	0x3f4fcea8	0.8117471
28	0x3f67c29d	0.9053133
29	0x3e99b1c3	0.30018434
30	0x3f9b7c4f	1.2147311
31	0xbef1f938	-0.4726045
32	0xbfa9fa61	-1.3279535
33	0x3f7e72c5	0.99393874
34	0x3ec9cd71	0.39414552
35	0xc01c98ee	-2.446834
36	0xbd4d398d	-0.050103713
37	0xbe831838	-0.25604415
38	0x3f7f8b8c	0.99822307
39	0x3f9aa3b8	1.2081213
40	0x3d85b6b6	0.0652899
41	0xbee532e4	-0.4476539
42	0xc003c361	-2.0588
43	0x3f790add	0.972822
44	0x3ef9d412	0.4879461
45	0x3eda40fb	0.426277
46	0xc017ae2e	-2.370006
47	0x3f0a12cd	0.5393494
48	0xbffe7ac2	-1.9881213
49	0xbf671bc7	-0.9027676
50	0x3f836f90	1.0268421
51	0xbe88348d	-0.26602593
52	0x3b22965d	0.0024808862
53	0x3fa58196	1.2930171
54	0xbf94d39b	-1.1627077
55	0xbf4ffa9a	-0.8124176
56	0x3fd9b38c	1.7007918
57	0x3fab7cb1	1.3397428
58	0x3f218981	0.6310044
59	0x3f8e77c5	1.1130301
60	0xbf8f3fb3	-1.1191314
61	0xbd0369c7	-0.0320833
62	0xbf0eb1bb	-0.55739945
63	0x3fa74905	1.3069159
64	0xbf35d84a	-0.71033156
65	0xbebe5f73	-0.37182197
66	0xbf595737	-0.84898704
67	0x3f6309f5	0.8868707
68	0xbf0d3913	-0.55165213
69	0xbe34efb1	-0.1766956
70	0x3f121003	0.5705568
71	0xbf1ae089	-0.60498863
72	0xbf38adc4	-0.72140145
73	0x3e3f9ac5	0.18711384
74	0xbf770ba9	-0.96502167
75	0xbee88e53	-0.45421085
76	0xbe3168bb	-0.17325108
77	0xbf9941c2	-1.1973193
78	0x3f4bf925	0.7967704
79	0x3f57cd29	0.84297425
80	0x3f97b8f0	1.1853313
81	0xbeb4cfa3	-0.35314664
82	0xbf433b8d	-0.7626274
83	0xbf44deff	-0.76902765
84	0x3f01cd29	0.50703675
85	0xbdfd2a6e	-0.123616084
86	0x3fa59884	1.2937169
87	0xbf9686aa	-1.1759846
88	0xc00dfcd8	-2.2185574
89	0xbfe8fde5	-1.8202482

action_model._discrete_distribution.branches.0.bias f4 [10]
0	0x00000000	0.0
1	0xbda64ff1	-0.08120716
2	0xbf7ab61e	-0.9793414
3	0xbe4cfbb5	-0.20017894
4	0x3f02de95	0.51120883
5	0x3f3363db	0.7007424
6	0x3e9a498e	0.30134243
7	0xbe1bc730	-0.15212703
8	0xbf93e703	-1.1554874
9	0x3f5050cb	0.8137328

exp_avg f4 [9, 9]
0	0x3b8ead0f	0.0043541263
1	0xbb2b4442	-0.0026133214
2	0xbb1f8a69	-0.0024343973
3	0xb9fec53a	-0.000485936
4	0xbb9bde96	-0.004756759
5	0x399ccd5e	0.0002990765
6	0x3a0e3593	0.00054248533
7	0x39fe34a2	0.0004848587
8	0xb6c09adc	-5.740074e-06
9	0x3b330ebd	0.0027322017
10	0xba52451f	-0.0008021164
11	0xbabb3cb4	-0.0014285059
12	0xbad89214	-0.0016523027
13	0x3c04113f	0.008060752
14	0x3aae2969	0.0013287488
15	0xba2c28fb	-0.0006567386
16	0x3aa99563	0.0012938197
17	0x39896789	0.00026207816
18	0x3cb0d837	0.021587474
19	0xbcd3de35	-0.025862793
20	0x3b74ba54	0.0037342506
21	0x3a46cf08	0.00075839506
22	0xbb9f3c41	-0.0048594777
23	0xbb2a158c	-0.0025952784
24	0xbaab5e25	-0.0013074322
25	0x3bb6874d	0.0055703283
26	0xb9cc1260	-0.00038923603
27	0x3c0b3848	0.008497305
28	0xbc153b65	-0.009108399
29	0x39e1bdc6	0.00043056736
30	0xb9b29ea2	-0.00034068996
31	0x3ca93f2b	0.020660004
32	0xbbb0433b	-0.0053791082
33	0xbb29b5be	-0.002589568
34	0x3be4108f	0.0069599818
35	0xba08abcd	-0.00052135886
36	0xbc0520d2	-0.008125501
37	0x3af9fabe	0.0019071919
38	0x3ab1e15b	0.001357119
39	0xb8c500c1	-9.3938324e-05
40	0x3c11b850	0.008894041
41	0x3bae3bc1	0.005317182
42	0x360e49dd	2.1202643e-06
43	0xba93804e	-0.0011253448
44	0xb99a89f4	-0.00029475952
45	0x3c9bb599	0.019007491
46	0xbc9e214b	-0.019302985
47	0xba07d4a2	-0.0005181526
48	0xb9c5ac01	-0.0003770292
49	0xbc9b926d	-0.01899072
50	0xba4a6d1f	-0.0007721949
51	0xb9b1de1d	-0.00033925558
52	0x3a378561	0.0007000771
53	0xba0e09ce	-0.0005418331
54	0xbc9b3209	-0.018944757
55	0x3c9490fe	0.018135544
56	0x3aeac3dc	0.0017911154
57	0xbb4c05fd	-0.00311315
58	0x3c589f23	0.013221535
59	0x3b4b99dc	0.003106705
60	0x39063d9f	0.00012802191
61	0xbb0c868b	-0.0021442499
62	0x3a3a48b2	0.00071061694
63	0xbbc5a452	-0.0060315514
64	0x3bf14879	0.0073633757
65	0xb9b735ce	-0.00034944568
66	0x39de2cb9	0.0004237646
67	0x3a7dd99b	0.000968361
68	0xbaa846a0	-0.0012838431
69	0x37a2cd59	1.9407527e-05
70	0xb968695b	-0.00022164492
71	0x3885fa18	6.388518e-05
72	0x3a007cae	0.0004901391
73	0x3ace6750	0.0015747342
74	0xb918a48c	-0.00014557148
75	0x39872e60	0.0002578376
76	0x3ba15ce7	0.004924405
77	0xb7d2c801	-2.5127085e-05
78	0x3ad6ed51	0.001639763
79	0xb8aa84f8	-8.130999e-05
80	0x39a5c70c	0.00031619554

exp_avg_sq f4 [9, 9]
0	0x38be80e8	9.083917e-05
1	0x38e3ea15	0.00010867805
2	0x38c6fdeb	9.488672e-05
3	0x3887c3ad	6.473749e-05
4	0x39039cc2	0.0001255153
5	0x37308082	1.0520338e-05
6	0x393fd51e	0.00018294572
7	0x366485dd	3.4052566e-06
8	0x385daab7	5.2849497e-05
9	0x399bb8d9	0.00029701626
10	0x39fe0878	0.00048452965
11	0x38214cbe	3.8456863e-05
12	0x38fe2052	0.00012117684
13	0x3ab8bf95	0.0014095182
14	0x392ebcdf	0.00016664293
15	0x3a16cc37	0.0005752476
16	0x389fe12b	7.6236516e-05
17	0x39bdcd86	0.00036202016
18	0x3a470026	0.00075912697
19	0x3adbf781	0.0016782136
20	0x3a4d0461	0.0007820782
21	0x39c3f1f7	0.00037373576
22	0x3b53e788	0.0032334048
23	0x390aa81b	0.0001322333
24	0x3a2f0942	0.00066771
25	0x3965bfcd	0.00021910593
26	0x3a415484	0.00073749595
27	0x39b1ed7b	0.00033937008
28	0x3a093c41	0.0005235114
29	0x381fcd00	3.8099475e-05
30	0x3987b902	0.00025887048
31	0x3b858e80	0.004075825
32	0x39a756c9	0.00031917382
33	0x3a9881d0	0.0011635367
34	0x395ade17	0.00020872835
35	0x397c9f2b	0.00024091887
36	0x398393e8	0.00025096466
37	0x3a07dd36	0.00051828043
38	0x37e3803e	2.7120226e-05
39	0x382d66bc	4.1342093e-05
40	0x3b21b12e	0.0024672258
41	0x38ade9aa	8.292806e-05
42	0x38aaeee0	8.1507256e-05
43	0x3880c78f	6.140686e-05
44	0x397dc9c5	0.00024203125
45	0x3a844f69	0.0010094467
46	0x3a817001	0.0009875299
47	0x38a2dac6	7.765512e-05
48	0x38a72b39	7.9712314e-05
49	0x3a884632	0.0010396896
50	0x39115b4c	0.00013862288
51	0x3a847fa4	0.0010108841
52	0x38273b2a	3.9871004e-05
53	0x3a8b4bb7	0.0010627423
54	0x3a36e7cf	0.0006977291
55	0x3a94662b	0.0011321952
56	0x38f98b57	0.00011899199
57	0x39dde1f8	0.00042320765
58	0x3af3b30c	0.0018592789
59	0x39f91f1f	0.00047516168
60	0x395a72cb	0.00020832864
61	0x39b79194	0.00035012944
62	0x398f421b	0.00027324338
63	0x393f1738	0.00018223829
64	0x3954db8b	0.00020299682
65	0x370df97b	8.462342e-06
66	0x37e1ce9e	2.6918304e-05
67	0x39999d9d	0.00029299865
68	0x380cdad3	3.3582397e-05
69	0x37a2b9dc	1.9398452e-05
70	0x37e84a08	2.7691029e-05
71	0x37adb3c1	2.0706912e-05
72	0x39640767	0.00021746532
73	0x3a5f1ee4	0.0008511378
74	0x39ab4888	0.00032669702
75	0x39b06614	0.0003364539
76	0x3a8b7d03	0.0010642115
77	0x39631962	0.00021657863
78	0x3a5e0758	0.0008469722
79	0x386c43f3	5.6330067e-05
80	0x39eef1c6	0.00045575033

exp_avg f4 [9]
0	0xbb99e3f8	-0.0046963654
1	0x3c47d835	0.012197544
2	0xbb1f57dd	-0.0024313845
3	0x3ca0edfe	0.019644734
4	0x3c123bb8	0.008925371
5	0xbcb22017	-0.021743817
6	0x3c213309	0.009838828
7	0x3a81d379	0.0009904943
8	0x3c03851c	0.008027341

exp_avg_sq f4 [9]
0	0x39df3f9a	0.0004258126
1	0x3b8c5516	0.004282604
2	0x3bc63ba9	0.0060495925
3	0x3c1c6859	0.009546363
4	0x3b253679	0.002520947
5	0x3b86f4f3	0.0041185557
6	0x3b76352b	0.0037568312
7	0x39a58114	0.00031567423
8	0x3baa4c54	0.0051970873

exp_avg f4 [10, 9]
0	0x00000000	0.0
1	0x00000000	0.0
2	0x00000000	0.0
3	0x00000000	0.0
4	0x00000000	0.0
5	0x00000000	0.0
6	0x00000000	0.0
7	0x00000000	0.0
8	0x00000000	0.0
9	0xbaaa2bc1	-0.001298301
10	0x3bf8805b	0.0075836605
11	0xbb8b096c	-0.0042430665
12	0xbb54ad7f	-0.0032452045
13	0x3bf3af78	0.007436689
14	0xbad6c86c	-0.0016386635
15	0xbb1f7080	-0.002432853
16	0xb94ada2f	-0.00019345501
17	0xbaad64dd	-0.0013228912
18	0x39ae797f	0.00033278388
19	0x3a16780e	0.00057399354
20	0xba9959bf	-0.001169972
21	0x3a18ac5e	0.00058240246
22	0x3981b56f	0.00024739976
23	0x3a6a4936	0.0008937301
24	0xba7f63a2	-0.00097423245
25	0xb9306b43	-0.00016824626
26	0xb8680960	-5.532184e-05
27	0xbb54d642	-0.003247634
28	0x3c88860e	0.016665485
29	0x3c4cc5d5	0.012498339
30	0x3c831be2	0.016004506
31	0x3c429fd6	0.011878928
32	0xbb9671a7	-0.004591185
33	0x3c27f29d	0.010250715
34	0xbb9eda8e	-0.004847831
35	0xbb6d8273	-0.0036241084
36	0x39dad681	0.00041740018
37	0xbb80238c	-0.0039104875
38	0x3bb3c800	0.0054864883
39	0x3c3ead54	0.011638004
40	0xbbbd1e72	-0.0057714516
41	0xbb9b9856	-0.0047483845
42	0x39c82a47	0.00038178472
43	0xbc15e1f0	-0.009148106
44	0x39583296	0.0002061821
45	0x3a36dadb	0.0006975361
46	0x398d3e51	0.00026940045
47	0x3b57816c	0.0032883538
48	0x3a14300c	0.00056529115
49	0x390e6188	0.00013578509
50	0xb9f907cf	-0.000474988
51	0x3ad97614	0.0016590976
52	0x39db7714	0.00041859655
53	0x3b1b0e2e	0.0023659575
54	0x3aef82e0	0.0018273257
55	0xbc600784	-0.013673667
56	0xbc3572a1	-0.011074693
57	0xbbf71014	-0.0075397585
58	0xbd544d54	-0.05183156
59	0xbbd09b97	-0.006366204
60	0xbc345331	-0.0110061625
61	0xbcab57ef	-0.020915953
62	0xbaf08105	-0.0018348998
63	0xbb36531b	-0.002782053
64	0x3cc8ec90	0.024526864
65	0x3b3ce871	0.002882507
66	0xb7c08411	-2.2949682e-05
67	0x3d5b4880	0.05353594
68	0x3c4a0550	0.012330368
69	0x3c241102	0.010013821
70	0x3cedbd05	0.029020796
71	0xb893fb65	-7.056332e-05
72	0x3ba486b4	0.0050209407
73	0xbd0b7eeb	-0.034056585
74	0xbbf32105	-0.0074197077
75	0xbca2d157	-0.019875212
76	0xbc8e43bb	-0.01736628
77	0x3c048d05	0.008090262
78	0xbc043ffb	-0.008071895
79	0x3bcef3cf	0.0063156853
80	0x3ba1ead2	0.004941323
81	0xba7dc144	-0.0009679983
82	0x3b047865	0.0020213362
83	0xb9822732	-0.00024824735
84	0x3af81c26	0.0018929287
85	0x3ae35a42	0.0017345625
86	0xbb650b3e	-0.0034949328
87	0x393c74b2	0.0001797255
88	0xb9fc70f8	-0.00048149354
89	0xba1ec5f9	-0.0006056722

exp_avg_sq f4 [10, 9]
0	0x00000000	0.0
1	0x00000000	0.0
2	0x00000000	0.0
3	0x00000000	0.0
4	0x00000000	0.0
5	0x00000000	0.0
6	0x00000000	0.0
7	0x00000000	0.0
8	0x00000000	0.0
9	0x384afcb8	4.8395916e-05
10	0x3ae3d65e	0.0017382612
11	0x39e6e69a	0.0004404083
12	0x3a010606	0.0004921857
13	0x3a33ef36	0.00068639533
14	0x38cefe9f	9.870272e-05
15	0x38def567	0.00010631495
16	0x382b4424	4.0833038e-05
17	0x38a6a049	7.945352e-05
18	0x38a192cb	7.7044206e-05
19	0x3a14ca6f	0.0005675917
20	0x393049b9	0.00016812132
21	0x39466093	0.00018918728
22	0x3969c74f	0.0002229486
23	0x39355493	0.00017293011
24	0x389f6ef6	7.602379e-05
25	0x3882b9bd	6.2334795e-05
26	0x39bb71e0	0.00035752263
27	0x3898f5aa	7.293683e-05
28	0x3b33d24d	0.0027438581
29	0x3a05eb46	0.0005108606
30	0x3b319a1c	0.0027099913
31	0x3ae0abd9	0.0017141058
32	0x3921fb82	0.0001544785
33	0x398216ca	0.0002481251
34	0x395dfd56	0.00021170577
35	0x397857bd	0.00023683808
36	0x38fdf7d7	0.00012110144
37	0x3abd4d1d	0.0014442537
38	0x3b1a2141	0.0023518356
39	0x3a805b45	0.0009792825
40	0x3ab251c4	0.001360469
41	0x3a80ea19	0.0009835392
42	0x392cadef	0.00016467994
43	0x39abb7e8	0.00032752682
44	0x3a9777ac	0.0011556051
45	0x38dea3cb	0.00010616294
46	0x384916db	4.794342e-05
47	0x3abb0c91	0.0014270713
48	0x38c099ee	9.183945e-05
49	0x3910ecb3	0.00013821087
50	0x3a0f79fa	0.0005473193
51	0x3895bbac	7.13983e-05
52	0x3905ca7d	0.00012759301
53	0x3a171c83	0.00057644414
54	0x39408b79	0.00018362504
55	0x3aa34a5e	0.0012458076
56	0x3adbf94c	0.001678267
57	0x3a9e1f70	0.0012063812
58	0x3b870e08	0.0041215457
59	0x3b4e4706	0.0031475439
60	0x3986011e	0.00025559304
61	0x3a7363aa	0.00092845655
62	0x3a2ae2b9	0.00065187697
63	0x38b5bd15	8.665972e-05
64	0x3a2ecda6	0.0006668217
65	0x396e52d5	0.00022728306
66	0x39097b13	0.00013111187
67	0x3b55a6a5	0.0032600549
68	0x3992e3db	0.00028017056
69	0x38e319ea	0.0001082903
70	0x3a6dabd4	0.0009066437
71	0x371c4c69	9.316115e-06
72	0x38b14e44	8.454596e-05
73	0x3b338d0b	0.00273973
74	0x3997ff79	0.00028991306
75	0x3a706b8c	0.0009171299
76	0x3ab158a9	0.0013530451
77	0x39491871	0.00019177959
78	0x3923c431	0.00015617978
79	0x39741af9	0.00023279701
80	0x3a71662c	0.0009208645
81	0x390bd5ef	0.0001333577
82	0x38169e73	3.5910354e-05
83	0x399adbea	0.00029537018
84	0x3acdd235	0.0015702905
85	0x39e7e440	0.00044229813
86	0x3b0601d5	0.002044787
87	0x386a4a67	5.585924e-05
88	0x39134e63	0.00014048214
89	0x38845cec	6.3115585e-05

exp_avg f4 [10]
0	0x00000000	0.0
1	0x3bc43063	0.0059872135
2	0x3a05e93d	0.00051083026
3	0x3c84325b	0.016137293
4	0x3b5a0171	0.003326502
5	0xba10f456	-0.0005529573
6	0xbc8512c0	-0.016244292
7	0x3c6b75a9	0.014371314
8	0xbcd6ca10	-0.026219398
9	0x3b2fddaa	0.0026835003

exp_avg_sq f4 [10]
0	0x00000000	0.0
1	0x3a4cd760	0.0007814076
2	0x3a82a65f	0.0009967795
3	0x3a9c656d	0.0011932083
4	0x3adc7d9d	0.0016822104
5	0x3aedc0e0	0.0018139146
6	0x3b0754b8	0.0020649862
7	0x3a879ae9	0.001034585
8	0x3af310b3	0.0018544405
9	0x3af6bd77	0.0018824775

exp_avg f4 [9, 9]
0	0xb9d08f7b	-0.00039779753
1	0x39c9c781	0.0003848635
2	0x39805efa	0.00024484826
3	0x3a00796f	0.00049009075
4	0x39891226	0.00026144198
5	0xb99d6ae0	-0.00030025002
6	0x38c4ee47	9.390391e-05
7	0xb9bd4d17	-0.00036106326
8	0xb91567ff	-0.00014248489
9	0x3a108df7	0.00055143185
10	0x38f41ab1	0.00011639798
11	0xba383075	-0.00070262636
12	0xb978c4ef	-0.00023724487
13	0xb7aa9f75	-2.0339832e-05
14	0xb9aca966	-0.00032932608
15	0x38a500ee	7.867986e-05
16	0x397e2dc2	0.00024240374
17	0x39c60fa1	0.00037777147
18	0xb9689d75	-0.00022183901
19	0xb863abf5	-5.4281165e-05
20	0x37eb73d5	2.8068122e-05
21	0xb927aa66	-0.0001598984
22	0xb94eb4b3	-0.00019713007
23	0x399320be	0.0002806242
24	0x3921d545	0.00015433606
25	0x391455b4	0.00014146307
26	0xb97a1bdb	-0.00023852235
27	0x36eabf45	6.99601e-06
28	0xb6097974	-2.0485286e-06
29	0x372190d1	9.6300655e-06
30	0x36c64ec9	5.9100316e-06
31	0x37614818	1.3427831e-05
32	0xb72c7224	-1.0278574e-05
33	0x35052f8a	4.961554e-07
34	0xb7847ad3	-1.579282e-05
35	0xb686730a	-4.0069035e-06
36	0xbabb2470	-0.0014277827
37	0x3ac0b081	0.001470104
38	0xba4938e0	-0.00076760165
39	0xb9ca0488	-0.00038531818
40	0x38d1fb94	0.00010012757
41	0x393f86de	0.00018265421
42	0xb9101ced	-0.00013743686
43	0x3a0d77c8	0.0005396572
44	0x3a0b1e25	0.0005306921
45	0x3845185f	4.6991157e-05
46	0x38150c06	3.5535566e-05
47	0xba345333	-0.0006878853
48	0xb9932753	-0.00028067324
49	0x39827505	0.0002488272
50	0xb98c8bcc	-0.00026807038
51	0xb9118f03	-0.00013881554
52	0xb84e441b	-4.9177655e-05
53	0x39c9362b	0.00038378066
54	0x38e92c61	0.00011118572
55	0x395f06e6	0.00021269507
56	0xb87eec33	-6.0778297e-05
57	0xb8b228b1	-8.495281e-05
58	0x39f39c4b	0.0004646502
59	0xb9bc3ae4	-0.0003590203
60	0xb6f09996	-7.170437e-06
61	0xb9212d2c	-0.00015370984
62	0x38b2b86f	8.522055e-05
63	0x36a9b7a8	5.057973e-06
64	0xb8ba9a10	-8.8978675e-05
65	0x39a07225	0.00030602622
66	0xb82fee3b	-4.194512e-05
67	0xb9753c0e	-0.00023387393
68	0x395b6aea	0.00020925296
69	0x37aa0cc6	2.0271527e-05
70	0x38dba35d	0.000104731625
71	0xb90ca67c	-0.0001341346
72	0x392e2065	0.00016606001
73	0x38ac4ed0	8.216279e-05
74	0xb69f5867	-4.7488606e-06
75	0x386f8512	5.710597e-05
76	0x38cd3973	9.7858625e-05
77	0xb9807b19	-0.00024505777
78	0xb7d7ac19	-2.5710136e-05
79	0xb90ce52f	-0.00013436818
80	0x38a943ec	8.0711994e-05

exp_avg_sq f4 [9, 9]
0	0x36bb9ba2	5.5911523e-06
1	0x36e537a3	6.831209e-06
2	0x376bb278	1.40486445e-05
3	0x36be7aa1	5.676717e-06
4	0x37169819	8.97611e-06
5	0x372d7736	1.03393595e-05
6	0x3649599f	3.00035e-06
7	0x36207f11	2.391582e-06
8	0x368107d8	3.8454127e-06
9	0x37c11e42	2.3021483e-05
10	0x37ac41d5	2.0534653e-05
11	0x378f1b65	1.7059685e-05
12	0x37ff99e6	3.0470033e-05
13	0x37ce346f	2.458153e-05
14	0x37f5552f	2.9245943e-05
15	0x38074f0d	3.226013e-05
16	0x37398f99	1.1060293e-05
17	0x3791ddb7	1.7388591e-05
18	0x3702f47c	7.805527e-06
19	0x36befaa1	5.6916183e-06
20	0x36c2a28a	5.8005726e-06
21	0x373bf04e	1.1202019e-05
22	0x371cf2ac	9.354826e-06
23	0x3742b8e8	1.1606353e-05
24	0x37b85431	2.1973714e-05
25	0x3624da75	2.4565063e-06
26	0x37b2929d	2.1287526e-05
27	0x35b9d265	1.3844807e-06
28	0x359e81fd	1.1809749e-06
29	0x361624f3	2.237325e-06
30	0x35cd8931	1.5313618e-06
31	0x35ee6e61	1.7764506e-06
32	0x36311655	2.6388054e-06
33	0x36174ab8	2.2544245e-06
34	0x3505a373	4.978421e-07
35	0x3640c000	2.8721988e-06
36	0x381ac6d5	3.6901638e-05
37	0x38383c2f	4.392507e-05
38	0x387fc42e	6.0979444e-05
39	0x37b13159	2.1123024e-05
40	0x384fdb14	4.955668e-05
41	0x3816e436	3.5975325e-05
42	0x37f5867a	2.9268896e-05
43	0x37121acc	8.708517e-06
44	0x383aaba7	4.450572e-05
45	0x376d942c	1.41608e-05
46	0x377d704a	1.51061195e-05
47	0x3828aa40	4.021288e-05
48	0x37174b4b	9.017832e-06
49	0x37ebf945	2.8130258e-05
50	0x37e5159c	2.730899e-05
51	0x368ef22c	4.2601223e-06
52	0x35bae9b1	1.3926093e-06
53	0x3796899d	1.7945475e-05
54	0x36bafbad	5.572531e-06
55	0x366321e4	3.3845363e-06
56	0x363a6edf	2.7780695e-06
57	0x36c32350	5.815564e-06
58	0x368d4b7b	4.2109145e-06
59	0x3684ae5f	3.954206e-06
60	0x36ef0b7e	7.124093e-06
61	0x3571c73e	9.006943e-07
62	0x36693d63	3.4755437e-06
63	0x371072ec	8.609826e-06
64	0x36ee759f	7.1066456e-06
65	0x376db72c	1.4168949e-05
66	0x368a9cad	4.13096e-06
67	0x372ae73e	1.018663e-05
68	0x3745e4b8	1.1795368e-05
69	0x363f9be5	2.855196e-06
70	0x35ae0ecd	1.2968318e-06
71	0x36f43bbf	7.278722e-06
72	0x364d1f40	3.056557e-06
73	0x3683bc82	3.9260494e-06
74	0x36655390	3.41723e-06
75	0x36939034	4.397729e-06
76	0x36744051	3.639627e-06
77	0x367af4d1	3.7395405e-06
78	0x369cdef2	4.6751165e-06
79	0x34889c9c	2.5445922e-07
80	0x36879f2b	4.041843e-06

exp_avg f4 [9]
0	0x3a399ed5	0.0007080858
1	0x39ad47da	0.00033050665
2	0xba275cf4	-0.00063843955
3	0x37035a82	7.8292815e-06
4	0x37f398fc	2.9039096e-05
5	0xba8f1fb2	-0.001091948
6	0x39b66a6b	0.00034793033
7	0x399125d5	0.00027684742
8	0x3959ad20	0.00020759227

exp_avg_sq f4 [9]
0	0x37c22753	2.3144914e-05
1	0x3887c9a0	6.474857e-05
2	0x3836ec22	4.3612097e-05
3	0x37544a54	1.2653491e-05
4	0x39619554	0.00021513301
5	0x38575394	5.1337833e-05
6	0x3730094c	1.0492582e-05
7	0x37a20ded	1.931839e-05
8	0x37118d86	8.6756245e-06

exp_avg f4 [1, 9]
0	0xbb4a94c5	-0.0030911427
1	0x3b029721	0.0019926506
2	0x3aea22a5	0.0017863108
3	0x3ad35a98	0.0016125022
4	0xb9557592	-0.00020357061
5	0xba770619	-0.0009423211
6	0x3a81648e	0.0009871887
7	0xbace87a8	-0.0015756981
8	0x3a635c9f	0.00086731644

exp_avg_sq f4 [1, 9]
0	0x3a70524d	0.0009167537
1	0x393c666f	0.00017967237
2	0x3a0ac76c	0.00052939984
3	0x3b208ef9	0.002449928
4	0x3a2aeb59	0.0006520055
5	0x3996e825	0.0002878319
6	0x395ee2f6	0.0002125612
7	0x399bd3b6	0.0002972164
8	0x39671179	0.00022036386

network_body._body_endoder.seq_layers.0.weight f4 [9, 9]
0	0x3e788917	0.24271046
1	0xbf043878	-0.51648664
2	0x3f8e5fda	1.1123002
3	0x400563e4	2.0842218
4	0xbfefc204	-1.8731084
5	0xbf4dbd3a	-0.8036686
6	0xbf62295a	-0.8834435
7	0xbeec52df	-0.46156976
8	0xc032633f	-2.7873075
9	0x3fa42e81	1.2826692
10	0xbee4c430	-0.4468093
11	0xbf91fcb6	-1.1405246
12	0x3f11adce	0.5690583
13	0xbd2e32fe	-0.0425291
14	0xbe867b03	-0.26265725
15	0x3f5bd07f	0.85865015
16	0xbf2f4d54	-0.6847737
17	0x3d91d4de	0.07120679
18	0xbeae2cdc	-0.340186
19	0xbf9e91e4	-1.2388272
20	0xbfe8ac2f	-1.8177546
21	0xbe073079	-0.13202085
22	0xbff08298	-1.8789854
23	0xbdf3a383	-0.11896422
24	0x3f49d4b7	0.788402
25	0xbfb27fa8	-1.3945208
26	0x3f9c8a4d	1.2229706
27	0xbf1499a4	-0.58046937
28	0x3e94dd16	0.29074925
29	0xbf19d801	-0.6009522
30	0x3ef8478a	0.4849208
31	0x3fc678f6	1.5505664
32	0x3e0888df	0.13333462
33	0x3d9bced3	0.07607808
34	0x3f525401	0.8215943
35	0x3f410a3d	0.7540625
36	0xbf5d3576	-0.864097
37	0xbf0cf196	-0.5505613
38	0x3fe2461f	1.7677649
39	0x3e6a9928	0.22909987
40	0xbed02e93	-0.40660533
41	0x3ee13371	0.4398456
42	0xbe63afcd	-0.22235031
43	0x3e8b8d22	0.27256113
44	0x3f0010f0	0.50025845
45	0xbef05019	-0.4693611
46	0xbf1cf5a6	-0.6131233
47	0x3f8d4cfc	1.1039119
48	0x3f62a9f9	0.8854061
49	0xbf3f6e31	-0.74777514
50	0x3ede55e6	0.4342491
51	0xbf1b7082	-0.6071855
52	0xbe91021a	-0.28321916
53	0xbfc6b7dd	-1.5524861
54	0x3faed629	1.3659106
55	0xbe85cfca	-0.26135093
56	0xbf703b61	-0.93840605
57	0xbec6b63f	-0.38810918
58	0xbf619fe9	-0.8813463
59	0xbdddad01	-0.108240135
60	0x3f98183f	1.1882399
61	0xbf7a9253	-0.97879523
62	0xbee1443b	-0.43997368
63	0xbfda12a3	-1.7036937
64	0xbfdea9f1	-1.7395612
65	0x3f916303	1.1358341
66	0xbeb642b0	-0.35597754
67	0xbf683952	-0.90712464
68	0x3fe5988f	1.7937182
69	0xbf421d4b	-0.7582595
70	0xbe948722	-0.29009348
71	0xbc05496d	-0.008135182
72	0x3f5a7908	0.8534093
73	0x3e3d8748	0.18508637
74	0x3ee46727	0.4460995
75	0xbf50ec7f	-0.81610864
76	0xbfafe257	-1.3740948
77	0xbf563faa	-0.83690894
78	0x3f2ec827	0.6827416
79	0x3ef61a4a	0.48066932
80	0x3ecac8c9	0.39606312

network_body._body_endoder.seq_layers.0.bias f4 [9]
0	0xbf2808f5	-0.6563867
1	0xbf76a00b	-0.96337956
2	0xbe251d89	-0.16124548
3	0x3f2806c1	0.65635306
4	0x3ded07af	0.11573731
5	0xbf640e30	-0.8908415
6	0xbfab98ac	-1.3405967
7	0xbfa2feb4	-1.2733979
8	0xbf9bc8a5	-1.2170607

value_heads.value_heads.extrinsic.weight f4 [1, 9]
0	0xbe76c007	-0.2409669
1	0x3f21ea2c	0.6324794
2	0xbe940621	-0.28910926
3	0xbb2af20e	-0.0026084217
4	0x3f111c44	0.56683755
5	0x3f41723f	0.7556495
6	0x3ee2e44b	0.443148
7	0xbea5dcea	-0.32395107
8	0x3e9ba933	0.30402526
