Assets/onnx/TTT_29/O_Behavior.onnx (onnx, 4530 bytes, 6 tensors)

network_body._body_endoder.seq_layers.0.weight f4 [16, 9]
000000 bb 79 a6 be 12 b8 a1 bf 90 09 7a bf 12 25 bf 3f
       -0.32514748 -1.2634299 -0.9767084 1.4933188
000010 51 97 2a 3f 72 5c 95 3f b4 84 fa 3c 67 78 70 3f
       0.6663714 1.1668837 0.030580856 0.9393372
000020 d8 fa 01 3e 3f f7 cd be 8d 9b 26 3e e5 7f 75 be
       0.12693346 -0.40227696 0.16270275 -0.23974569
000030 eb 56 20 bf a0 5c a9 3e fe e3 43 3e 34 88 28 3f
       -0.62632626 0.3307848 0.19129941 0.6583283
000040 be 43 d2 3d 51 a9 f2 3e 4c cb 0f 3e 31 bc 29 3f
       0.10266827 0.47394803 0.14042395 0.6630278
000050 d6 c8 b5 3e 8f 0b ab 3e 65 cf 07 bf 20 01 5e 3f
       0.35504788 0.33407256 -0.53050834 0.86720467
000060 15 4c d3 bf a3 33 55 3f 08 11 82 bf 11 24 08 3f
       -1.6507593 0.83281916 -1.0161448 0.5318003
000070 18 17 85 3e f3 ed 8f bf 3f 72 2a 3e 17 75 c3 3f
       0.25994182 -1.1244491 0.16645144 1.5270108
000080 33 71 a5 bf c9 91 25 bf 87 d6 21 bf e9 49 4a 3f
       -1.2925171 -0.64675575 -0.6321797 0.7901903
000090 83 08 a8 3c 28 22 bc 3d 2f be 0e 3f 9e 26 7f be
       0.020511871 0.09186202 0.5575895 -0.24917075
0000a0 eb 18 a1 bf 02 5d ee bd 9b 4d 25 bf 60 f1 68 bf
       -1.2585729 -0.116388336 -0.6457154 -0.9099331
0000b0 41 ef 75 3e e7 80 b3 be 03 af a3 3e 05 de 85 bf
       0.2401705 -0.35059282 0.3196946 -1.045838
0000c0 ce 78 37 bf 96 0d 41 bf 4a 2b 96 be 2c ce 95 3f
       -0.7166871 -0.75411355 -0.29329902 1.1703544
0000d0 b4 47 17 3f c6 c7 db 3f de e3 a0 3f af fa ec 3e
       0.59093785 1.7170341 1.256954 0.46285006
0000e0 80 c5 97 3f 37 77 50 bf aa 00 dd be f6 ba 67 be
       1.1857147 -0.8143191 -0.4316457 -0.22629914
0000f0 5c 43 af bf 8b 45 02 bf e0 3e 80 bf a9 df bd bf
       -1.3692431 -0.50887364 -1.0019188 -1.4833881
000100 e2 e2 bd 3e 0d a7 23 bf 58 48 02 40 4e 91 1a 3f
       0.3708716 -0.63926774 2.0356655 0.6037797
000110 fc 4f 30 3f b3 59 95 be c6 f6 5d bd 94 84 f0 be
       0.68872046 -0.29169998 -0.05419042 -0.4697615
000120 a6 76 5a bf c1 29 bf be dc d9 63 be 34 6c 5b bf
       -0.85337293 -0.37336543 -0.22251076 -0.8571198
000130 a7 f7 68 3e 15 7c 9b 3e 7c bb 9a 3e f1 d2 09 3f
       0.22750722 0.30368105 0.30221164 0.53837496
000140 b6 0d 8c 3f c3 cb 94 3d 1f da f0 be 3e c4 e8 3e
       1.0941684 0.07265427 -0.47041413 0.4546222
000150 4a 66 30 bf 7f a9 9d bf 3c 56 b6 3c bc b5 f4 3e
       -0.6890608 -1.2317351 0.022257917 0.47794902
000160 eb 0c 55 bf f8 03 5a 3f c0 15 8a 3e 37 13 29 bf
       -0.83222836 0.85162306 0.2696972 -0.66044945
000170 97 8a 0a 3e 55 3d 93 bf 6b e3 cc be 5a 72 6e be
       0.1352943 -1.1503092 -0.40017256 -0.23285809
000180 82 a2 cb 3f 50 c8 ef be 04 a8 ae 3e 76 08 11 3e
       1.5908968 -0.46832514 0.3411256 0.14163384
000190 e6 56 a4 bf 9e 83 cf 3e 34 c7 8e bf a5 c7 62 bf
       -1.2839019 0.40530103 -1.1154542 -0.88585883
0001a0 39 21 6e 3e d4 86 d4 3f c0 69 fb be 76 85 9d 3e
       0.23254861 1.6603646 -0.49104118 0.30765885
0001b0 60 b1 b6 3e 00 9c 50 3f 0c e3 fb 3e a2 a1 88 3f
       0.356822 0.8148804 0.4919666 1.0674326
0001c0 aa 30 9a bf 9a a3 83 bf e5 99 82 be 32 16 bf 3e
       -1.2046101 -1.0284302 -0.25508037 0.3732162
0001d0 e5 ea 89 bf cd 01 1d 3f c6 77 a8 bf 74 49 61 be
       -1.0774809 0.6133087 -1.3161552 -0.22000676
0001e0 fe fb 93 bf 03 f8 c5 3e af f7 a1 bf e2 60 81 3f
       -1.1561277 0.3866578 -1.2653712 1.0107691
0001f0 dd 52 0a 3f c8 cc 0f be 1d cb b9 3e 1b 03 35 bf
       0.5403269 -0.14042962 0.36287776 -0.70707864
000200 04 fb 43 3f 69 41 56 3f d5 1d 8a be b7 6f 7c bd
       0.76554894 0.8369356 -0.26975885 -0.061629977
000210 61 06 9b bf 9e c7 86 be 3b 35 10 3f 35 6d 86 bf
       -1.2111322 -0.2632417 0.56331223 -1.0502077
000220 7a e6 a4 bd 56 2a 3d 3f 68 55 39 3e 76 30 1c 3e
       -0.080517724 0.73892725 0.18098986 0.15252861
000230 7d ee a8 3f 0a 63 d1 bf a5 1f 82 be b1 08 0b 40
       1.3197781 -1.6358349 -0.25414768 2.1724055

network_body._body_endoder.seq_layers.0.bias f4 [16]
000000 05 c2 da 3e 64 70 a8 bd 64 7a d3 be 61 99 8d 3f
       0.4272615 -0.08224562 -0.41304314 1.1062433
000010 6b 07 94 be d5 0e 2a 3d 34 5f f8 3d 40 1d a3 3d
       -0.2891191 0.04151805 0.121275336 0.07964563
000020 17 6e 9d 3e db fd 22 bf bc c8 84 be 18 c3 8a 3e
       0.30748054 -0.636686 -0.25934398 0.2710197
000030 54 dc cb bd 07 97 27 3f df 4f 3e 3b 06 fe 88 bc
       -0.09954134 0.65464824 0.0029039306 -0.01672269

network_body._body_endoder.seq_layers.2.weight f4 [16, 16]
000000 6f bc b8 be fb bf 72 bf 21 98 a4 3e df e5 98 bf
       -0.36081263 -0.9482419 0.32147315 -1.1945151
000010 54 79 f7 3e 1d 1a 08 c0 4c 31 9d 3f 9c 9f 11 3e
       0.48334754 -2.1265938 1.2280669 0.14221042
000020 4e 0c f9 bf ea b2 8a be 2f fc 1f bf 84 38 89 3d
       -1.945688 -0.27089626 -0.62494177 0.067002326
000030 b1 89 e5 3f 9e 0b b4 3e e4 a4 ad be bf 00 9a bf
       1.7932645 0.35165113 -0.33914864 -1.2031478
000040 be 18 43 bc b9 09 82 bc f6 66 76 3e 49 a0 e8 bd
       -0.0119077545 -0.015873777 0.24062714 -0.11358697
000050 6f a8 81 bf ff 25 cf 3e 4f 5c 49 bf 55 30 64 be
       -1.0129527 0.40458676 -0.78656477 -0.22284062
000060 b7 a7 07 be 69 d6 ee 3d ef 44 5b be 23 72 39 bf
       -0.13247572 0.11661989 -0.21413015 -0.72439784
000070 c8 fe df be ac 12 19 bf f3 67 16 3f d7 39 d8 bd
       -0.4374907 -0.59794116 0.58752364 -0.10557907
000080 d5 31 c0 be a9 c6 56 3e 22 05 21 bf cf e5 e0 3e
       -0.3753802 0.2097422 -0.6289846 0.4392533
000090 e0 93 80 bf 4e b1 b0 3e 15 a4 d4 be a5 30 91 bf
       -1.0045128 0.34510273 -0.41531435 -1.134297
0000a0 91 bd 24 3f 81 42 c6 3c be 2d 8a 3d 65 e5 62 bf
       0.64351755 0.024201633 0.06747006 -0.8863128
0000b0 98 b0 aa be ce 8a ad bf 57 d7 66 3f 59 09 18 3f
       -0.33337855 -1.3557985 0.9017233 0.59389263
0000c0 86 8c e0 bf b7 5a 59 be f1 9f ab bf d5 f5 fc bb
       -1.7542884 -0.21226011 -1.3408185 -0.007719735
0000d0 bb 1e 16 3f 18 c1 31 3f b6 1b 49 be 30 1a e8 be
       0.5864064 0.6943526 -0.19639477 -0.4533248
0000e0 59 8a 10 3d 62 27 4d 3e 74 f3 90 bd dc 9c 31 be
       0.03528819 0.20034555 -0.07077685 -0.17344993
0000f0 a8 18 20 3f c9 ae 9a be 62 fb 34 3f 8b 4a 9b 3e
       0.6253762 -0.30211475 0.7069608 0.3033031
000100 2a 83 8f bf 3c ff f4 be 39 2b ca 3d 9a f3 44 bf
       -1.1211903 -0.47850978 0.09871525 -0.76934206
000110 02 31 8b 3f 42 04 3c bf da d0 35 3f 78 2f 2c bf
       1.0874331 -0.73443997 0.7102181 -0.6725993
000120 41 35 4a 3e ff 0a 64 3f 3e e5 2a bf fb 3d 67 ba
       0.19746877 0.8907928 -0.66756046 -0.00088211865
000130 b9 98 9e bd d7 bc 87 bf 38 54 3c 3f 7e dc 8a 3f
       -0.07743973 -1.0604504 0.7356601 1.0848539
000140 9d d4 81 bf 89 fb 4d bd e9 e0 35 bd 96 3d c2 bf
       -1.014301 -0.05028871 -0.044403944 -1.5175045
000150 ce af 32 be dc d5 81 3f df 50 38 bf ca d1 86 be
       -0.17449877 1.014339 -0.719984 -0.2633193
000160 29 2a be 3e 91 2f 1a 3e 8c 90 aa be a0 22 d8 3e
       0.3714154 0.15057208 -0.33313406 0.42213917
000170 09 2f 4b 3c 7f fd 45 bf 75 0f 26 bf 07 3b 1b 3f
       0.012401351 -0.7733993 -0.64867336 0.60636944
000180 fa 55 ca 3f 1a e9 10 3f c9 17 87 3f 85 7e 29 3e
       1.5807488 0.56605685 1.0554134 0.1655217
000190 cb 0a 01 bf ce d2 ac be de b1 a1 bf a3 54 80 3f
       -0.50407094 -0.3375458 -1.2632406 1.0025829
0001a0 2f 67 1f bf e0 ea 53 be 4b c7 d4 3e e5 d7 7f bf
       -0.6226682 -0.20695066 0.41558298 -0.99938804
0001b0 da 37 49 3e 05 d4 24 bf 85 71 e5 bd b3 e5 77 be
       0.19650212 -0.64386016 -0.11203293 -0.24208717
0001c0 7d d7 1b 3f d3 35 84 be d7 e6 28 bf 06 92 c4 3e
       0.60875684 -0.25822315 -0.65977234 0.38392657
0001d0 f5 88 3b bf 4f 71 a7 3f a2 17 51 bd 4e 5a 86 bf
       -0.73255855 1.3081454 -0.05104793 -1.0496309
0001e0 56 51 07 3f ee 1f 0a bf b2 a7 24 3f fd 10 33 3f
       0.52858484 -0.5395497 0.6431838 0.699478
0001f0 4c 45 45 bf 0d 51 0f 3f 9e b7 26 3d 56 3f 5f bf
       -0.77058864 0.5598305 0.040702455 -0.8720602
000200 85 f5 94 3f 69 da 07 3d 8f aa 60 3f 04 29 8e be
       1.1637427 0.033167277 0.8776025 -0.27765667
000210 5e 4d 2a bf 81 99 e0 be 92 4a 8e bf 4f 34 8a 3f
       -0.665243 -0.43867114 -1.1116507 1.0797213
000220 8c a7 71 bc 15 c9 09 bf 1b c2 08 bf fa f7 83 bf
       -0.014749419 -0.5382245 -0.5342118 -1.0310051
000230 a8 34 66 3b e6 91 6a bf 62 be e4 bc e8 0f 9c bd
       0.00351266 -0.91628873 -0.027922813 -0.076202214
000240 66 b2 a0 be 55 c5 11 bf 10 4a 9e 3d 11 13 52 3f
       -0.31386107 -0.5694173 0.0772897 0.82060343
000250 27 e3 bc bd 53 6c 5d bf 11 2b 92 3f 78 c7 97 bf
       -0.09223013 -0.86493415 1.1419393 -1.1857748
000260 fe 68 92 be d3 d0 c7 be 39 f5 85 3d 65 2a 3f 3f
       -0.28595728 -0.39026508 0.06540913 0.74674064
000270 e4 59 01 bf d3 da 0e 3f f8 20 eb be f1 ba e2 be
       -0.5052779 0.5580265 -0.4592359 -0.4428325
000280 e9 1a df 3e c7 d9 ec 3e 35 93 4f bf 72 ba bf 3f
       0.43575218 0.462599 -0.81083995 1.4978774
000290 30 bc cc be 2c 8c da 3e be ad 3c bf 94 d2 bb 3e
       -0.39987326 0.42685068 -0.7370261 0.36684096
0002a0 c7 d8 8b 3f 34 76 dc bf 34 04 81 bf 52 7c 00 bf
       1.092553 -1.7223573 -1.0079408 -0.501897
0002b0 da b7 12 bf 12 2f 10 3f 61 84 74 bf 1a fd 86 3f
       -0.57311785 0.56321824 -0.95514494 1.054599
0002c0 5f 67 91 be d6 ec e4 bd 12 a6 9d 3e d1 2b 51 3f
       -0.28399178 -0.11177985 0.30790764 0.81707484
0002d0 13 1a 2e 3f 16 2e 35 bf 96 78 87 3f 0b 9d d6 be
       0.68008536 -0.70773447 1.0583675 -0.4191669
0002e0 be f1 1a bf ff 58 a0 3f 48 77 83 3f 90 1f 2e 3f
       -0.6052512 1.252716 1.0270777 0.6801691
0002f0 1b 67 83 bd 4e 9c 8f 3d b6 af 2c 3f 2d a1 7a bf
       -0.0641615 0.07012235 0.67455614 -0.97902185
000300 d8 4a 80 3e 97 ff 41 bd 32 72 91 3e c2 9d a8 bd
       0.250571 -0.04736289 0.28407437 -0.08233215
000310 88 f1 8a bf e9 26 4a bf 89 d2 60 be 5f bd 90 bc
       -1.085496 -0.7896562 -0.21955313 -0.017668424
000320 79 c9 55 bd f4 64 d6 3c 1e dd 2c 3e 00 d2 64 bf
       -0.052194092 0.026171185 0.16881225 -0.89382935
000330 d6 d5 a3 3e f0 b1 96 bf 54 78 1b 3f 56 44 ae bd
       0.3199908 -1.1773052 0.6073048 -0.08509128
000340 b4 14 39 bf 41 01 a1 bd 7b 3f 15 bf ea 54 80 bf
       -0.72297215 -0.07861567 -0.5829999 -1.0025914
000350 ad d8 16 3f d5 59 12 be cb 37 83 3e 45 c4 e0 3d
       0.5892437 -0.1429208 0.25628504 0.109749354
000360 87 4a 57 bf a4 f5 86 3f f2 5e 94 3f c6 86 52 3f
       -0.84098095 1.0543714 1.1591475 0.822369
000370 3d 91 2c 3f 62 e6 6a 3f 06 59 f8 be 34 86 15 c0
       0.67409116 0.91757786 -0.4850542 -2.336316
000380 5d 13 d7 3e fe 0b 20 3f d7 7b af 3e 42 82 a0 bf
       0.4200696 0.625183 0.3427417 -1.2539752
000390 20 5d 2c 3f bd 14 a1 3e 79 34 b8 3e 9f cf 10 bf
       0.673296 0.31461135 0.35977533 -0.56566805
0003a0 95 63 ae 3e 29 37 9c 3f 80 0d ae 3f 8a 63 85 3f
       0.3406035 1.2204334 1.359787 1.0421002
0003b0 1f 7f 9d bf 50 2c d9 3e a5 17 49 bf c7 58 3a be
       -1.2304419 0.4241662 -0.78551704 -0.18197928
0003c0 55 46 86 be ea 41 23 3d 45 f2 96 bd 97 1c ea be
       -0.26225534 0.039857782 -0.07370428 -0.45724937
0003d0 ae bd 3a bf b7 c6 82 bf e6 bc 03 be cd f7 41 3e
       -0.7294568 -1.0216893 -0.12865028 0.18942185
0003e0 74 c3 84 3e 5c 5c 51 be 90 30 0a 3e 88 e2 a8 bf
       0.2593037 -0.20445389 0.13495088 -1.3194132
0003f0 13 bc 96 be 7a aa 58 bf 29 85 15 3f 0e 24 08 3e
       -0.29440364 -0.84635127 0.5840631 0.13295004

network_body._body_endoder.seq_layers.2.bias f4 [16]
000000 b6 30 7c 3e 49 5d 81 bf 44 f3 02 bf 56 e5 92 bf
       0.24627957 -1.0106593 -0.51152444 -1.1476238
000010 de f0 c5 be ba 1e 86 be 78 39 1f bf 54 72 70 3e
       -0.3866033 -0.26195318 -0.62197065 0.23481113
000020 c1 80 25 bf 2f 8e 81 3f 23 0f 33 3f 5f 7b 06 be
       -0.6464959 1.0121516 0.6994497 -0.13133
000030 b1 d0 3b bf 01 6c 0b bf 8d 72 04 bf bc 51 42 bf
       -0.7336531 -0.54461676 -0.5173729 -0.75905967

action_model._discrete_distribution.branches.0.weight f4 [10, 16]
000000 aa 7f f9 3b fb 9e 22 3c db 9f 6f bc 01 ff 44 3c
       0.0076140957 0.009925599 -0.014625515 0.012023688
000010 dc d2 3e 3d ba 10 ec 3c c6 d0 18 3c 15 81 53 3c
       0.04658781 0.02881657 0.009327119 0.0129091935
000020 91 31 1f bd ad 1a 10 bc 49 20 bd bb 07 fb 65 bc
       -0.03886563 -0.0087954225 -0.005771671 -0.0140369
000030 ee 77 28 ba 37 e1 f1 3c 38 ff 38 3d 72 97 d0 3b
       -0.00064265623 0.029526336 0.04516527 0.00636571
000040 74 8b 45 3f f5 c6 b2 be c3 8f 95 3e ef 77 dc 3d
       0.77165914 -0.34917417 0.29211244 0.10765063
000050 5a 1e bc 3e 2c 89 5f bf c9 4a ed 3e 41 08 c3 3d
       0.36741906 -0.8731868 0.4634612 0.09523059
000060 67 82 e1 3e ec 4f 1e be 33 59 64 3f 0a ce 0a be
       0.44044802 -0.15460175 0.8919861 -0.1355516
000070 95 48 b2 bd e9 e2 12 3f b2 9f 7b bf 5d e7 91 3e
       -0.0870525 0.5737749 -0.9829055 0.2849683
000080 c1 05 1c 3f 62 78 16 3e b9 b8 1f be 50 c7 c5 3e
       0.6094628 0.1469436 -0.1559781 0.38628626
000090 2a df 1a 3f d1 3a 07 bf 3a 65 5f 3d 20 8f 31 bf
       0.6049677 -0.5282412 0.054539897 -0.69359016
0000a0 ff d0 2d bd 53 c6 18 3f 43 c4 50 bf 0b c8 94 3f
       -0.042435642 0.5967762 -0.8154947 1.1623548
0000b0 fb 1f a9 be 96 9f bf 3e 84 4b a5 3e 10 d5 42 be
       -0.33032212 0.37426442 0.32284176 -0.1902659
0000c0 0f 64 39 3f fb a9 82 be 08 f6 9f bf 1a ac 10 bf
       0.724183 -0.2552031 -1.2496958 -0.56512606
0000d0 53 c3 e0 3e 30 6b fd 3e 39 c7 34 3e 5c ca fa be
       0.4389902 0.4949584 0.17654122 -0.48982513
0000e0 f6 d5 17 be 95 2b 5b 3e 2f e4 2a 3f 6c 26 70 3e
       -0.14827713 0.21403344 0.6675443 0.23452157
0000f0 d0 67 49 bf bc 3c dc bd 35 dd 47 3f 34 81 4c bf
       -0.7867403 -0.10753772 0.7807191 -0.7988465
000100 47 4c 77 bf 4a 4b 62 3f 99 04 57 3f 84 0e 4d 3f
       -0.96600765 0.8839613 0.8399139 0.80100274
000110 15 fb 10 bf 93 19 a1 bd a0 e5 05 3f 1f 18 44 bf
       -0.5663312 -0.07866206 0.52303505 -0.76599306
000120 8d 61 4a 3f 7b 9e 98 bf ca 6a 2b bf a0 ab 37 bf
       0.790551 -1.1923364 -0.6695982 -0.71746254
000130 c9 ee 72 3f a7 3b ee 3e 9f 9d ee be 6c 29 ab 3f
       0.9489561 0.46529886 -0.4660463 1.3372016
000140 4c 86 39 3f df ad 88 be 74 68 f0 3e 90 da 36 3e
       0.72470546 -0.26695153 0.4695469 0.17856812
000150 01 b1 d4 be 87 56 8e 3e 70 ff cb 3e da 2d fc 3e
       -0.41541293 0.2780039 0.3984332 0.49253732
000160 eb 65 e4 3e 1b 1a 73 3f a9 eb 91 3e 89 f3 61 be
       0.44609007 0.9496171 0.28500107 -0.22065558
000170 d1 25 c6 3d 92 43 13 3f 1d 6a 96 3f d6 8b c2 bd
       0.09675182 0.5752498 1.1751133 -0.09499328
000180 0c dd f5 bf 13 74 31 be 16 85 87 3e 9c f1 94 3f
       -1.9208083 -0.17329435 0.26468724 1.1636233
000190 6e b2 8c 3f 39 c7 35 3f fb 22 0e 3f 5a 57 4a be
       1.0991952 0.71007115 0.55522126 -0.19759884
0001a0 e8 90 38 3f 82 92 b5 bf 06 c4 b0 be 70 a4 c0 bf
       0.7209611 -1.4185336 -0.34524554 -1.5050182
0001b0 00 50 7d 3f 59 8d 62 bf 89 98 af 3e e1 dd 0e 3f
       0.98950195 -0.8849693 0.34296063 0.5580731
0001c0 b9 55 e9 be 39 1f 43 3e 15 4c 20 3e 1e ef f0 be
       -0.45573214 0.19054879 0.15654023 -0.47057432
0001d0 cc 9c 9d be b5 3e e5 bc 5a da fb be b0 db 84 3f
       -0.3078369 -0.027984003 -0.49190027 1.0379543
0001e0 31 6f a8 be 67 54 74 be 68 d1 1a bf d2 c3 68 bd
       -0.32897332 -0.23860322 -0.6047578 -0.056827374
0001f0 ae 6c 5a be b5 9a 48 be ff 58 bb 3e 57 bf 0f 3f
       -0.2133052 -0.19590266 0.36591336 0.56151336
000200 3a 94 c7 3e 34 4b 36 3f 09 fb cb 3e 3d fa e0 3d
       0.38980275 0.712085 0.39839962 0.10985229
000210 48 0c 02 bf a0 46 bb be 18 4e df 3d ab 17 c3 3e
       -0.5079999 -0.3657732 0.10903567 0.38103995
000220 85 f3 7b 3e 3b 61 80 be 47 83 cb bf 72 d1 8b 3f
       0.24604614 -0.2507418 -1.5899438 1.0923293
000230 3c db 7f 3f 80 19 53 3f 20 8a 7d 3e 2f 0d 87 3e
       0.999439 0.82460785 0.24759722 0.26377246
000240 16 80 14 bf a3 5a 56 bf ec 16 b7 bf 5c 76 8b bf
       -0.58007944 -0.8373205 -1.430387 -1.0895495
000250 19 f9 b2 bd 8e 3e ad ba 5d b9 af bf 2a 26 90 3e
       -0.08738918 -0.0013217495 -1.3728443 0.28154117
000260 60 c3 df bf 67 51 54 3f ea 21 8b 3f 9e 7c da be
       -1.7481499 0.8293671 1.0869725 -0.426732
000270 bc ba 90 bf 43 69 07 c0 5a 5f bd bf f2 90 90 bf
       -1.1306987 -2.1157997 -1.4794724 -1.1294234

action_model._discrete_distribution.branches.0.bias f4 [10]
000000 00 00 00 00 52 9f 51 bd 37 f9 e5 be bd e6 fc 3e
       0.0 -0.05117733 -0.44916698 0.4939479
000010 67 2e a8 bf 5a f0 f4 3e 0a 1d 48 be f0 ec dd 3d
       -1.3139161 0.47839624 -0.19542328 0.10836208
000020 d2 4a 55 bf b2 45 96 3f
       -0.8331729 1.1740019
