Assets/onnx/Random_TTT_15_2/X_Behavior/X_Behavior-300004.pt (torch, 14695 bytes, 21 tensors)

network_body._body_endoder.seq_layers.0.weight f4 [9, 9]
0	0x3e2465e1	0.16054489
1	0x3f068d4d	0.5255936
2	0xbe7ecba6	-0.24882373
3	0x3eaada0c	0.33369482
4	0x3e001395	0.1250747
5	0xbf20ded3	-0.6284
6	0xbecffcec	-0.40622652
7	0x3d9a47d9	0.07533235
8	0x3f6ba87e	0.92053974
9	0x3f2335a6	0.63753736
10	0x3f20a0d6	0.62745416
11	0xbeafc7b7	-0.34332058
12	0x3f4b8558	0.7950034
13	0xbf17ee86	-0.5934833
14	0x3ed75244	0.4205495
15	0xbf40d841	-0.7532998
16	0x3f4afec1	0.79294974
17	0x3fbdcd0c	1.48282
18	0xbf4f2de6	-0.8092941
19	0x3f237ad4	0.63859296
20	0x3f80777a	1.0036461
21	0x3f253a1b	0.64541787
22	0xbe8a656c	-0.27030504
23	0x3fa42b42	1.2825701
24	0xbe400a6c	-0.18753976
25	0x3da73e2d	0.08166156
26	0xbe941fe8	-0.28930593
27	0x3db1ce3b	0.086819135
28	0xbf8ea905	-1.1145331
29	0x3fa63893	1.2986015
30	0x3ecf0810	0.4043584
31	0xbdb5367a	-0.08848281
32	0x3f38febb	0.7226369
33	0x3d288238	0.04113981
34	0xbea46e01	-0.32115176
35	0x3ebdcb1d	0.37069026
36	0x3fb82bbf	1.438835
37	0xbe246019	-0.16052283
38	0xbf47a9af	-0.7799329
39	0x3f82f81a	1.0231965
40	0xbf2aabdb	-0.6666848
41	0x3f87fe21	1.0624429
42	0x3f6bdffc	0.9213865
43	0xbeda7a71	-0.4267154
44	0xbde48297	-0.111577205
45	0x3e63f107	0.22259913
46	0xbeb844c6	-0.3598997
47	0x3f69b2a5	0.91288215
48	0x3f5cf9f2	0.86318886
49	0xbe990801	-0.2988892
50	0x3f2ca8aa	0.6744486
51	0xbf1682cd	-0.58793336
52	0x3f350306	0.7070774
53	0x3f148c18	0.58026266
54	0xbf3381a5	-0.70119697
55	0x3f80e1c5	1.0068899
56	0xbf6edcae	-0.9330548
57	0xbe140480	-0.14454842
58	0xbe611bc9	-0.21983255
59	0x3f528c7d	0.8224562
60	0x3f677c27	0.90423816
61	0x3e0ce29d	0.13758321
62	0x3e923998	0.28559566
63	0xbfa1ef5f	-1.2651175
64	0x3f2046f0	0.6260824
65	0x3fa7e64d	1.3117157
66	0x3ef7058f	0.48246428
67	0xbf3bba88	-0.733315
68	0xbe195f72	-0.14977816
69	0x3fcb0d00	1.5863342
70	0x3dca3805	0.09873966
71	0xbf10a4e6	-0.56501615
72	0xbeaa566d	-0.33269063
73	0x3efe3575	0.4965016
74	0xbd5ae796	-0.053443514
75	0x3f0ecbc1	0.55779654
76	0x3ed088e8	0.4072945
77	0x3f191989	0.5980459
78	0x3f8151d6	1.0103099
79	0x3f7e17b7	0.99254936
80	0xbdca0910	-0.0986501

network_body._body_endoder.seq_layers.0.bias f4 [9]
0	0x3f550723	0.83214015
1	0x3f8774c8	1.0582514
2	0x3f81219a	1.0088379
3	0x3f5245e7	0.8213791
4	0x3f5bbd43	0.85835665
5	0x3f716add	0.94303685
6	0x3f82dd04	1.0223699
7	0x3f6d2cea	0.9264666
8	0x3f92adb1	1.1459256

action_model._discrete_distribution.branches.0.weight f4 [10, 9]
0	0x3d33010a	0.043702163
1	0x3ca93787	0.02065636
2	0xbd5c988f	-0.05385643
3	0x3bb2a51d	0.005451812
4	0x3d46bb79	0.04851863
5	0xbc7cb717	-0.015424511
6	0x3b1ac422	0.002361544
7	0xbcf1c1a3	-0.029511278
8	0xbd0b9bed	-0.03408425
9	0xbeaeb8d4	-0.34125388
10	0xbe8fef14	-0.2811209
11	0x3dfae353	0.1225039
12	0xbd4e6d3c	-0.050397143
13	0x3e7bda5b	0.24595015
14	0xbd88ffa3	-0.06689384
15	0x3d035508	0.032063514
16	0x3ee9cee9	0.45665672
17	0x3ee6e376	0.45095414
18	0xbc97bbf1	-0.018522235
19	0xbe8adbdd	-0.27120867
20	0xbe82bdf0	-0.25535536
21	0x3d999a82	0.07500173
22	0xbc1fe5a9	-0.009759345
23	0xbeae0656	-0.3398921
24	0x3ea3b160	0.31971264
25	0xbd8c0f77	-0.06838887
26	0xbcbbc1e7	-0.022919608
27	0x3ee32abf	0.4436855
28	0x3f0bafd3	0.5456516
29	0x3e218bf5	0.15776046
30	0x3e1da017	0.153931
31	0xbe7bf9e9	-0.24607052
32	0x3edfb861	0.43695357
33	0x3b716432	0.0036833403
34	0xbedf58ad	-0.43622342
35	0x3d4c286f	0.049843248
36	0xbdbc9ee8	-0.092099965
37	0xbea7f608	-0.32804894
38	0xbec6163d	-0.3868884
39	0xbea73f39	-0.32665423
40	0xbf4f0127	-0.80861133
41	0xbe9b2d13	-0.30307826
42	0xbeef7167	-0.46766207
43	0xbeb7c6bf	-0.3589382
44	0xbf198fb0	-0.59984875
45	0x3f00529f	0.5012607
46	0x3f49782c	0.7869899
47	0x3f2dd7b0	0.6790724
48	0x3eed80d6	0.46387357
49	0x3f1b91ac	0.6076915
50	0x3f24ab39	0.64323765
51	0x3f09d50e	0.5384072
52	0x3f2a0c41	0.6642495
53	0x3f482062	0.7817441
54	0xbecd25e0	-0.4006796
55	0xbf3982c2	-0.72465146
56	0xbf23a386	-0.6392139
57	0xbf22b985	-0.6356433
58	0xbeae4c38	-0.34042525
59	0xbf4ab731	-0.7918578
60	0xbdf6eef6	-0.12057297
61	0xbf073e06	-0.52829015
62	0xbe76e532	-0.24110869
63	0x3d9fd2db	0.07803889
64	0x3ed45864	0.41473687
65	0xbe509c59	-0.20372142
66	0xbeb0b36f	-0.34511897
67	0x3f11579b	0.567743
68	0xbdf31535	-0.11869279
69	0x3e1e4229	0.15454926
70	0xbecd962e	-0.4015364
71	0xbe011e08	-0.12609112
72	0xbeb4d302	-0.35317236
73	0xbe95b3e4	-0.29238808
74	0xbe51e1a5	-0.20496233
75	0x3e64e7fa	0.22354117
76	0xbbe32468	-0.00693183
77	0x3e11fb61	0.1425605
78	0xbee7291d	-0.45148554
79	0xbea4e199	-0.32203367
80	0xbf12a2a7	-0.5727944
81	0x3cfd90bc	0.030952804
82	0xbe2939c4	-0.16525942
83	0x3eba7985	0.36420837
84	0x3de99453	0.11405244
85	0xbed42ff3	-0.41442832
86	0x3d9b26ea	0.07575782
87	0x3d9b0756	0.075697586
88	0x3f0d5cfe	0.5522002
89	0x3db5d1ae	0.08877884

action_model._discrete_distribution.branches.0.bias f4 [10]
0	0x00000000	0.0
1	0x3df68cae	0.12038551
2	0xbe6ff5fa	-0.23433676
3	0x3e7da8dd	0.24771447
4	0xbf198241	-0.59964377
5	0x3f4dc600	0.8038025
6	0xbed4639b	-0.41482243
7	0xbb1fcb95	-0.002438282
8	0xbed48130	-0.41504812
9	0xbc9a1eec	-0.018813573

exp_avg f4 [9, 9]
0	0x3a153ce1	0.00056929706
1	0xbb306609	-0.0026916286
2	0xbb226bb7	-0.0024783441
3	0x3a2c7610	0.0006578872
4	0x3c218e00	0.009860516
5	0xbbcf79ce	-0.006331659
6	0xbb70803b	-0.0036697525
7	0x3b0deb89	0.0021655282
8	0xbc07df58	-0.008292995
9	0xbb1f6ae4	-0.0024325186
10	0xbb990dff	-0.004670858
11	0xba1d2187	-0.00059940707
12	0x3bc382cd	0.0059665204
13	0x3c4551b5	0.012043406
14	0xbbefefc5	-0.007322284
15	0xbb6f5738	-0.0036520492
16	0x3b04d584	0.0020268867
17	0xbc375ffc	-0.011192318
18	0x3b1f253f	0.0024283675
19	0x3acdbd42	0.0015696662
20	0xba5d2cde	-0.00084371667
21	0xbae90e5c	-0.0017780769
22	0xba569ae1	-0.0008186531
23	0x39927f5a	0.00027942174
24	0xbb1f1a13	-0.0024277016
25	0xb93524d8	-0.0001727523
26	0x39959a44	0.00028534431
27	0xb932f5de	-0.00017066995
28	0xba2ab954	-0.00065126014
29	0xb90f4fe9	-0.00013667312
30	0xbb342561	-0.00274881
31	0x3ad308e5	0.0016100673
32	0xbb1a20b1	-0.002351802
33	0xb9fd8fc4	-0.00048363034
34	0x3a9449cd	0.0011313498
35	0x371b2ca7	9.249116e-06
36	0xba8831f0	-0.0010390859
37	0xb8999d8b	-7.324953e-05
38	0x3ad262dc	0.0016051191
39	0x3bf3b400	0.007437229
40	0xbb1f601f	-0.0024318767
41	0x3ba4a591	0.00502462
42	0x3b029bb1	0.0019929225
43	0xbae398d3	-0.0017364271
44	0x3a027658	0.0004976741
45	0xba7b74a2	-0.000959227
46	0xbaaa2efb	-0.0012983972
47	0x3a9609ee	0.0011447051
48	0xba558fc1	-0.0008146726
49	0x3b51845f	0.0031969768
50	0xbb869361	-0.0041069244
51	0xbae1c77b	-0.0017225588
52	0x3a56de17	0.0008196546
53	0xbb4fb806	-0.003169538
54	0x3b6f7004	0.0036535272
55	0x39f2762b	0.0004624588
56	0xbb3c8d48	-0.0028770734
57	0x3a407a49	0.00073424407
58	0x3b2f511e	0.002675123
59	0xb90ec4f6	-0.00013615549
60	0xbb024473	-0.0019877225
61	0x3a3a3086	0.00071025675
62	0xbb5bce44	-0.0033539692
63	0x3ba53ba7	0.0050425115
64	0x3bc1ef5c	0.0059184264
65	0xbad9a9e7	-0.0016606421
66	0xbae4677b	-0.0017425859
67	0xbbdd6e70	-0.00675755
68	0x3bfcc064	0.0077133644
69	0xbb3905dc	-0.0028232252
70	0xbb1d465b	-0.0023998234
71	0x3bf78f80	0.0075549483
72	0x3b47629f	0.0030423773
73	0xba1c1ba7	-0.0005955048
74	0x3adcab96	0.0016835805
75	0xbb446ace	-0.0029970887
76	0xbad3c9b0	-0.001615813
77	0x3b7e4c9e	0.0038802992
78	0x381342ad	3.5109628e-05
79	0xba87423b	-0.0010319421
80	0x38ba0b0d	8.8712295e-05

exp_avg_sq f4 [9, 9]
0	0x38e6c3e1	0.0001100374
1	0x38b3ca8b	8.573112e-05
2	0x38a54955	7.881472e-05
3	0x38d2be76	0.000100490564
4	0x39d747b4	0.0004106142
5	0x388c47b1	6.689074e-05
6	0x390109a9	0.00012305997
7	0x38d07e3b	9.941725e-05
8	0x392ffa39	0.00016782516
9	0x39ad7325	0.0003308292
10	0x3924b30f	0.00015706963
11	0x3980154a	0.00024429924
12	0x394a8d7d	0.0001931693
13	0x3a4a1102	0.0007708223
14	0x3942d1e1	0.00018579468
15	0x3973a2f2	0.00023234988
16	0x3960c264	0.00021434721
17	0x39a565b0	0.00031547016
18	0x393a18c1	0.00017747564
19	0x38a67a31	7.938257e-05
20	0x392baf9f	0.00016373255
21	0x389a558f	7.359229e-05
22	0x39b49641	0.00034444223
23	0x38c68923	9.4669194e-05
24	0x38e932ae	0.000111197456
25	0x3897f9c9	7.246767e-05
26	0x38bd92fc	9.0396e-05
27	0x392a9144	0.00016266579
28	0x3823b04a	3.902641e-05
29	0x38df6d21	0.000106537955
30	0x3871f0f0	5.7683268e-05
31	0x397864fa	0.0002368874
32	0x3886efde	6.434297e-05
33	0x380ad875	3.3103355e-05
34	0x381bcb6e	3.714434e-05
35	0x38f11f84	0.00011497646
36	0x3a07fd8d	0.00051876233
37	0x39818bfe	0.000247091
38	0x39d3c876	0.0004039441
39	0x39812db8	0.0002463886
40	0x3a89cc71	0.0010513199
41	0x398aa05e	0.00026440894
42	0x39786b4a	0.00023691091
43	0x397d84dd	0.00024177456
44	0x398b737d	0.00026598191
45	0x39a2311c	0.00030935637
46	0x38e8a08a	0.00011092525
47	0x3908045b	0.00012971593
48	0x390fa95b	0.00013700633
49	0x3a04861d	0.0005055385
50	0x38f0b13b	0.000114771035
51	0x393b2edc	0.00017851166
52	0x38f3a82d	0.00011618468
53	0x398051f5	0.00024475125
54	0x38c400a8	9.3461305e-05
55	0x37ff205a	3.0413434e-05
56	0x38879357	6.464746e-05
57	0x37c835da	2.3866934e-05
58	0x39073dc7	0.00012897617
59	0x37fadcd1	2.9905148e-05
60	0x38a001f1	7.629756e-05
61	0x37c8e477	2.3948245e-05
62	0x389d7cff	7.509626e-05
63	0x399d9d85	0.00030062735
64	0x39676b6d	0.00022069896
65	0x399af905	0.00029558703
66	0x396a9b71	0.00022373885
67	0x3a72b3eb	0.0009258377
68	0x394994aa	0.00019224235
69	0x399dbcf4	0.00030086155
70	0x39903397	0.00027504258
71	0x3988ff5f	0.00026130208
72	0x3919b058	0.0001465691
73	0x38e40b64	0.00010874009
74	0x395c2577	0.00020994792
75	0x38bac876	8.90651e-05
76	0x39e29a65	0.00043221112
77	0x38da36a7	0.0001040523
78	0x39379b10	0.00017510005
79	0x38d7f032	0.00010296739
80	0x394dba08	0.00019619626

exp_avg f4 [9]
0	0xbc103d91	-0.008803741
1	0xbbc667b5	-0.0060548433
2	0xba6b8081	-0.0008983687
3	0xbb420e02	-0.00296104
4	0x3c692801	0.014230729
5	0xbb96c31c	-0.0046008956
6	0x3a045af9	0.00050489564
7	0x3c16c252	0.009201603
8	0x3b7f60e8	0.0038967673

exp_avg_sq f4 [9]
0	0x3a0fb436	0.00054818706
1	0x3a91801b	0.00111008
2	0x3a0e4551	0.0005427199
3	0x39c9dda2	0.00038502837
4	0x3aad50bd	0.0013222914
5	0x3a39f3f1	0.000709354
6	0x399a5d4e	0.00029442686
7	0x3aa32b33	0.0012448787
8	0x3a496270	0.000768221

exp_avg f4 [10, 9]
0	0x00000000	0.0
1	0x00000000	0.0
2	0x00000000	0.0
3	0x00000000	0.0
4	0x00000000	0.0
5	0x00000000	0.0
6	0x00000000	0.0
7	0x00000000	0.0
8	0x00000000	0.0
9	0x3b0afcb0	0.0021207742
10	0x3cacff53	0.021117842
11	0x3cceab0b	0.025228044
12	0x3cdbc593	0.02682761
13	0x3cb72c08	0.022359863
14	0x3cb5bb78	0.022184119
15	0x3ca8c2d6	0.020600718
16	0x3c945637	0.018107517
17	0x3c3bd51b	0.0114643825
18	0x3b31c93c	0.0027128002
19	0x3aba410c	0.0014210059
20	0xbc3e8b1e	-0.011629848
21	0xbc32b102	-0.01090646
22	0x3bcc90a5	0.006242829
23	0xbbd5a5d9	-0.0065200147
24	0xbaf08d79	-0.0018352709
25	0xbc6d7ddd	-0.01449534
26	0x3b657a5e	0.0035015563
27	0xbc70a9d0	-0.014688924
28	0xbd288644	-0.04114367
29	0xbcf3839b	-0.02972584
30	0xbc7da14f	-0.0154803535
31	0xbd04c410	-0.032413542
32	0xbcbc56da	-0.022990633
33	0xbcf19d15	-0.029493848
34	0xbc95a2fa	-0.01826619
35	0xbc8ea46c	-0.017412387
36	0xb9d5329a	-0.00040664227
37	0xbaf851a4	-0.0018945229
38	0xba9e2c13	-0.0012067579
39	0x39d9a0e0	0.00041509327
40	0xbb815a69	-0.0039475453
41	0x3981dd01	0.00024769458
42	0xbbaeebad	-0.0053381533
43	0xba9852a3	-0.0011621307
44	0xbb8636ba	-0.0040958794
45	0x3af7e1d4	0.0018911907
46	0x3b2c3293	0.0026275262
47	0x3b9bcb0c	0.0047544297
48	0x3b8f33dc	0.004370196
49	0xbb034f92	-0.0020036441
50	0x3b999d9e	0.004687979
51	0xba20fdf6	-0.0006141359
52	0x3b0c39f9	0.002139686
53	0x3a2093bf	0.00061255315
54	0xbb7d92fe	-0.003869235
55	0xbb8142c6	-0.0039447276
56	0xba80282d	-0.0009777598
57	0x3a0a3446	0.00052720716
58	0xbc00a550	-0.007851914
59	0xba8bd625	-0.0010668678
60	0xb8757609	-5.852248e-05
61	0x3aa96ec2	0.0012926685
62	0xbb587688	-0.0033029635
63	0x3b840cae	0.004029832
64	0x3b5a859c	0.0033343798
65	0x3c5f0a05	0.013613229
66	0x3b9aa8dd	0.004719837
67	0x3c41840f	0.01181127
68	0x3bf06163	0.007335828
69	0x3b1ecaa7	0.0024229677
70	0x3c7321d1	0.014839605
71	0x3c26fe21	0.010192425
72	0x3bd0e461	0.006374881
73	0x3c2e9ea7	0.010657943
74	0x3c1ee1be	0.009697376
75	0x3bd15d22	0.006389276
76	0x3afe4759	0.0019399925
77	0x3bd41aa3	0.006472902
78	0x3c33df32	0.010978507
79	0x3c853aa8	0.016263321
80	0x3bf16124	0.0073663164
81	0x3af08f4d	0.0018353254
82	0x3c003131	0.007824228
83	0xbc1fca7d	-0.009752867
84	0xbc8a2307	-0.016862405
85	0x3b7d252d	0.0038626895
86	0xbc299742	-0.010351004
87	0x3b5abdee	0.0033377367
88	0xbc9958e3	-0.018719142
89	0xbc0869c9	-0.008326002

exp_avg_sq f4 [10, 9]
0	0x00000000	0.0
1	0x00000000	0.0
2	0x00000000	0.0
3	0x00000000	0.0
4	0x00000000	0.0
5	0x00000000	0.0
6	0x00000000	0.0
7	0x00000000	0.0
8	0x00000000	0.0
9	0x3a707271	0.00091723265
10	0x3bc763d7	0.0060849
11	0x3b8a7534	0.0042253975
12	0x3b1d5d66	0.0024011969
13	0x3b8fcb59	0.0043882546
14	0x3b783738	0.003787471
15	0x3b86e4f4	0.004116649
16	0x3beb83d9	0.0071873483
17	0x3b72d3f9	0.0037052615
18	0x3a0875fc	0.00052055693
19	0x3b1f2093	0.002428089
20	0x3ad29ce4	0.0016068486
21	0x3a9422df	0.0011301896
22	0x3b796ace	0.0038058045
23	0x3ad0c884	0.0015928899
24	0x3b0b3e10	0.002124671
25	0x3b3b4804	0.002857686
26	0x3b164602	0.0022929912
27	0x3a9263ef	0.0011168699
28	0x3beef487	0.0072923335
29	0x3b2d113d	0.002640798
30	0x3aa511a4	0.0012593758
31	0x3bde27a9	0.00677963
32	0x3b46c446	0.003032939
33	0x3b471273	0.0030375987
34	0x3b5f9d65	0.0034120914
35	0x3b4320f7	0.0029774287
36	0x3952502d	0.00020057028
37	0x3a1474c5	0.0005663152
38	0x398a2827	0.00026351327
39	0x38be690c	9.0794725e-05
40	0x38fc79a4	0.00012038954
41	0x3912b068	0.00013989361
42	0x3a39d682	0.0007089154
43	0x39458dfa	0.00018840274
44	0x39830288	0.00024988153
45	0x39afb62e	0.00033514336
46	0x3a5694ec	0.0008185643
47	0x39c999cb	0.00038452292
48	0x399c5856	0.00029820454
49	0x3a35b0ea	0.00069309643
50	0x39eb37a8	0.0004486416
51	0x3a038ff6	0.0005018705
52	0x3a06d440	0.0005143322
53	0x3a31a2a1	0.0006776248
54	0x3978d971	0.00023732126
55	0x3a273baf	0.0006379438
56	0x3906268a	0.00012793593
57	0x389098c5	6.8949106e-05
58	0x3aa9a8b0	0.001294395
59	0x3881d12c	6.190161e-05
60	0x3a765b3e	0.00093977514
61	0x3a104f71	0.0005505002
62	0x3a180c1c	0.0005800144
63	0x3a869557	0.0010267895
64	0x3bef68f1	0.007306211
65	0x3b58591b	0.0033012095
66	0x3b141592	0.0022595865
67	0x3bcc9bc1	0.0062441533
68	0x3b71f47f	0.0036919413
69	0x3b243436	0.0025055534
70	0x3b3adc25	0.0028512564
71	0x3afe4b04	0.0019401019
72	0x3a041f00	0.000504002
73	0x3b0c0f65	0.002137148
74	0x3ade8cee	0.0016979256
75	0x3aa9b36a	0.0012947146
76	0x3b2c4aff	0.0026289818
77	0x3ac8a9e2	0.0015309418
78	0x3acb5213	0.0015512131
79	0x3b00aae7	0.0019633116
80	0x3a6da5b7	0.0009065526
81	0x3a096b8b	0.00052421604
82	0x3b7b4db5	0.0038345878
83	0x3b874b20	0.0041288286
84	0x3b2e80c9	0.0026627055
85	0x3b99d16a	0.0046941536
86	0x3b653191	0.003497217
87	0x3b38beab	0.002818982
88	0x3bce7bc5	0.0063013756
89	0x3b435fdb	0.0029811773

exp_avg f4 [10]
0	0x00000000	0.0
1	0x3c496baf	0.01229374
2	0x3b067ff0	0.0020523034
3	0xbc7d5e72	-0.015464412
4	0xba99afdd	-0.0011725385
5	0x3b359348	0.0027706195
6	0xbb4c0c7b	-0.0031135369
7	0x3ba2856a	0.004959752
8	0x3b8d8bd9	0.0043196497
9	0xbbd9c31d	-0.006645574

exp_avg_sq f4 [10]
0	0x00000000	0.0
1	0x3ac066c8	0.0014679069
2	0x3a4165f3	0.00073775573
3	0x3ac2f227	0.0014873192
4	0x38b70ddd	8.728702e-05
5	0x3a3df584	0.00072463625
6	0x39278214	0.00015974819
7	0x3aa5bace	0.0012644173
8	0x3a073b65	0.0005158692
9	0x3aa528a1	0.0012600609

exp_avg f4 [9, 9]
0	0x3bb44ad7	0.0055020857
1	0xb9c49ca7	-0.00037500748
2	0x3be7c702	0.007073284
3	0x3b5fd3f1	0.0034153427
4	0x3b9d6e69	0.0048044217
5	0xbb74efeb	-0.0037374448
6	0xbb88993f	-0.004168659
7	0xbb6b3f49	-0.0035895875
8	0xbbbabf64	-0.005699085
9	0xbb44d0ee	-0.0030031758
10	0xb8a917b1	-8.062961e-05
11	0xbafb44bf	-0.0019170268
12	0xbb34b05e	-0.0027570943
13	0xbbd1965d	-0.0063960985
14	0x3ae903e1	0.0017777645
15	0x3b5a6f98	0.0033330675
16	0x3b14e625	0.0022720185
17	0x3b97acf0	0.00462877
18	0x3bac001c	0.0052490365
19	0x3a96f32f	0.0011516566
20	0xbb41882d	-0.002953063
21	0x3b2a09c8	0.0025945771
22	0x3c4d2487	0.012520916
23	0xbb141a77	-0.0022598782
24	0xbbcfaeac	-0.006337961
25	0xbbaa02de	-0.00518833
26	0xbc013416	-0.007885953
27	0xbb81e28d	-0.0039637745
28	0x3b62cc16	0.0034606508
29	0xb9d69e5c	-0.00040935248
30	0x3b99518c	0.0046789106
31	0x3c6900be	0.014221368
32	0x3bb4980a	0.0055112885
33	0x3b140c45	0.002259032
34	0x3a9fd57f	0.0012194364
35	0xbc11de96	-0.008903166
36	0xbb2ea32e	-0.0026647556
37	0x3ae5bf4f	0.0017528328
38	0x3a09a121	0.00052501453
39	0xba5892cd	-0.0008261621
40	0xbbb06bfe	-0.0053839674
41	0x3ad6eb0f	0.0016396957
42	0x3b0f682f	0.0021882167
43	0x3aa750f5	0.0012765216
44	0xb94f75a8	-0.00019784889
45	0x3a8742d4	0.0010319599
46	0xbb6dbf87	-0.003627749
47	0x3ba5a0d9	0.005054575
48	0x3b9494cd	0.00453434
49	0x3bc5775a	0.0060261907
50	0x3b928db0	0.004472457
51	0x3a6c4cba	0.00090141187
52	0x3b3e5f4c	0.00290485
53	0xbc0e9d83	-0.008704546
54	0x3b893711	0.0041874726
55	0xbad77b5d	-0.0016439963
56	0x3c083321	0.008312971
57	0x3b8871e3	0.004163967
58	0xb827fb6b	-4.0050054e-05
59	0xba3c774f	-0.0007189409
60	0xbb930497	-0.004486631
61	0xba693aab	-0.0008896987
62	0xbbb12d51	-0.0054070135
63	0x3b950c47	0.0045485827
64	0xbb462360	-0.0030233487
65	0x3c00d205	0.007862573
66	0x3ba92b00	0.0051625967
67	0x3b3c197d	0.0028701716
68	0xbb83ea0e	-0.004025704
69	0xbbd4079c	-0.0064706337
70	0xbb52b77b	-0.003215282
71	0xbbaab8f5	-0.005210037
72	0xb9ea509c	-0.00044692017
73	0x3b4e7782	0.0031504338
74	0xba62bdc2	-0.0008649492
75	0x3b54a242	0.0032445346
76	0x3c3c56ce	0.011495305
77	0xb9161133	-0.00014311522
78	0xbb758568	-0.003746355
79	0xbb02f445	-0.0019982022
80	0xbbfcd456	-0.007715742

exp_avg_sq f4 [9, 9]
0	0x39583d79	0.00020622266
1	0x38e58970	0.00010945171
2	0x3971fecd	0.00023078472
3	0x39065911	0.00012812416
4	0x39e49b94	0.00043603464
5	0x38cb5d13	9.697131e-05
6	0x3939e754	0.00017729151
7	0x39771bc1	0.00023566095
8	0x39814f87	0.0002466405
9	0x38df7a9b	0.00010656306
10	0x387915f8	5.9386686e-05
11	0x38ec887b	0.000112787784
12	0x38812433	6.157942e-05
13	0x396b5f3c	0.00022446824
14	0x38977039	7.221144e-05
15	0x38f46d6d	0.00011655209
16	0x38d127c3	9.973303e-05
17	0x390b1a5c	0.00013265893
18	0x39cfa541	0.0003960524
19	0x3968935e	0.00022180143
20	0x39cf9af0	0.00039597554
21	0x38e173c2	0.000107503976
22	0x3a3dc520	0.0007239152
23	0x3976129c	0.0002346732
24	0x3a205ed7	0.0006117648
25	0x397ac694	0.00023915834
26	0x39b491f7	0.00034441028
27	0x3a4d67cb	0.0007835596
28	0x3a16a9c1	0.0005747341
29	0x3a6cc62a	0.00090322143
30	0x3a0097b6	0.0004905419
31	0x3ac2919c	0.001484442
32	0x39b4b2bd	0.00034465446
33	0x3a33c21d	0.0006857233
34	0x39e0ae56	0.000428545
35	0x3a76b5e6	0.000941126
36	0x392f52a0	0.00016720081
37	0x38e6c1f6	0.00011003383
38	0x390abb7e	0.00013230552
39	0x388d85bf	6.748316e-05
40	0x3986f424	0.0002574037
41	0x3849fefe	4.8159614e-05
42	0x38d70e31	0.00010254642
43	0x38c45e3e	9.363562e-05
44	0x3926afe0	0.00015896512
45	0x3a3f5ccd	0.00072999
46	0x39aac9cc	0.00032575277
47	0x3a10732f	0.0005510328
48	0x3960c517	0.00021435726
49	0x3a683f57	0.0008859536
50	0x397126f0	0.00022998056
51	0x39e7e4fb	0.00044230357
52	0x398f8624	0.00027375028
53	0x39f15e39	0.00046037303
54	0x398bfce4	0.00026700564
55	0x38c5991a	9.4222094e-05
56	0x3993c34b	0.0002818353
57	0x387e6b02	6.0657978e-05
58	0x39cedceb	0.0003945598
59	0x388bfbe1	6.6749526e-05
60	0x392f7c42	0.0001673559
61	0x38e8ffe0	0.000111102825
62	0x397e4bf6	0.00024251625
63	0x39c84b13	0.00038202907
64	0x3974f0e9	0.000233594
65	0x39da9f8b	0.0004169907
66	0x394eaf20	0.0001971093
67	0x3a45b523	0.0007541945
68	0x38bb6173	8.935006e-05
69	0x39b54596	0.00034574856
70	0x3939f805	0.0001773537
71	0x3a0b494c	0.0005313351
72	0x39a7a639	0.00031976568
73	0x3973fde6	0.0002326887
74	0x39c115a1	0.00036827943
75	0x392d7172	0.00016540827
76	0x3a1b60da	0.0005927213
77	0x3912ea75	0.00014010987
78	0x39a3f24a	0.00031270302
79	0x39105074	0.00013762881
80	0x39fce800	0.0004823804

exp_avg f4 [9]
0	0x3a91a453	0.0011111595
1	0xba8e4fdc	-0.001085754
2	0xbb3da2d6	-0.002893617
3	0x3cb96ac7	0.022633923
4	0xbb14f602	-0.002272964
5	0x3c94a245	0.018143782
6	0x3bc334d2	0.0059572244
7	0x38f1a66b	0.00011522773
8	0x3bb30483	0.0054631843

exp_avg_sq f4 [9]
0	0x3a345f18	0.0006880625
1	0x39c07825	0.00036710608
2	0x3a8db2a1	0.0010810682
3	0x3b2dccfe	0.002651989
4	0x39f56bcf	0.00046810365
5	0x3ae743cf	0.001764411
6	0x3a4675dc	0.0007570663
7	0x3a921813	0.0011146091
8	0x3aa10387	0.0012284376

exp_avg f4 [1, 9]
0	0x3c251497	0.01007571
1	0x3c558bfb	0.013033862
2	0x3c3727cf	0.011178925
3	0xbc42e396	-0.011895081
4	0xbbbc92df	-0.005754813
5	0xbc922177	-0.017838223
6	0xbb315f41	-0.0027064832
7	0x3bdff658	0.0068347864
8	0xbb5ce39c	-0.0033705002

exp_avg_sq f4 [1, 9]
0	0x3a487084	0.00076461607
1	0x3b33e17f	0.0027447639
2	0x3b21ab03	0.0024668581
3	0x3ab3e735	0.0013725521
4	0x3b22f87a	0.0024867342
5	0x3afabdd7	0.0019130063
6	0x39fda96d	0.00048382152
7	0x3af1fc0a	0.0018461954
8	0x3a8c6b59	0.0010713144

network_body._body_endoder.seq_layers.0.weight f4 [9, 9]
0	0xbe40c95e	-0.18826815
1	0xbec4d171	-0.3844104
2	0xbda71e3e	-0.08160065
3	0xbdf2b3ea	-0.11850722
4	0xbefd5261	-0.49476913
5	0xbe44b0dc	-0.19208091
6	0xbee93fcd	-0.4555649
7	0x3eed262f	0.46318194
8	0x3df294bc	0.11844775
9	0x3e033fcf	0.1281731
10	0xbe1d4efe	-0.15362164
11	0xbe80b395	-0.2513701
12	0x3e5b2134	0.21399385
13	0x3e15ae30	0.14617229
14	0x3ef67efd	0.4814376
15	0x3e16af35	0.14715274
16	0x3f2e54fc	0.68098426
17	0x3f052532	0.5200988
18	0x3eb08696	0.3447768
19	0xbdc35fb6	-0.0953974
20	0xbf82e98e	-1.0227525
21	0xbf01ffe5	-0.5078109
22	0xbe4b700e	-0.19866964
23	0xbc3bb5b9	-0.0114569
24	0x3f699375	0.91240627
25	0xbe4f27e6	-0.20230064
26	0xbe0db307	-0.13837825
27	0xbebac714	-0.3648001
28	0xbdf547e2	-0.11976601
29	0xbda1df12	-0.079038754
30	0xbc81dd6e	-0.015852656
31	0x3f4ea0c5	0.80714065
32	0xbe482068	-0.19543612
33	0xbf1db090	-0.6159754
34	0xbd884e67	-0.06655579
35	0xbdd4aca3	-0.1038449
36	0x3f16df1d	0.58934194
37	0x3f219410	0.6311655
38	0xbf0f5c4f	-0.56000227
39	0xbe6acf39	-0.22930612
40	0x3b028ec1	0.0019921514
41	0xbee0e539	-0.43924883
42	0xbf57e18d	-0.8432854
43	0x3e375bec	0.17906159
44	0x3eb86e86	0.36021823
45	0x3f5fe430	0.8745756
46	0xbdd575f5	-0.10422889
47	0xbcb6e943	-0.022328025
48	0xbe62b6ab	-0.22139995
49	0x3f0956f2	0.53648293
50	0xbde0026b	-0.10937961
51	0xbdc75468	-0.09732896
52	0x3d29cf02	0.041457184
53	0xbf32cffc	-0.6984861
54	0x3eacbdca	0.33738548
55	0xbe7d48b7	-0.2473477
56	0x3f0daac8	0.55338717
57	0xbebee389	-0.3728297
58	0xbd7a280c	-0.061073348
59	0xbe68a237	-0.2271813
60	0xbdcd4379	-0.10022635
61	0xbd62b7b2	-0.055350967
62	0x3ea2d25d	0.3180112
63	0xbd8c12ae	-0.068395
64	0x3c9a7f27	0.01885946
65	0x3e8c5bf1	0.27413896
66	0xbe254829	-0.16140808
67	0xbf4006df	-0.75010484
68	0xbf2f7a8e	-0.6854638
69	0xbce16628	-0.027514532
70	0xbed67b23	-0.4189082
71	0x3f31f3f9	0.695129
72	0xbf077570	-0.5291357
73	0x3e1a3298	0.15058362
74	0xbe01beb9	-0.12670411
75	0xbe326983	-0.17423062
76	0x3f25ad27	0.64717335
77	0xbe313f3d	-0.1730928
78	0xbc228302	-0.00991893
79	0xbeb04fe7	-0.3443596
80	0x3f0251bf	0.50905985

network_body._body_endoder.seq_layers.0.bias f4 [9]
0	0xbd548877	-0.051887956
1	0x3e100073	0.14062671
2	0xbe8486dc	-0.2588414
3	0xbd43cc7b	-0.04780243
4	0x3e34fb70	0.17674041
5	0x3d5713c5	0.052509088
6	0xbe30dbf2	-0.17271402
7	0xbe409a0c	-0.18808764
8	0xbd5bb011	-0.053634707

value_heads.value_heads.extrinsic.weight f4 [1, 9]
0	0xbed7883e	-0.42096132
1	0x3e6f9fb7	0.2340077
2	0xbf0d08e2	-0.5509168
3	0xbf773717	-0.96568435
4	0x3e99c34c	0.30031812
5	0xbf2c18b4	-0.67225194
6	0xbf044ba4	-0.5167792
7	0xbf06476f	-0.5245275
8	0xbf22af10	-0.63548374
