Assets/onnx/TTT_30/X_Behavior/checkpoint.pt (torch, 39079 bytes, 45 tensors)

network_body._body_endoder.seq_layers.0.weight f4 [16, 9]
-0.7648864 -0.054332074 0.53071654 -0.06628459 1.2940149 -0.20965776 1.0309002 -0.23537192
-0.29770398 0.5700638 0.47170362 0.72147614 -0.065121844 -0.22154878 0.12730736 0.053840782
0.65099454 0.25954878 -0.026653165 0.1861005 -0.6874495 0.29785636 0.94632226 -0.15128879
-0.40049234 0.48816252 -0.14857483 0.78251654 0.07235528 -0.23994945 0.8558699 1.0081857
-0.057282723 -0.50723207 0.07491196 -1.2910961 0.32735312 0.22135955 -1.1056789 0.63930094
0.69439924 -0.5424613 0.32253107 0.21265689 -0.8257241 0.9659584 0.923419 -0.4009022
1.0493028 0.08304846 0.45193917 -0.68836015 0.60837907 -0.7161298 0.57031405 -0.64172655
0.29233745 1.2730144 -0.5037571 0.71968013 0.29143122 -0.23661514 0.35505137 -0.79769933
0.37891737 0.44577464 0.47062927 0.36871496 0.430152 0.54899186 0.48947453 -1.1225039
0.029394358 0.14509617 0.5338793 0.03838875 0.39622468 0.43746895 0.18766703 -0.87676096
0.12103582 0.022977812 -0.1622093 -0.37340018 0.38398415 -0.7574578 0.5871144 0.27134764
-1.4330989 -0.058132395 -1.2097349 0.005953793 0.09602863 -0.28391272 -0.26175427 0.3497593
-1.0776064 0.28107157 1.001917 1.0478742 0.19944103 -0.3234209 -0.29926237 -0.83859646
-0.94678664 1.0487975 -0.24892731 -1.0647887 -0.20932348 1.0059335 0.17837918 -0.6028969
1.4438118 0.46833494 -0.51459825 0.5631605 -0.20418893 -0.22571948 0.6549672 -0.26469076
-0.26710144 0.097424395 0.13458954 -0.39455652 0.5989747 1.264775 -0.7085549 -0.7803642
-0.17806537 1.2634797 -0.78821546 0.5005261 0.45471796 0.64966214 0.21062185 0.6335378
-0.7237005 -0.91522217 -0.48794937 0.8452806 -0.5481789 -0.28091717 0.21744962 0.9492895
00000000: 98cf 43bf 4f8b 5ebd 0add 073f 37c0 87bd
00000010: 48a2 a53f 86b0 56be 8af4 833f 5605 71be
00000020: a86c 98be b4ef 113f 2383 f13e a9b2 383f
00000030: 9a5e 85bd afdd 62be dc5c 023e 2788 5c3d
00000040: 94a7 263f 94e3 843e bd57 dabc 2191 3e3e
00000050: b1fc 2fbf a180 983e 2d42 723f 73eb 1abe
00000060: 550d cdbe 70f0 f93e 0024 18be 0153 483f
00000070: 012f 943d 4fb5 75be 4a1a 5b3f 3b0c 813f
00000080: 4aa1 6abd f6d9 01bf 716b 993d a342 a5bf
00000090: d49a a73e 14ac 623e e386 8dbf 3aa9 233f
000000a0: 26c4 313f bede 0abf cb22 a53e bac2 593e
000000b0: a862 53bf 0d49 773f 3065 6c3f 0e43 cdbe
000000c0: 8e4f 863f 5015 aa3d 9264 e73e 5f38 30bf
000000d0: bbbe 1b3f 4854 37bf 1a00 123f 3148 24bf
000000e0: 41ad 953e 23f2 a23f 3af6 00bf f53c 383f
000000f0: 7936 953e 3d4b 72be 4bc9 b53e 0636 4cbf
00000100: 7501 c23e 933c e43e 52f6 f03e 35c8 bc3e
00000110: e23c dc3e bb8a 0c3f 689c fa3e 35ae 8fbf
00000120: 70cc f03c 1794 143e 50ac 083f 863d 1d3d
00000130: f6dd ca3e eefb df3e c92b 403e 6873 60bf
00000140: a1e1 f73d f73b bc3c 321a 26be 4f2e bfbe
00000150: 9299 c43e c1e8 41bf 214d 163f 14ee 8a3e
00000160: c96f b7bf 3c1c 6ebd 98d8 9abf 0918 c33b
00000170: a9aa c43d 025d 91be a804 86be a713 b33e
00000180: 02ef 89bf 9de8 8f3e d13e 803f be20 863f
00000190: 453a 4c3e 6d97 a5be eb38 99be 42ae 56bf
000001a0: 9c60 72bf ff3e 863f cde6 7ebe ff4a 88bf
000001b0: e558 56be 6ec2 803f 08a9 363e 7457 1abf
000001c0: d3ce b83f 99c9 ef3e b6bc 03bf 492b 103f
000001d0: e716 51be 0223 67be eeab 273f 8c85 87be
000001e0: 85c1 88be 7186 c73d d7d1 093e 5003 cabe
000001f0: 6856 193f 26e4 a13f db63 35bf f3c5 47bf
00000200: c556 36be b4b9 a13f 7dc8 49bf 7a22 003f
00000210: cbd0 e83e 4250 263f 41ad 573e 892f 223f
00000220: 7044 39bf 004c 6abf 80d4 f9be 4f64 583f
00000230: 7455 0cbf 60d4 8fbe 1dab 5e3e a304 733f

network_body._body_endoder.seq_layers.0.bias f4 [16]
-0.15317632 -0.03307086 0.070798405 -0.3448538 0.22522233 0.1252997 -0.13520485 -0.20043853
-0.024758186 -0.49312094 -0.25012872 -0.18832414 -0.21499674 -0.22697766 -0.04133188 0.07534694
00000000: 41da 1cbe 4f75 07bd c1fe 903d ad90 b0be
00000010: afa0 663e 914e 003e 2473 0abe c23f 4dbe
00000020: aed1 cabc 597a fcbe df10 80be 0bd8 40be
00000030: 1b28 5cbe d56c 68be 9e4b 29bd 7f4f 9a3d

network_body._body_endoder.seq_layers.2.weight f4 [16, 16]
-0.40311748 -0.07183181 0.1386973 0.04947014 0.45140654 -0.42394373 0.08251322 0.5343705
-0.42561817 0.057262715 0.7360641 0.43118986 0.16417523 0.46461675 0.8110114 -0.06706799
0.6415211 0.4276592 0.014945256 -0.4842883 -0.5579223 0.32486725 0.678061 0.38922864
0.035841487 -0.19573973 -0.6590749 -0.83108604 0.3470942 0.5081577 0.18292144 0.82173127
0.041889053 0.3035801 0.2773831 0.23159164 -0.22729956 -0.027816538 -0.6607093 0.03748224
0.2578031 -0.15353313 0.43844238 -0.22610486 1.1395626 0.56327033 0.120844744 0.52826244
0.93317264 0.48762357 0.34580624 0.33814558 -0.31291443 -0.2741197 -0.38650087 0.7867634
0.0687076 0.061479207 0.27823803 -0.36908376 0.19267601 0.13962495 -0.09755719 -0.044656333
-0.5397281 -0.46897402 0.23282729 -0.35071018 0.11440191 -0.16982539 -0.3896779 1.1640862
0.040383983 -0.18581913 -0.19171599 -0.6371841 0.5665741 0.21542741 0.5912038 0.85103154
-0.14244482 0.38216573 -0.5768953 -0.452843 -0.39472964 -0.8356759 0.35738117 -0.80747205
0.031870842 0.7676245 0.011960481 0.69890136 -0.42791787 -0.01441705 -0.22251332 -0.39412868
0.6258299 0.36602986 -0.505521 -0.6842066 -1.3409829 -0.58320326 -0.5491609 0.66210145
0.37678403 0.60050505 -0.71078146 -0.5504183 0.116775684 -0.21170594 -0.5153426 -0.85417604
0.7941834 0.53732234 0.11553566 0.6899184 0.53566086 -0.37284532 -0.44917578 0.3483179
0.30315614 0.4902989 -0.18093096 -0.42232898 0.189446 0.24263461 -0.004525516 -0.008924689
-0.31248087 0.5622924 0.016672038 -0.060533695 -0.35592294 0.41475588 0.028765764 0.04434311
0.6811178 -0.5459721 -0.7774777 0.056860548 0.08124732 -0.0942582 -1.3456323 0.7521898
-0.7908721 0.23793577 0.7015852 0.4621299 0.15688778 -0.04607963 0.61619604 -0.045679163
-0.025444513 -0.28739962 -0.217194 -1.3067057 0.28621554 -0.05904787 1.0486689 0.78905046
-0.3610705 0.23683329 -0.6275823 -0.39540404 -0.7177656 -0.8503724 0.032939076 0.6813159
-0.28417563 -0.2502623 -0.08438852 0.9280283 -0.35301703 0.56396437 -0.2905096 0.4617416
-1.0539446 0.33622688 -0.10472517 0.6514268 0.07175262 1.256572 0.7453023 -0.14695534
-0.29934114 0.19801442 -0.45189258 0.32793558 0.35833552 -0.7479679 0.040637776 -0.4514978
-0.75701046 0.43556905 0.28642783 -0.18634374 -0.5839207 -0.3657842 -0.06208862 -0.69585806
-0.031514447 -0.4384334 0.89396304 -0.13544104 0.44721907 0.50818574 0.28938136 -1.2000816
0.22906819 -0.346119 -0.021454874 0.6332617 -0.25557464 0.37669092 -0.038244326 0.4124577
-0.55902666 0.6430294 -0.31571472 -0.401699 0.36593434 -0.72867477 0.46235657 -0.15127942
0.48513716 0.70414037 -0.461705 -0.26390004 -0.3464579 0.17493315 0.24627094 0.29956248
-0.12354109 0.011390903 -0.08940493 -0.8640599 0.29376477 0.025025088 0.24929433 -0.0062865415
0.23201026 0.4327909 -0.77611494 -0.7760777 -1.3398937 -0.45683202 0.6615511 0.1803887
1.008849 0.4138005 -1.2288756 -0.050635155 -0.005838686 -0.78630507 0.25755537 -0.61704046
00000000: 6a65 cebe 8e1c 93bd aa06 0e3e 34a1 4a3d
00000010: c21e e73e 270f d9be b1fc a83d 81cc 083f
00000020: a0ea d9be 4f8c 6a3d b26e 3c3f ebc4 dc3e
00000030: 8d1d 283e 3fe2 ed3e 719e 4f3f f15a 89bd
00000040: ba3a 243f 26f6 da3e f2dc 743c a3f4 f7be
00000050: ffd3 0ebf 0055 a63e 6895 2d3f fa48 c73e
00000060: 86ce 123d ff6f 48be 22b9 28bf 0ec2 54bf
00000070: 55b6 b13e 9f16 023f c24f 3b3e fb5c 523f
00000080: db93 2b3d da6e 9b3e 2805 8e3e 5c26 6d3e
00000090: 37c1 68be 82df e3bc 3f24 29bf fa86 193d
000000a0: c5fe 833e ca37 1dbe 857b e03e 0888 67be
000000b0: 30dd 913f 7c32 103f 737d f73d 353c 073f
000000c0: 67e4 6e3f cca9 f93e 840d b13e 6b21 ad3e
000000d0: 5236 a0be 6b59 8cbe 71e3 c5be 5469 493f
000000e0: 92b6 8c3d 9fd1 7b3d 3775 8e3e 8cf8 bcbe
000000f0: dc4c 453e d8f9 0e3e 10cc c7bd 8fe9 36bd
00000100: 9f2b 0abf 5d1d f0be 476a 6e3e 4990 b3be
00000110: 8c4b ea3d b5e6 2dbe dd83 c7be c700 953f
00000120: ad69 253d 5f47 3ebe 3251 44be 7f1e 23bf
00000130: 000b 113f 0199 5c3e 2259 173f 34dd 593f
00000140: 0edd 11be 3aab c33e 69af 13bf 0adb e7be
00000150: 011a cabe dbee 55bf aafa b63e 7db6 4ebf
00000160: 008b 023d 0a83 443f e5f5 433c 33eb 323f
00000170: 0d18 dbbe 7e35 6cbc 88da 63be 3ccb c9be
00000180: 6336 203f 4468 bb3e d369 01bf 2a28 2fbf
00000190: 54a5 abbf cf4c 15bf cf95 0cbf 7b7f 293f
000001a0: d6e9 c03e b3ba 193f c6f5 35bf 37e8 0cbf
000001b0: 1728 ef3d 71c9 58be 7eed 03bf 48ab 5abf
000001c0: 9a4f 4b3f f58d 093f f69d ec3d 7e9e 303f
000001d0: 1221 093f 95e5 bebe 5efa e5be b956 b23e
000001e0: 4837 9b3e 7508 fb3e f745 39be 813b d8be
000001f0: 22fe 413e 3575 783e c84a 94bb dc38 12bc
00000200: 7efd 9fbe 65f2 0f3f cc93 883c 2ef2 77bd
00000210: 883b b6be e25a d43e 2ea6 eb3c 1fa1 353d
00000220: bc5d 2e3f d4c4 0bbf c708 47bf 9be6 683d
00000230: ff64 a63d 710a c1bd ae3d acbf 838f 403f
00000240: 9876 4abf 6fa5 733e 169b 333f 4a9c ec3e
00000250: 31a7 203e febd 3cbd 06bf 1d3f 131a 3bbd
00000260: 0371 d0bc 0b26 93be 1b68 5ebe 2242 a7bf
00000270: d88a 923e 2edc 71bd c83a 863f 36ff 493f
00000280: 3cde b8be 6d84 723e 3ca9 20bf 6672 cabe
00000290: 7dbf 37bf 01b2 59bf 20eb 063d b86a 2e3f
000002a0: 787f 91be 6122 80be e3d3 acbd 4393 6d3f
000002b0: a6be b4be f85f 103f adbd 94be 6569 ec3e
000002c0: a8e7 86bf ee25 ac3e 267a d6bd e8c3 263f
000002d0: 0af3 923d 5ad7 a03f 22cc 3e3f 767b 16be
000002e0: 3e43 99be 4bc4 4a3e 775e e7be 2ce7 a73e
000002f0: c177 b73e d37a 3fbf cc73 263d b82a e7be
00000300: 70cb 41bf e802 df3e aba6 923e e5d0 3ebe
00000310: d47b 15bf 1148 bbbe a350 7ebd c123 32bf
00000320: 4b15 01bd 587a e0be c3da 643f 0eb1 0abe
00000330: e6f9 e43e 7618 023f cb29 943e 469c 99bf
00000340: da90 6a3e 8236 b1be 22c2 afbc 701d 223f
00000350: aeda 82be a2dd c03e 15a6 1cbd a82d d33e
00000360: 5f1c 0fbf 939d 243f 5ca5 a1be 7eab cdbe
00000370: bf5b bb3e 6e8a 3abf 00ba ec3e fee8 1abe
00000380: e663 f83e 8b42 343f 9964 ecbe e81d 87be
00000390: ee62 b1be ad21 333e 732e 7c3e 4160 993e
000003a0: 1c03 fdbd e9a0 3a3c ef19 b7bd 0833 5dbf
000003b0: 5668 963e 6a01 cd3c 0347 7f3e 55ff cdbb
000003c0: 1994 6d3e c596 dd3e 78af 46bf 07ad 46bf
000003d0: a381 abbf e3e5 e9be 6a5b 293f d1b7 383e
000003e0: f721 813f a9dd d33e cc4b 9dbf cf66 4fbd
000003f0: 7352 bfbb 4a4b 49bf 4cde 833e 5df6 1dbf

network_body._body_endoder.seq_layers.2.bias f4 [16]
-0.08516808 -0.04075565 -0.3433943 -0.24894948 0.044387005 -0.002654516 -0.1971292 -0.07962291
0.18364406 0.070477284 -0.23516655 0.005521335 -0.11974207 -0.25748032 -0.07532676 -0.035406433
00000000: 9a6c aebd 65ef 26bd 61d1 afbe 9dec 7ebe
00000010: 26cf 353d 63f7 2dbb 3ddc 49be 5611 a3bd
00000020: 300d 3c3e 6556 903d 80cf 70be 51ec b43b
00000030: 553b f5bd 76d4 83be eb44 9abd 5606 11bd

network_body._body_endoder.seq_layers.4.weight f4 [16, 16]
0.43737933 -0.03646291 0.3059158 0.49658647 0.10695081 -0.08837612 -0.05857823 -0.10968749
-1.2655323 -0.12536778 -0.53137976 0.45593962 0.7388809 0.09688691 0.4482848 -0.8249331
-0.3411538 0.55408245 0.07356674 0.48333597 0.02886631 -0.5890824 0.38557178 -0.3817449
0.38652128 -0.11272511 0.41075966 -0.21984218 -0.23408154 0.19733326 0.2155689 0.18894635
0.18028578 -0.33634603 0.31984392 -0.11959802 0.12692225 -0.18554161 -0.2927085 0.7392148
-0.8178884 0.9024373 -0.15546498 0.027757822 0.023001226 0.842421 0.18464573 -0.5316655
0.15196902 -0.61768043 -0.06309563 0.05203427 -0.16104965 0.921435 0.17602192 0.36595517
-0.0800041 -0.57140505 0.5923792 -0.24931613 0.74738544 -1.0192696 -0.04448102 0.1847585
-0.63457507 0.87447655 0.46853814 0.2520203 0.4810456 -0.1706391 0.3580632 0.2851132
0.45400065 0.19001481 0.3623974 -0.44087097 -0.15293624 -0.36091226 0.56280476 0.619502
-0.60631746 -0.32018486 -0.49900872 -0.17670064 -0.6714045 -0.14108929 0.11255041 -0.6985392
0.5151901 -0.7482506 -0.55908096 0.8762222 -0.4540619 -0.09927766 -0.2744957 0.38824743
0.82185173 -0.57396144 -0.35894495 -0.4917928 -0.07738555 0.2445184 -0.5082458 -0.43086097
-0.12766656 -0.111852266 0.53384686 0.07620486 -0.4836897 -0.1414208 -0.19243492 -0.12466392
0.06516874 0.20138188 0.57367545 0.07737603 -0.20293994 0.3431716 0.6749645 -0.17402731
0.43730226 -0.6257883 0.49917972 -0.1387177 -0.26400056 0.027057124 -0.37555546 0.36839342
-0.43395928 -0.15240005 -0.45763686 -0.693297 -0.5900018 0.75936013 0.2281535 -0.42285776
0.3377986 -0.64958316 0.2835354 0.5558053 -0.35973582 -0.31118202 -0.16472097 1.4912003
-0.8896186 0.69970644 -0.64432347 0.23574863 -1.1081334 -0.3433365 0.78392565 0.18687207
0.3156631 0.5354411 -0.63377476 1.0625459 -0.30620563 -0.28269097 0.45480043 0.47806776
0.686256 -0.032963682 1.0998616 0.15796061 -0.088127196 0.020693144 -0.11169002 -0.119109474
-0.44072556 0.12002467 0.19222105 0.96896416 0.14806938 0.96340626 0.3210355 -0.039252702
-0.2462126 0.10829793 -0.14245705 -0.2957157 -0.504562 0.5674527 0.19693005 -0.3518284
0.1890606 0.14443105 -0.016960848 0.26270282 -0.43376043 0.26967764 -0.08753757 0.44923624
-0.31087467 -0.68023896 -0.40128595 -0.8580798 0.0029574072 0.7965345 -0.55180323 -0.44322282
0.053914744 -1.0603675 0.27091333 0.24825248 0.4543565 -0.7903913 -0.37730625 -0.05853742
0.28253746 0.50072426 0.2759977 -0.09198699 0.88070685 0.12667245 0.5224614 0.30523947
0.29164678 0.99630183 -0.11193863 -0.1763171 -0.3094398 0.19878963 0.41942957 0.6850145
-0.62175435 0.07243583 -0.25424466 0.7405474 -1.2640105 0.26921824 0.75686455 0.9001488
-0.10940065 -0.42232198 -0.52310485 -0.060504742 0.29422462 0.40135184 0.5228004 0.14269249
0.2889052 -0.28319353 -0.41756833 -0.18133824 -0.5122512 0.40746155 -0.7128877 0.059802532
-0.8156061 0.5423784 0.5043359 -0.5083707 0.86647403 -0.7515469 0.32238832 -0.111901075
00000000: 2ff0 df3e 225a 15bd ffa0 9c3e 9540 fe3e
00000010: 0709 db3d 8afe b4bd baef 6fbd d6a3 e0bd
00000020: f6fc a1bf 6960 00be 8108 08bf eb70 e93e
00000030: 4c27 3d3f a56c c63d 9685 e53e d12e 53bf
00000040: b6ab aebe 59d8 0d3f 29aa 963d d077 f73e
00000050: 0a79 ec3c 1bce 16bf aa69 c53e 1174 c3be
00000060: 1ee6 c53e 6cdc e6bd 174f d23e 4f1e 61be
00000070: 12b3 6fbe bb11 4a3e 18be 5c3e 277b 413e
00000080: d69c 383e 8c35 acbe 95c2 a33e cfef f4bd
00000090: e8f7 013e 9ffe 3dbe e3dd 95be 2e3d 3d3f
000000a0: 2261 51bf 2206 673f 3632 1fbe 5f64 e33c
000000b0: 116d bc3c e7a8 573f c513 3d3e 3b1b 08bf
000000c0: c49d 1b3e 4e20 1ebf 4838 81bd e321 553d
000000d0: 33ea 24be 2ae3 6b3f 173f 343e 7a5e bb3e
000000e0: 31d9 a3bd 9a47 12bf 2aa6 173f ba4c 7fbe
000000f0: a754 3f3f 6d77 82bf bb31 36bd 5531 3d3e
00000100: 8373 22bf b2dd 5f3f 3be4 ef3e ce08 813e
00000110: 9c4b f63e 04bc 2ebe 0f54 b73e 5bfa 913e
00000120: c672 e83e 3e93 423e 278c b93e d7b9 e1be
00000130: 519b 1cbe 7ec9 b8be f913 103f af97 1e3f
00000140: 9f37 1bbf 45ef a3be 127e ffbe 03f1 34be
00000150: 2ae1 2bbf b679 10be d480 e63d 77d3 32bf
00000160: 80e3 033f 5a8d 3fbf ee1f 0fbf 1950 603f
00000170: cd7a e8be 1652 cbbd b38a 8cbe 5ec8 c63e
00000180: e064 523f 23ef 12bf a2c7 b7be 44cc fbbe
00000190: 517c 9ebd 0863 7a3e 661c 02bf cf99 dcbe
000001a0: 06bb 02be cd12 e5bd 30aa 083f 4b11 9c3d
000001b0: 2da6 f7be 9dd0 10be a90d 45be cc4f ffbd
000001c0: 3077 853d 0d37 4e3e 65dc 123f 5377 9e3d
000001d0: 7dcf 4fbe 30b4 af3e 79ca 2c3f 3734 32be
000001e0: 15e6 df3e a933 20bf 7c94 ff3e 030c 0ebe
000001f0: 152b 87be e7a6 dd3c ce48 c0be 109e bc3e
00000200: e92f debe c20e 1cbe 614f eabe ea7b 31bf
00000210: 5c0a 17bf 6d65 423f 12a1 693e d080 d8be
00000220: f0f3 ac3e 154b 26bf 8d2b 913e 4249 0e3f
00000230: 4b2f b8be 4053 9fbe 9dac 28be a7df be3f
00000240: 0bbe 63bf f61f 333f 62f2 24bf 1768 713e
00000250: 51d7 8dbf cdc9 afbe 5aaf 483f 645b 3f3e
00000260: 989e a13e ab12 093f 103f 22bf 8101 883f
00000270: fcc6 9cbe dfbc 90be 9adb e83e 4cc5 f43e
00000280: 79ae 2f3f ed04 07bd 44c8 8c3f 6dc0 213e
00000290: 087c b4bd ab84 a93c bdbd e4bd abef f3bd
000002a0: c8a6 e1be 7fcf f53d 98d5 443e 090e 783f
000002b0: 809f 173e cba1 763f c45e a43e 71c7 20bd
000002c0: 281f 7cbe 4ecb dd3d 43e0 11be 0c68 97be
000002d0: fa2a 01bf 9544 113f 08a8 493e da22 b4be
000002e0: 1a99 413e bce5 133e 7af1 8abc fc80 863e
000002f0: d915 debe 3013 8a3e e646 b3bd 4b02 e63e
00000300: f72a 9fbe 2424 2ebf 5a75 cdbe 1eab 5bbf
00000310: 0fd1 413b afe9 4b3f fa42 0dbf 1aee e2be
00000320: b5d5 5c3d 1fba 87bf 27b5 8a3e e635 7e3e
00000330: 6aa1 e83e 1657 4abf 492e c1be efc4 6fbd
00000340: c0a8 903e 772f 003f 924f 8d3e ad63 bcbd
00000350: 0176 613f 6cb6 013e 08c0 053f 5948 9c3e
00000360: ba52 953e a30d 7f3f 1540 e5bd 788c 34be
00000370: e56e 9ebe 828f 4b3e 79bf d63e 1c5d 2f3f
00000380: 4b2b 1fbf 3d59 943d 5b2c 82be 8494 3d3f
00000390: 19cb a1bf f9d6 893e e0c1 413f 2770 663f
000003a0: 730d e0bd 963a d8be 33ea 05bf d2d3 77bd
000003b0: 9ca4 963e fd7d cd3e 3fd6 053f fb1d 123e
000003c0: 62eb 933e befe 90be 84cb d5be bbb0 39be
000003d0: e522 03bf cd9e d03e cf7f 36bf 80f3 743d
000003e0: 90cb 50bf 50d9 0a3f 281c 013f 9524 02bf
000003f0: 3ed1 5d3f 6165 40bf 1510 a53e 642c e5bd

network_body._body_endoder.seq_layers.4.bias f4 [16]
-0.023913229 -0.17794497 -0.09004665 0.07423569 0.15445797 -0.04947114 -0.13770375 -0.21772566
0.091900215 0.064978935 -0.50427836 -0.1904456 0.19166446 0.0068399496 0.072656594 0.010129781
00000000: ade5 c3bc 3537 36be 616a b8bd e208 983d
00000010: 3b2a 1e3e 40a2 4abd 3602 0dbe 7af3 5ebe
00000020: 2e36 bc3d ad13 853d 6318 01bf 2c04 43be
00000030: b043 443e a821 e03b fbcc 943d 62f7 253c

action_model._discrete_distribution.branches.0.weight f4 [10, 16]
-0.043077037 0.010287913 -0.019817432 -0.034506623 -0.008667777 0.0020781306 -0.005424001 -0.013005152
-0.008527027 0.02724571 -0.0073538283 -0.002321697 0.011785348 -0.013587968 -0.054481614 -0.011033506
0.15307893 0.15388829 -0.00940552 0.012634761 0.21287377 -0.06363457 -0.28381893 0.09138854
-0.17775781 -0.3704247 0.44705337 -0.22254679 0.08468706 -0.0073901247 -0.16240379 -0.35238695
-0.17337824 -0.13865857 -0.40694523 -0.28164005 -0.25584152 0.9368838 0.17326254 -0.116389595
0.6130261 0.49815643 -0.25535747 0.3201408 0.28518695 -0.34343278 0.07142482 -0.5396095
0.053697176 0.2758037 -0.09531998 -0.044447444 -0.15241316 -0.33965686 -0.07450984 -0.070166
-0.5772182 0.2169985 -0.29857266 -0.4081551 0.037877288 -0.1979272 0.3404509 -0.2105425
0.02527932 -0.05142411 0.007758068 0.3548664 -0.48356676 -0.103479125 0.69786805 0.3668644
0.4422654 -0.86197436 0.4351095 0.29265472 0.41517082 -0.5773174 -0.534735 0.03381041
-0.67802954 0.16550238 -0.59065205 0.27757138 0.4355203 0.3891628 -0.15127344 0.303997
0.66267884 0.508973 -0.86421233 0.42413262 0.15462501 0.19888999 0.51747626 -0.07768769
0.66468275 -0.6684271 0.092260376 0.7415148 -0.26685408 -0.36654252 -0.04715542 -0.24084018
0.13191243 -0.4894747 -0.19055815 -0.106621526 0.5549688 -0.121697046 0.16338477 0.7905044
0.37708667 0.09586044 0.6435544 -0.3624742 -0.09939005 -0.43970048 0.13217488 0.06618147
-1.0502691 0.24730664 0.84057766 -0.2816839 -0.8225711 -0.05112194 0.41303286 0.25817943
-0.32130703 -0.3245343 -0.15839803 -0.53806114 -0.242475 -0.11614388 0.15184352 -0.51480466
0.19400956 0.077034414 0.06131682 0.30509996 -0.14822814 0.39868602 -0.6420111 0.1609867
-0.15197635 0.30076963 0.4225474 -0.3484234 0.5592105 -0.055926945 -0.3864776 0.084458776
-0.47146222 -0.25823256 -0.17074329 -0.26553932 -0.9349485 0.5556214 -0.2974479 -0.2703753
00000000: 8c71 30bd a28e 283c 2b58 a2bc d156 0dbd
00000010: 4b03 0ebc 3f31 083b d1bb b1bb 9013 55bc
00000020: f2b4 0bbc 6532 df3c 62f8 f0bb 9d27 18bb
00000030: 5517 413c 12a0 5ebc 1d28 5fbd e1c5 34bc
00000040: b9c0 1c3e e494 1d3e 9c19 1abc 0702 4f3c
00000050: 95fb 593e d752 82bd b750 91be ea29 bb3d
00000060: 2506 36be 4ea8 bdbe 2ee4 e43e 4ee3 63be
00000070: 6970 ad3d dc28 f2bb 2e4d 26be 106c b4be
00000080: 118a 31be 83fc 0dbe 205b d0be 2033 90be
00000090: a9fd 82be 9ed7 6f3f bc6b 313e ab5d eebd
000000a0: 47ef 1c3f 5c0e ff3e 37be 82be 7fe9 a33e
000000b0: 0604 923e 6cd6 afbe 2d47 923d d923 0abf
000000c0: 92f1 5b3d 2436 8d3e 1f37 c3bd 860e 36bd
000000d0: 3212 1cbe 81e7 adbe 9d98 98bd 31b3 8fbd
000000e0: 92c4 13bf db34 5e3e 84de 98be b5f9 d0be
000000f0: 3725 1b3d 6ead 4abe 954f ae3e 7498 57be
00000100: 9416 cf3c 16a2 52bd 6437 fe3b 0cb1 b53e
00000110: 1096 f7be ddec d3bd 7ba7 323f a7d5 bb3e
00000120: 9c70 e23e 5aaa 5cbf acc6 de3e d7d6 953e
00000130: 4591 d43e 13cb 13bf 65e4 08bf c97c 0a3d
00000140: 5893 2dbf 7579 293e f934 17bf d61d 8e3e
00000150: 84fc de3e 5940 c73e 6de7 1abe 7fa5 9b3e
00000160: 52a5 293f 0e4c 023f 053d 5dbf e927 d93e
00000170: 0556 1e3e d1a9 4b3e 5379 043f b91a 9fbd
00000180: a628 2a3f 0a1e 2bbf 02f3 bc3d ead3 3d3f
00000190: 19a1 88be 76ab bbbe 0b26 41bd cf9e 76be
000001a0: 0d14 073e 6e9c fabe ad21 43be 635c dabd
000001b0: 6f12 0e3f 4d3c f9bd 564e 273e 7f5e 4a3f
000001c0: 8111 c13e 7a52 c43d fbbf 243f 3896 b9be
000001d0: 038d cbbd 6c20 e1be da58 073e 278a 873d
000001e0: 386f 86bf f43d 7d3e 1930 573f df38 90be
000001f0: 0594 52bf 3d65 51bd 0b79 d33e 1830 843e
00000200: 5b82 a4be 5c29 a6be 1833 22be 60be 09bf
00000210: 5e4b 78be d8dc edbd de7c 1b3e 3dca 03bf
00000220: 71aa 463e 38c4 9d3d 5927 7b3d 1036 9c3e
00000230: 1ec9 17be 9320 cc3e d75a 24bf b3d9 243e
00000240: b09f 1bbe 7afe 993e 2258 d83e 8d64 b2be
00000250: 6b28 0f3f a713 65bd 64e0 c5be b9f8 ac3d
00000260: 7f63 f1be 0f37 84be 54d7 2ebe c5f4 87be
00000270: c958 6fbf 343d 0e3f 174b 98be a26e 8abe

action_model._discrete_distribution.branches.0.bias f4 [10]
0.0 0.32013884 -0.5718122 0.1551929 -0.5648179 0.37030667 0.17480485 0.0022757985
-0.27227178 0.10032989
00000000: 0000 0000 3de9 a33e 4962 12bf e3ea 1e3e
00000010: e897 10bf d698 bd3e 0b00 333e 9025 153b
00000020: 3567 8bbe c279 cd3d

exp_avg f4 [16, 9]
-0.0020950001 0.0011312276 -0.00040909837 0.0010262651 0.0029708005 0.0003224202 0.0040859752 -0.0040436145
0.00076783897 1.981409e-05 5.935954e-05 0.0008391741 0.00066310534 0.00010980759 0.00038359233 -0.0010042812
-0.0007877121 -0.0013918064 0.0014245061 0.0001291576 0.00010795516 -0.00045661157 -0.0025264048 0.0019358802
-0.00036369648 -0.0015050839 -0.004989323 1.1256876e-05 -6.408755e-05 0.00022921074 4.8213253e-05 0.0002077283
0.00022704109 -0.00024884343 -0.00047071293 0.0002131559 -0.0001874621 -0.00025787824 0.0004619779 -0.0011943169
-0.00024140478 0.0029613199 -0.0013769144 -0.0011206524 -0.0008140181 -2.1021071e-05 -7.3268326e-05 -0.00033943943
-0.00084997487 -0.0021238294 0.0016360689 -0.00087882136 0.0007371788 -0.0007766398 -1.0144696e-05 0.0006092368
0.0021421546 0.0021742957 -0.002994952 -0.0014648864 -0.004546118 -6.3417625e-05 0.0030719356 -7.8626974e-05
0.000390429 -6.031055e-05 0.0002623793 -0.0018044958 0.00038096114 0.0027319733 -3.5776644e-05 3.847797e-05
-8.543648e-05 0.0006668313 0.0010455607 0.0016359881 -0.003098972 -0.00013297537 -0.0010511128 -0.001988122
-0.0021078489 9.690676e-05 0.0002751293 0.0009611169 0.00069897296 -0.004930192 -0.00043377563 0.0034667812
-0.0008252091 0.0056893793 0.0021489346 -0.000100859026 -0.0016396802 -0.004022811 0.008247157 -0.004062419
0.0037320047 0.0040386464 -0.0016462206 -0.0023528864 -0.0009910743 0.00068950997 0.0009952637 -0.0100589255
-0.004113691 0.011437447 0.0069775106 0.007026378 0.002044533 0.0004937843 0.00017359221 -9.4352814e-05
-0.004255052 -0.0009458191 0.0017043725 -4.6044705e-05 -0.0074136723 0.0019902773 0.00014185524 -0.001738423
-0.0028333636 0.0043557836 -0.0026378878 0.00067260436 0.003173307 -0.009460962 0.0011645963 -0.0002645638
-0.0008921016 -0.0019514086 0.005174726 0.0014775709 -0.0068038004 0.0015056026 -0.009553534 0.0008771803
-0.000522988 -0.002605073 -0.00032590338 -0.0030421347 0.0014666081 -0.0037420841 0.002137983 -0.02382235
00000000: 454c 09bb b345 943a 417c d6b9 be83 863a
00000010: c3b1 423b 820a a939 a5e3 853b 4c80 84bb
00000020: cd48 493a 6f36 a637 d2f8 7838 05fc 5b3a
00000030: 3fd4 2d3a 8048 e638 e41c c939 16a2 83ba
00000040: 777e 4eba 466d b6ba 7eb6 ba3a 7b6e 0739
00000050: fc65 e238 5e65 efb9 0a92 25bb 5cbd fd3a
00000060: 84ae beb9 3c46 c5ba 7a7d a3bb eadb 3c37
00000070: be66 86b8 4a58 7039 9638 4a38 a4d1 5939
00000080: e111 6e39 3377 82b9 05ca f6b9 9a82 5f39
00000090: 7991 44b9 d533 87b9 a035 f239 a08a 9cba
000000a0: 9a21 7db9 b412 423b 9579 b4ba dbe2 92ba
000000b0: d463 55ba 6856 b0b7 a2a7 99b8 caf6 b1b9
000000c0: d9d0 5eba f22f 0bbb 5d71 d63a b460 66ba
000000d0: 3b3f 413a 6a97 4bba 2333 2ab7 31b5 1f3a
000000e0: 6463 0c3b a17e 0e3b f546 44bb 6e01 c0ba
000000f0: 9af7 94bb 14ff 84b8 8752 493b 89e4 a4b8
00000100: 7eb2 cc39 f6f5 7cb8 f48f 8939 d584 ecba
00000110: bdbb c739 e80a 333b e10e 16b8 6863 2138
00000120: 5c2c b3b8 4bce 2e3a 320b 893a a76e d63a
00000130: 1f18 4bbb 4e6f 0bb9 7ec5 89ba 274b 02bb
00000140: d623 0abb 6c3a cb38 3b3f 9039 77f3 7b3a
00000150: 483b 373a 738d a1bb 616c e3b9 f032 633b
00000160: d852 58ba f96d ba3b 24d5 0c3b 4784 d3b8
00000170: 8aea d6ba c9d1 83bb 151f 073c 0a1e 85bb
00000180: a694 743b 9f56 843b ffc5 d7ba e232 1abb
00000190: efe6 81ba 3bc0 343a 8273 823a 31ce 24bc
000001a0: 24cc 86bb 2164 3b3c 9aa3 e43b 883d e63b
000001b0: 92fd 053b 4e71 013a 4e06 3639 48df c5b8
000001c0: f76d 8bbb d8f0 77ba 4065 df3a 2020 41b8
000001d0: 64ee f2bb 506f 023b fabe 1439 ccdb e3ba
000001e0: f4af 39bb f6ba 8e3b 6ae0 2cbb b751 303a
000001f0: 42f7 4f3b 2702 1bbc 5ea5 983a 27b5 8ab9
00000200: eddb 69ba 68c6 ffba bf90 a93b 0dab c13a
00000210: 6af2 debb a457 c53a 6d86 1cbc 93f2 653a
00000220: 2119 09ba dfb9 2abb 03de aab9 8d5e 47bb
00000230: 343b c03a c13d 75bb 671d 0c3b 1727 c3bc

exp_avg_sq f4 [16, 9]
0.00027176054 0.000104779254 0.00059838995 0.00014906473 0.0002507345 0.00018616044 0.0013422194 0.00022834731
0.000374248 0.00014089659 0.00010591329 0.0005757698 0.000107542335 0.00026090993 9.8976256e-05 0.0004978183
0.00010982363 0.00028745935 6.600875e-05 3.0928208e-05 0.00011413198 2.2327311e-05 4.9506572e-05 5.4760214e-05
0.0002061637 5.8579906e-05 0.00012758221 0.00020974911 0.00018149191 0.00025460823 6.49107e-05 4.795277e-05
2.3933959e-05 6.941706e-05 3.1184933e-05 0.00019020918 0.0002357425 0.00011009897 0.00023686943 0.00017413357
0.00014545314 8.861622e-05 0.0033839287 0.00025523073 0.00028377178 0.0019124578 0.00030215998 0.0016019896
0.0002185701 0.0015966735 0.00026433432 0.00045259754 0.00022051884 0.00042964894 0.00073279627 0.00062668265
0.0010624195 0.00023702394 0.0009778624 0.00031359386 0.00036074573 0.000191722 0.00065717474 0.00010405083
5.5843564e-05 0.00065486727 0.0001438885 0.0002065094 6.980748e-05 0.00043928734 0.00013959593 0.00011229859
0.00017017743 0.00015667906 0.000616313 0.00015565715 0.0003048875 0.0002039884 0.000832542 0.00024144835
0.00043207913 9.253018e-05 9.219818e-05 0.00022464329 0.00010776154 0.00035582238 0.00018631927 0.0001976817
0.00019477156 0.00031797666 0.00032251142 0.00034840452 0.0018485859 0.0005444194 0.002055114 0.0014852869
0.00055533566 0.0009288909 0.0032637676 0.0023866447 0.0017945598 0.003188175 0.0011045147 0.0038678185
0.0011881402 0.0023895483 0.0011852225 0.0017008082 4.99565e-05 9.6736505e-05 0.00017944843 5.3278796e-05
0.000112046044 4.771909e-05 0.0001476058 7.276174e-05 0.00019650637 0.00014250215 7.957042e-05 0.0004503157
0.00022638099 0.00086176867 0.00039011112 0.0004914668 0.0003426945 0.0008680888 0.0004426886 0.0004487386
0.0013120602 0.00091549166 0.002106107 0.001437047 0.0010799884 0.00040487453 0.0017774523 0.0006401262
0.0002363861 0.00040624023 0.000104702674 0.00064519356 0.0004915325 0.0006415586 0.00053276244 0.0026789003
00000000: 157b 8e39 efbc db38 45dd 1c3a 424e 1c39
00000010: 0475 8339 1034 4339 69ed af3a 8470 6f39
00000020: b736 c439 a4bd 1339 c41d de38 42ef 163a
00000030: 5a88 e138 bdca 8839 7991 cf38 0580 023a
00000040: 1d51 e638 24b6 9639 2e6e 8a38 e9b8 0138
00000050: 245a ef38 894b bb37 47a5 4f38 55ae 6538
00000060: a62d 5839 b2b3 7538 97c7 0539 19f0 5b39
00000070: dd4e 3e39 f07c 8539 ab20 8838 e520 4938
00000080: c9c5 c837 0094 9138 91cc 0238 e372 4739
00000090: a531 7739 efe4 e638 2760 7839 a097 3639
000000a0: c884 1839 79d7 b938 e7c4 5d3b 7dd0 8539
000000b0: 34c7 9439 6fab fa3a 3a6b 9e39 daf9 d13a
000000c0: f72f 6539 7947 d13a 5a96 8a39 9d4a ed39
000000d0: 133b 6739 8142 e139 2019 403a f647 243a
000000e0: e240 8b3a a189 7839 9e2b 803a db69 a439
000000f0: 7922 bd39 fc08 4939 4046 2c3a dd35 da38
00000100: 9239 6a38 66ab 2b3a c6e0 1639 728a 5839
00000110: 9b65 9238 2650 e639 7f60 1239 d981 eb38
00000120: a871 3239 374a 2439 1190 213a e637 2339
00000130: 4fd9 9f39 b8e5 5539 f33e 5a3a 4c2d 7d39
00000140: ae88 e239 c30c c238 855a c138 398e 6b39
00000150: 09fe e138 ac8d ba39 b35e 4339 c748 4f39
00000160: 983b 4c39 1bb6 a639 c016 a939 10aa b639
00000170: 404c f23a 5eb7 0e3a 17af 063b f5ad c23a
00000180: f293 113a d080 733a efe4 553b 4169 1c3b
00000190: 6f37 eb3a b3f0 503b 5dc5 903a 3a7b 7d3b
000001a0: 5fbb 9b3a f899 1c3b 7859 9b3a a7ed de3a
000001b0: 6288 5138 04df ca38 522a 3c39 ac77 5f38
000001c0: 43fa ea38 fc25 4838 a1c6 1a39 a997 9838
000001d0: 470d 4e39 a16c 1539 0bdf a638 5a18 ec39
000001e0: af60 6d39 51e8 613a d487 cc39 c7d5 003a
000001f0: adab b339 7490 633a a818 e839 ad44 eb39
00000200: 6ff9 ab3a 9bfd 6f3a 9d06 0a3b 4c5b bc3a
00000210: 668e 8d3a 5745 d439 67f9 e83a 24ce 273a
00000220: 69de 7739 a4fc d439 d293 db38 3522 293a
00000230: 30da 003a 452e 283a 15a9 0b3a 7d90 2f3b

exp_avg f4 [16]
0.00032241846 -0.0042767436 -0.007624683 0.0018752429 0.0039066924 0.0052978704 0.0033157158 -0.0022272428
-0.0047027348 0.007006216 -0.0013234034 0.01604789 -0.010560722 -0.014089514 -0.0128983045 -0.030789543
00000000: 460a a939 ed23 8cbb 7ad8 f9bb b6ca f53a
00000010: b603 803b c299 ad3b 7b4c 593b eff6 11bb
00000020: 6619 9abb 6694 e53b 0d76 adba dd76 833c
00000030: e106 2dbc b4d7 66bc 6953 53bc 5a3a fcbc

exp_avg_sq f4 [16]
0.002216118 0.0015817209 0.0015799111 0.0005202568 0.005333297 0.0037264358 0.0020475253 0.0018574824
0.0022233522 0.000564349 0.0057499437 0.0075179813 0.0007650651 0.0020086698 0.0053909686 0.0042548804
00000000: 4a3c 113b bf51 cf3a 0515 cf3a d861 083a
00000010: f0c2 ae3b 3837 743b c62f 063b c476 f33a
00000020: a9b5 113b d2f0 133a 066a bc3b 6659 f63b
00000030: a68e 483a e3a3 033b b9a6 b03b 866c 8b3b

exp_avg f4 [16, 16]
0.00046928372 0.0014572999 -0.0003172996 0.00047459305 0.0020516152 0.00052355294 -0.0031867512 0.0014895711
-0.0026002624 -0.0042536505 -0.005636085 0.0034352061 -0.0013579177 -0.0024860902 0.00069794036 -0.0012621846
0.00042602513 -0.00030135553 4.5852343e-05 0.0016522158 0.00069380907 0.0015088989 0.00035932258 0.0017188522
-0.00015993402 0.003489045 -0.00016951015 0.0017813012 0.0010658391 -0.0027726323 -0.00028092024 -0.0039893123
0.0013398943 0.00027824877 -0.00045226235 0.0024801365 0.0024844918 0.0019285197 -0.00034972813 0.0018767406
-0.0007245521 0.002686599 -0.0049277917 0.0029182006 -0.0007999757 -0.0051562483 0.00053854374 -0.0049375147
0.0024896145 -9.483963e-05 -0.00047452847 -3.182399e-05 0.00020894861 -0.00057443377 0.00038974744 0.0004970845
0.0006134111 0.0007518859 -0.00043559572 0.0007584305 1.32589985e-05 -0.00043319524 9.9695775e-05 -0.00047344866
-0.0008250347 -0.0007498933 -0.0004279552 0.0021438752 7.210102e-05 0.0019716653 -0.0006079753 0.0017266464
-0.0008786513 0.0021633448 -0.0027486796 0.001330734 0.00056452723 -0.0041612494 -0.0007388544 -0.0055290153
-0.00013501434 0.00065149984 0.000306334 -0.001032603 0.00019293244 -0.0010173921 -0.0007393082 -0.00059018825
-0.0013245769 -0.0040937467 0.00042077556 2.9243905e-05 -0.0006004862 0.0015580282 0.0014803078 0.002232369
0.00108311 -3.5486468e-05 -0.00067903876 -0.0002292274 0.0005146662 -0.0007410691 0.001967618 0.000560411
0.00091875973 0.0028034698 0.00033168643 0.0012100152 -0.00068406865 -0.00047610217 0.0013010132 -0.0014568307
0.0014915377 -0.00018131743 -0.0017216777 -0.00026648678 -0.0009223367 -0.00069578725 0.0010286035 0.00086988125
0.0008416726 0.001296908 -0.00075568556 0.00079295883 -0.0010118845 -0.0010052957 8.1688755e-05 -0.0022709074
-0.0006886977 -0.00071272283 0.0001746152 0.0011801212 0.00013016949 0.0009072934 -0.0005311094 0.0009275912
-0.00057616504 0.00071142206 -0.0009698504 0.0011217258 0.00088289555 -0.0024290006 -0.0004841212 -0.0024782415
-0.0004940992 -0.0011502136 -0.00061692635 0.0021993723 -0.00044477053 0.0026111295 -0.0023804354 0.0022305541
0.00017688941 0.0015705073 -0.0010632051 -0.0007963352 0.00014101586 -0.004289405 -0.005488188 -0.0054919217
-0.00016838741 0.0012704226 -0.0002497444 -0.0015542404 0.00026479026 -0.0018648634 0.00089198624 -0.0008628046
-0.0006862914 -0.0016284825 0.0013082438 0.0009954609 -0.0015523375 0.003447149 0.0030320357 0.0038966904
-0.0017900923 0.0013490733 -0.0007826314 -0.0018230287 -0.00013452022 -0.0008944379 0.0029229799 -0.0012688044
0.00031307572 0.0016890342 0.00054247543 0.0012726325 -0.0013944115 0.000832823 0.0047497544 -0.0002986946
0.000608546 -0.0013559449 -0.00033423552 7.131016e-05 -0.0001946305 -0.00041504012 -0.004347531 -0.00030159767
0.00022282368 -0.002923975 -0.0012106814 -0.003930019 -0.0013578789 0.0014193754 -0.007159454 0.0038107098
-0.00056553923 0.00021460517 -0.0002628255 -0.00040954287 -0.0007690586 -0.00032765 0.0012489447 -0.00077895535
0.00046356343 0.00094815943 0.00051928626 -0.0004718801 -0.00014627681 0.0008806015 0.0014124068 0.00051453814
0.0013716685 -0.00062811514 -0.00022215233 0.0008287161 0.0007393084 0.00046653868 -0.00090874993 0.0012365899
0.00053999154 0.0017385059 -0.00025837825 0.00038637687 -2.6955313e-05 -0.0014358048 -0.0021342242 -0.0016658967
-0.0028549642 0.001795031 -0.00077435013 -0.00012837618 -0.0014435819 -0.00019856753 0.0044363453 -0.00117093
5.2088482e-05 0.0024171316 0.0017004319 -0.000516709 -0.00027481574 0.00063886784 0.0040514907 -0.0014284155
00000000: 320a f639 df02 bf3a 3b5b a6b9 cdd2 f839
00000010: 6474 063b 0b3f 093a d0d8 50bb b63d c33a
00000020: 2a69 2abb 3562 8bbb e8ae b8bb 3221 613b
00000030: 28fc b1ba aced 22bb fcf5 363a e36f a5ba
00000040: 205c df39 41ff 9db9 9451 4038 2a8f d83a
00000050: bde0 353a 3fc6 c53a 7663 bc39 1c4b e13a
00000060: f6b3 27b9 76a8 643b 89be 31b9 8d7a e93a
00000070: a0b3 8b3a 0db5 35bb 7a48 93b9 c7b8 82bb
00000080: 649f af3a ebe1 9139 a01d edb9 c989 223b
00000090: dbd2 223b 62c6 fc3a b75b b7b9 f7fc f53a
000000a0: deef 3dba a711 303b 5079 a1bb 483f 3f3b
000000b0: 76b5 51ba bff5 a8bb 0f2d 0d3a e0ca a1bb
000000c0: cd28 233b a3e4 c6b8 22ca f8b9 c07a 05b8
000000d0: 3719 5b39 9995 16ba 0457 cc39 c74e 023a
000000e0: 52cd 203a 351a 453a ab60 e4b9 69d1 463a
000000f0: f772 5e37 7b1e e3b9 c313 d138 3439 f8b9
00000100: 2447 58ba 7d94 44ba 2d5f e0b9 4280 0c3b
00000110: f134 9738 0e37 013b 8860 1fba a450 e23a
00000120: 4a55 66ba e7c6 0d3b 3123 34bb 066c ae3a
00000130: c8fc 133a 175b 88bb aeaf 41ba be2c b5bb
00000140: a392 0db9 6ac9 2a3a 749b a039 6858 87ba
00000150: e84d 4a39 045a 85ba 22ce 41ba ddb6 1aba
00000160: 6d9d adba d624 86bb 8a9b dc39 cf50 f537
00000170: f269 1dba c036 cc3a e306 c23a f04c 123b
00000180: 24f7 8d3a 4ed7 14b8 8501 32ba c35c 70b9
00000190: aaea 063a 4e44 42ba 27f3 003b 8ce8 123a
000001a0: ecd8 703a 6bba 373b 33e6 ad39 5f99 9e3a
000001b0: 1253 33ba 5a9d f9b9 c286 aa3a 20f3 beba
000001c0: b37f c33a 0720 3eb9 eba9 e1ba 40b7 8bb9
000001d0: f8c8 71ba 7e65 36ba 35d2 863a be08 643a
000001e0: b1a3 5c3a 03fd a93a 3319 46ba 91de 4f3a
000001f0: 36a1 84ba 20c4 83ba 5150 ab38 81d3 14bb
00000200: b889 34ba 05d6 3aba e918 3739 4cae 9a3a
00000210: 1b7e 0839 6ed7 6d3a 263a 0bba 9729 733a
00000220: c809 17ba ba7e 3a3a 8f3d 7eba df06 933a
00000230: 1e72 673a de2f 1fbb a6d1 fdb9 fe69 22bb
00000240: 7086 01ba c4c2 96ba 3ab9 21ba 5823 103b
00000250: 1730 e9b9 7c1f 2b3b 1401 1cbb 7d2e 123b
00000260: 647b 3939 7bd9 cd3a 3e5b 8bba 27c1 50ba
00000270: a8dd 1339 238e 8cbb 42d6 b3bb 94f5 b3bb
00000280: 2791 30b9 4f84 a63a 20f0 82b9 a7b7 cbba
00000290: 8cd3 8a39 6f6e f4ba 2fd4 693a d62d 62ba
000002a0: 3ce8 33ba ce72 d5ba 6179 ab3a 207a 823a
000002b0: ce77 cbba 90e9 613b 1eb5 463b 9e5f 7f3b
000002c0: 88a1 eaba 63d3 b03a 8129 4dba b1f2 eeba
000002d0: ff0d 0db9 b678 6aba 778f 3f3b 034e a6ba
000002e0: 5024 a439 9562 dd3a e934 0e3a 76ce a63a
000002f0: b0c4 b6ba ce51 5a3a d4a3 9b3b 1c9a 9cb9
00000300: d586 1f3a f6b9 b1ba 553c afb9 5a8c 9538
00000310: ba15 4cb9 be99 d9b9 bc75 8ebb c11f 9eb9
00000320: c7a5 6939 29a0 3fbb baaf 9eba 64c7 80bb
00000330: dbfa b1ba 560a ba3a da99 eabb 1abd 793b
00000340: b240 14ba a307 6139 d7cb 89b9 eab7 d6b9
00000350: a69a 49ba 70c8 abb9 a1b3 a33a cf32 4cba
00000360: 6e0a f339 e78d 783a b620 083a ad66 f7b9
00000370: e261 19b9 2bd8 663a 8220 b93a 12e2 063a
00000380: 8fc9 b33a 18a8 24ba 90f1 68b9 323e 593a
00000390: 26ce 413a c399 f439 2d39 6eba 1215 a23a
000003a0: 388e 0d3a 94de e33a f176 87b9 a092 ca39
000003b0: 181e e2b7 9d31 bcba 57de 0bbb 385a daba
000003c0: 5a1a 3bbb 3f47 eb3a c2fd 4aba b89c 06b9
000003d0: 9236 bdba 9136 50b9 c35e 913b e479 99ba
000003e0: 9579 5a38 bd68 1e3b 07e1 de3a c173 07ba
000003f0: 2515 90b9 b279 273a 5ec2 843b ac39 bbba

exp_avg_sq f4 [16, 16]
0.0002807344 0.00013220901 6.8362024e-05 0.00021125366 0.00037274827 0.00010281193 0.00057916297 0.00015753787
5.4907232e-05 0.00029667295 0.00021126537 0.0010487201 7.669128e-05 0.00017797085 0.00059300783 0.00019306144
0.00030769527 0.00011670941 6.079499e-05 6.493232e-05 9.9731216e-05 7.64557e-05 0.00044394622 0.00010402065
5.1131254e-05 0.00010549878 0.0002442097 0.00017121801 8.706396e-05 0.00027476283 0.0001557889 0.00035888713
0.00012917993 4.2971755e-05 4.3359432e-05 5.7982652e-05 6.425567e-05 9.686499e-05 2.208987e-05 4.939437e-05
2.4342655e-05 2.4394702e-05 0.00021783012 4.132619e-05 9.7245706e-05 0.00021269258 2.6566493e-05 0.00026963002
8.0421785e-05 2.2006596e-05 1.2792449e-05 3.4016193e-05 4.050826e-05 1.18429025e-05 1.5885551e-05 3.177117e-05
1.418426e-05 1.7771774e-05 7.1375754e-05 4.874381e-05 2.249784e-05 3.5093617e-05 1.6047454e-05 3.8715727e-05
0.000195284 3.5662648e-05 6.217558e-05 7.074629e-05 0.00010719445 8.948877e-05 9.763957e-05 9.641472e-05
4.8186663e-05 7.784331e-05 0.00023194782 0.00010525221 0.00013096478 0.0001591011 0.00014531249 0.00020759163
0.00017100037 0.0003835254 7.779438e-05 8.624762e-05 0.00012563432 7.752154e-05 0.0009160776 9.406127e-05
7.04559e-05 0.00020986769 0.00032147477 0.00061444467 7.6510725e-05 0.0002226515 0.00032085844 0.0001407767
0.00014024966 4.889854e-05 1.8670218e-05 3.6834397e-05 5.438701e-05 2.5813544e-05 6.507372e-05 6.273678e-05
3.2432494e-05 9.617952e-05 4.3139644e-05 0.00014863614 2.5009384e-05 3.0323175e-05 3.5017907e-05 3.4727607e-05
0.00013196516 1.5136078e-05 1.6743223e-05 8.732567e-05 0.00011362529 2.0165184e-05 2.6710215e-05 2.9584759e-05
2.0681775e-05 2.7742917e-05 3.449029e-05 0.00012437004 2.2516137e-05 2.2401124e-05 2.5136858e-05 4.8191196e-05
0.00017530592 0.00014166065 4.1675343e-05 0.00020398773 0.0001256784 0.00019929322 0.00012709442 9.99824e-05
3.175872e-05 8.894897e-05 0.000119036435 0.0005958234 0.00012219769 0.0002583501 2.8973453e-05 0.00039489506
0.00010341164 0.00027718963 0.00013394274 0.0001506194 0.00016133055 0.00016359011 0.0013998153 0.0001027431
4.7085137e-05 0.0002016169 0.00063226855 0.0002832325 0.00018209284 0.0004484082 0.0010250662 0.00029013655
9.428923e-05 0.0003658188 4.5294175e-05 5.680199e-05 0.00010129266 5.5392084e-05 0.0004733455 6.630506e-05
1.5118906e-05 4.412825e-05 0.0001188122 0.00085848273 4.7560323e-05 0.000111281646 0.00013709345 0.00011023156
8.771602e-05 0.00037987766 6.7497305e-05 0.00016767318 0.00018840878 0.00025654474 0.00080440415 9.418273e-05
4.1489347e-05 0.0001712016 0.0001001038 0.0010590432 7.124266e-05 7.051124e-05 0.0007572318 0.000116729294
8.914278e-05 0.00036898974 0.000102647326 6.8356436e-05 6.884218e-05 7.802787e-05 0.0006102482 9.2601294e-05
3.527826e-05 0.00012655716 0.0006586109 0.00039798024 0.00016846189 0.00033448666 0.0008836147 0.00018967013
5.1211824e-05 2.089819e-05 1.4943134e-05 0.00011948226 6.157654e-05 8.38942e-05 0.00013655021 7.4377385e-05
8.661968e-06 3.4210785e-05 2.890102e-05 0.000119629796 4.582873e-05 1.9204772e-05 0.00020359893 1.6930937e-05
3.968346e-05 7.0392074e-05 1.9307246e-05 1.6388614e-05 2.309472e-05 1.5749025e-05 0.00020294345 2.0196729e-05
1.669043e-05 4.792089e-05 8.7254535e-05 4.188734e-05 2.2262691e-05 5.6182747e-05 0.00015838952 2.9823339e-05
0.0004403812 0.0002618372 9.158882e-05 0.0001438222 0.00019872955 0.00010382344 0.00097616453 0.00016743419
0.000115751776 0.00024703762 0.00016758339 0.0007464232 9.8628254e-05 0.000115450945 0.00080476963 0.0001483302
00000000: 892f 9339 96a1 0a39 955d 8f38 f983 5d39
00000010: 6d6d c339 bc9c d738 f8d2 173a c030 2539
00000020: 314c 6638 c58a 9b39 1e87 5d39 3575 893a
00000030: 51d5 a038 b09d 3a39 1574 1b3a 8970 4a39
00000040: 2952 a139 e3c1 f438 20fe 7e38 462c 8838
00000050: ca26 d138 d756 a038 74c1 e839 a925 da38
00000060: c475 5638 3a3f dd38 4509 8039 fc88 3339
00000070: 1c96 b638 0b0e 9039 445b 2339 0429 bc39
00000080: 7974 0739 923c 3438 d6dc 3538 6632 7338
00000090: 00c1 8638 ff23 cb38 a24d b937 cd2c 4f38
000000a0: 7433 cc37 39a3 cc37 5469 6439 a955 2d38
000000b0: 64f0 cb38 3b06 5f39 1cdb de37 215d 8d39
000000c0: 1ea8 a838 ce9a b837 269f 5637 9cac 0e38
000000d0: 6ae7 2938 e1b0 4637 f641 8537 0942 0538
000000e0: eff8 6d37 9814 9537 91af 9538 4472 4c38
000000f0: beb9 bc37 7c31 1338 a59d 8637 b262 2238
00000100: 26c5 4c39 7a94 1538 4364 8238 a05d 9438
00000110: 95cd e038 ebab bb38 d8c3 cc38 4232 ca38
00000120: 091c 4a38 cf3f a338 0537 7339 daba dc38
00000130: 9753 0939 60d4 2639 065f 1839 f4ac 5939
00000140: 904e 3339 e813 c939 8a25 a338 d7df b438
00000150: b5bc 0339 0f93 a238 ed24 703a c342 c538
00000160: b9c1 9338 ee0f 5c39 9d8b a839 af12 213a
00000170: 6274 a038 8f77 6939 e438 a839 759d 1339
00000180: fb0f 1339 6818 4d38 fd9d 9c37 a27e 1a38
00000190: 9b1d 6438 2a8a d837 3078 8838 8d91 8338
000001a0: 2008 0838 fdb3 c938 d7f0 3438 36db 1b39
000001b0: 3ecb d137 865e fe37 31e0 1238 7ca8 1138
000001c0: 2160 0a39 f6f0 7d37 cc73 8c37 9d22 b738
000001d0: 1d4a ee38 6728 a937 c00f e037 c92c f837
000001e0: c67d ad37 76b9 e837 aba9 1038 5469 0239
000001f0: 09e1 bc37 0cea bb37 fedc d237 e720 4a38
00000200: 53d2 3739 be8a 1439 8fcc 2e38 8ae5 5539
00000210: 8ac8 0339 5ef9 5039 a644 0539 a4ad d138
00000220: aa34 0538 1d8a ba38 33a3 f938 0831 1c3a
00000230: 3122 0039 2a73 8739 040c f337 eb09 cf39
00000240: b4de d838 c353 9139 fb72 0c39 96ef 1d39
00000250: d72a 2939 6389 2b39 027a b73a c877 d738
00000260: 487d 4538 2069 5339 d3be 253a d37e 9439
00000270: 2df0 3e39 5418 eb39 845b 863a 781d 9839
00000280: 25bd c538 5ecb bf39 40fa 3d38 ac3e 6e38
00000290: 156d d438 cc54 6838 5c2b f839 420d 8b38
000002a0: 35a7 7d37 5916 3938 d02a f938 cd0b 613a
000002b0: 827b 4738 e15f e938 bec0 0f39 1e2c e738
000002c0: 2ef4 b738 512a c739 578d 8d38 6dd1 2f39
000002d0: 998f 4539 da80 8639 a6de 523a f883 c538
000002e0: d904 2e38 9484 3339 d2ee d138 98cf 8a3a
000002f0: 1d68 9538 6fdf 9338 f780 463a 90cc f438
00000300: 2af2 ba38 f774 c139 5d44 d738 955a 8f38
00000310: 5d5f 9038 e5a2 a338 10f9 1f3a f132 c238
00000320: bef7 1338 6eb4 0439 a1a6 2c3a 01a8 d039
00000330: 25a5 3039 0a5e af39 61a2 673a 30e2 4639
00000340: 47cc 5638 854e af37 46b4 7a37 8d92 fa38
00000350: a722 8138 5bf0 af38 eb2e 0f39 0efb 9b38
00000360: df52 1137 8d7d 0f38 7870 f237 c2e1 fa38
00000370: 3938 4038 ef19 a137 2c7d 5539 e906 8e37
00000380: ca71 2638 759f 9338 fff5 a137 487a 8937
00000390: 89bb c137 c61c 8437 38cd 5439 256c a937
000003a0: 6d02 8c37 aafe 4838 6cfc b638 30b0 2f38
000003b0: c4c0 ba37 c4a5 6b38 5d15 2639 222d fa37
000003c0: f7e2 e639 3247 8939 6013 c038 face 1639
000003d0: 0f62 5039 c9bb d938 4be5 7f3a 4691 2f39
000003e0: c3bf f238 d484 8139 53b9 2f39 9dab 433a
000003f0: a4d6 ce38 411e f238 2df7 523a 1689 1b39

exp_avg f4 [16]
-0.0009294476 -0.0102908565 -0.0086503895 -0.00094613497 -0.011492936 0.003764693 0.00033585005 -0.0027228883
-0.005645583 -0.012563218 0.005661353 0.010517953 -0.0030999635 0.002496588 -0.005465203 0.0010999691
00000000: 2ca6 73ba fb9a 28bc 5dba 0dbc 0b06 78ba
00000010: de4c 3cbc 11b9 763b 0815 b039 7c72 32bb
00000020: 95fe b8bb f5d5 4dbc df82 b93b 7e53 2c3c
00000030: c228 4bbb cc9d 233b 7215 b3bb d72c 903a

exp_avg_sq f4 [16]
0.0014014771 0.0012776797 0.00039749165 0.0003487749 0.0013875389 0.0017860794 0.00078831427 0.00041269226
0.002193694 0.0026581504 0.000913137 0.0019538705 0.001707362 0.00047667866 0.00040117846 0.0029626896
00000000: c5b1 b73a d177 a73a 6d66 d039 c6db b639
00000010: 14de b53a e11a ea3a e0a6 4e3a 9e5e d839
00000020: 14c4 0f3b 5d34 2e3b 965f 6f3a 820c 003b
00000030: 90c9 df3a baea f939 4355 d239 af29 423b
