Assets/onnx/TTT_29/X_Behavior/X_Behavior-100005.onnx (onnx, 5958 bytes, 8 tensors)

network_body._body_endoder.seq_layers.0.weight f4 [16, 9]
0	0xbf755d71	-0.95845705
1	0xbe953107	-0.29138967
2	0xbf4c1547	-0.79719967
3	0x3efc25c2	0.49247557
4	0x3fa7c9d0	1.3108463
5	0x3ea241b7	0.3169076
6	0xbed13d9c	-0.40867317
7	0xbe56f2df	-0.20991085
8	0xbeeb20fc	-0.45923603
9	0xbee6c4a4	-0.450719
10	0xbe7ab281	-0.24482156
11	0xbf5b8bf0	-0.857604
12	0xbec23b09	-0.37935665
13	0xbf8ff274	-1.1245866
14	0x3f4f3ccc	0.80952144
15	0xbfa9a027	-1.3252
16	0x3f564a5f	0.8370723
17	0xbd0fe8a5	-0.035133976
18	0xbea1d820	-0.31610203
19	0xbebd009e	-0.36914533
20	0x3f12842c	0.5723293
21	0xbf1be94c	-0.6090286
22	0xbf337ff1	-0.701171
23	0xbf80ba3b	-1.0056833
24	0x3efdcb5f	0.49569222
25	0x3f740476	0.95319307
26	0x3f3bc485	0.7334674
27	0x3eab864d	0.335009
28	0x3f885154	1.0649819
29	0xbf2d8acd	-0.6778992
30	0xbe5a0ad4	-0.21293193
31	0xbf20bacc	-0.6278503
32	0x3e85bada	0.2611912
33	0xbf279039	-0.6545444
34	0x3ec043fe	0.37551874
35	0xbea31031	-0.3184829
36	0xbf824eb9	-1.0180274
37	0xbf440875	-0.76575404
38	0xbf4b7383	-0.7947313
39	0x3eb79faf	0.35864016
40	0xbfb12db4	-1.3842072
41	0x3e30a572	0.17250612
42	0x3ea503d2	0.32229477
43	0x3f8d432a	1.1036122
44	0x3f6d42b3	0.926799
45	0x3f0fc5bb	0.5616109
46	0xbf0de405	-0.55426055
47	0xbf49fb05	-0.7889865
48	0x3f7d7d08	0.9901891
49	0xbf160dab	-0.58614606
50	0x3efde379	0.4958761
51	0x3da99a8b	0.0828143
52	0x3dc4b7a9	0.09605343
53	0xbd451d8e	-0.04812389
54	0x3f81743e	1.0113599
55	0xbebb0e00	-0.3653412
56	0xbd3bdec0	-0.045866728
57	0x3fb2db6e	1.3973215
58	0x3d68d919	0.056847665
59	0x3f1743b4	0.5908768
60	0x3f0498d4	0.517957
61	0xbf34f434	-0.70685124
62	0x3ee98a15	0.4561316
63	0x3f3e8e8d	0.74436265
64	0xbd8e809c	-0.06958124
65	0xbf3e5bc9	-0.74358803
66	0x3f955a7a	1.1668236
67	0x3fd440c0	1.658226
68	0x3e228b9b	0.15873568
69	0xbe7fecec	-0.24992722
70	0xbf7d49f1	-0.9894095
71	0xbe88843e	-0.26663393
72	0xbf57a430	-0.84234905
73	0xbe4ff756	-0.20309195
74	0xbeeef2f6	-0.4666974
75	0xbeaf4308	-0.34230828
76	0x3f5d5013	0.8645031
77	0x3f1e9213	0.6194164
78	0xbf501163	-0.8127653
79	0xbed04492	-0.40677315
80	0x3f75fc85	0.9608844
81	0xbdfc565c	-0.12321159
82	0xbe29c1dd	-0.16577859
83	0x3ef781c8	0.48341203
84	0xbf73b629	-0.9519983
85	0xbea0ad83	-0.3138238
86	0x3f25c454	0.647527
87	0xbf89e741	-1.0773698
88	0xbf84738f	-1.0347766
89	0xbf75c01e	-0.9599627
90	0x3e0e1675	0.13875754
91	0xbe46fe74	-0.19433004
92	0xbef663e0	-0.48123074
93	0x3fb0a226	1.3799484
94	0x3bbc64e4	0.005749332
95	0x3ec5fd81	0.3866997
96	0x3f2653f3	0.64971846
97	0x3ef0fc8d	0.4706768
98	0x3ebb6aa2	0.36604792
99	0x3c85bca3	0.0163253
100	0x3f8b27ad	1.0871483
101	0x3eb30ac4	0.3496915
102	0xbf6a3b1d	-0.9149645
103	0xbed35382	-0.4127465
104	0xbf412636	-0.7544893
105	0xbea36e85	-0.31920257
106	0xbe9714ac	-0.2950796
107	0xbef37219	-0.47547987
108	0x3ef9e4ac	0.48807275
109	0x3f82b9aa	1.021291
110	0x3eda3521	0.4261866
111	0xbf849ef8	-1.0361013
112	0xbf2bd624	-0.6712363
113	0x3f28696d	0.65785867
114	0x3e0e0403	0.13868718
115	0xbf7b5bda	-0.9818703
116	0xbf61525c	-0.88016295
117	0x3dbba34d	0.091620065
118	0x3d977871	0.07396019
119	0x3f064332	0.5244628
120	0x3f75c148	0.9599805
121	0xbf01ef8c	-0.50756145
122	0x3e893a6a	0.2680238
123	0x3f976e6d	1.1830574
124	0xbf1ff26d	-0.6247929
125	0xbf768d91	-0.96309763
126	0x3f49a552	0.78767884
127	0x3f09f50a	0.53889525
128	0xbf967976	-1.1755817
129	0x3f3019bb	0.6878926
130	0x3f990916	1.1955898
131	0xbf1bb5f6	-0.60824525
132	0x3e362f90	0.17791581
133	0xbf1d6d0b	-0.6149451
134	0xbffa438c	-1.9551864
135	0xbf94e72f	-1.1633052
136	0x3ef27df4	0.4736172
137	0x3ecb8be6	0.39755172
138	0xbf9a6847	-1.2063073
139	0x3dfe01ee	0.12402712
140	0x3ec1ad2e	0.37827438
141	0xbf92d3fd	-1.1470944
142	0xbef03c01	-0.4692078
143	0x3cbd8de9	0.023138957

network_body._body_endoder.seq_layers.0.bias f4 [16]
0	0x3e91ccb5	0.28476492
1	0x3ea9974d	0.33123246
2	0xbe9676d8	-0.29387546
3	0x3e820795	0.2539641
4	0x3da2807a	0.07934661
5	0xbee1cc0e	-0.44100994
6	0xbeb09793	-0.34490642
7	0x39b0d31c	0.00033726625
8	0x3dded26c	0.108799785
9	0x3e22f40c	0.15913409
10	0xbe127511	-0.1430247
11	0xbe86a985	-0.26301208
12	0xbdba2b3f	-0.0909028
13	0x3e1badb7	0.15202986
14	0xbe11e9ce	-0.14249346
15	0xbe349ab1	-0.17637135

network_body._body_endoder.seq_layers.2.weight f4 [16, 16]
0	0xbf521de8	-0.82076883
1	0x3f316cd9	0.69306713
2	0x3e75fb86	0.2402173
3	0x3f09d053	0.538335
4	0x3fc025e0	1.5011559
5	0x3e11f27f	0.14252661
6	0xbe8edad1	-0.2790132
7	0x3c9db4e4	0.019251294
8	0xbed079e6	-0.40718
9	0x3d5caf94	0.05387838
10	0x3f267353	0.6501972
11	0xbea9a15c	-0.3313092
12	0xbe6fd0c9	-0.23419489
13	0x3c6e9629	0.014562168
14	0x3e83d3a5	0.2574741
15	0xbd6ea90f	-0.058266696
16	0xbfaaef65	-1.3354307
17	0xbfd63b84	-1.6736913
18	0x3f0209b4	0.50796056
19	0x3d4778f5	0.048699338
20	0xbf8386b4	-1.0275483
21	0x3eadc30b	0.33937868
22	0x3f1f772e	0.6229123
23	0xbf10b406	-0.56524694
24	0xbf339a13	-0.70156974
25	0xbefc374d	-0.4926094
26	0x3eaab65d	0.33342257
27	0x3ed9aad3	0.4251314
28	0x3f18c5c0	0.5967674
29	0x3ed717ed	0.4201044
30	0xbf93c03b	-1.1543039
31	0xbf84a23e	-1.0362012
32	0xbde0178a	-0.1094199
33	0x3e11bb01	0.14231493
34	0xbead1aaa	-0.33809406
35	0x3eb3e4cb	0.35135493
36	0xbedec385	-0.43508545
37	0xbee142c4	-0.4399625
38	0xbe07d9cf	-0.13266681
39	0x3f35386c	0.7078922
40	0x3e7b1ff7	0.24523912
41	0x3e17cecc	0.1482498
42	0xbec0090f	-0.3750691
43	0x3f19db65	0.60100394
44	0x3f19aec9	0.60032326
45	0xbf16ee7b	-0.5895764
46	0xbf03a3de	-0.51421916
47	0x3f3cb340	0.73711014
48	0xbf182ad4	-0.5944035
49	0xbd894bea	-0.067039326
50	0x3f2860b1	0.6577254
51	0xbf48b073	-0.7839424
52	0x3f0707b5	0.52746135
53	0xbea094a7	-0.31363413
54	0xbe99609b	-0.29956517
55	0xbf80f23a	-1.0073922
56	0x3e976fe4	0.29577553
57	0xbfc98dcd	-1.5746399
58	0x3d5f8186	0.054566883
59	0x3e9c4617	0.30522224
60	0xbf89ce7f	-1.0766143
61	0xbee98fdc	-0.45617568
62	0xbf1440e7	-0.57911533
63	0xbf35d34f	-0.71025556
64	0x3e9c9ff4	0.30590785
65	0xbecd2936	-0.40070504
66	0xbddf85d8	-0.109142005
67	0xbf09fb90	-0.5389948
68	0x3c9d2434	0.019182302
69	0x3ec3e46c	0.3826021
70	0x3f43cea6	0.76487195
71	0xbead0dca	-0.33799583
72	0x3ef0ada0	0.47007465
73	0xbf4ea953	-0.8072712
74	0x3f546604	0.82968163
75	0xbea1e290	-0.31618166
76	0xbf15fa60	-0.58585167
77	0x3c132266	0.008980369
78	0xbf815270	-1.0103283
79	0xbf554750	-0.8331194
80	0x3eaab0d8	0.33338046
81	0x3f96b4dc	1.1773944
82	0xbf4cbe90	-0.79978275
83	0x3f09a0ba	0.53760874
84	0x3f0ab105	0.5417636
85	0x3f5743d0	0.8408785
86	0x3f1f0a06	0.6212467
87	0x3f388555	0.7207845
88	0x3da56340	0.08075571
89	0xbe7145d7	-0.23561798
90	0x3f3b7182	0.73220074
91	0xbf897b91	-1.0740834
92	0xbf466f7f	-0.7751388
93	0xbf42fb6f	-0.7616491
94	0xbee00951	-0.43757108
95	0xbf4e9aa9	-0.8070474
96	0x3ee0a8fb	0.43878922
97	0xbe39b883	-0.18136792
98	0xbf48d5a1	-0.7845097
99	0xbeba3493	-0.36368236
100	0x3f246846	0.6422161
101	0x3ec175f0	0.37785292
102	0xbe8cd3fb	-0.27505478
103	0x3fa1f196	1.2651851
104	0xbd4c27f3	-0.049842786
105	0x3f57e7c0	0.84338
106	0x3f49181a	0.785524
107	0xbeea1517	-0.45719215
108	0x3edd5d9c	0.4323548
109	0xbf0735fe	-0.5281676
110	0x3f1e9554	0.61946607
111	0x3efd2b23	0.49446973
112	0x3ed44f08	0.41466546
113	0xbf50a3a5	-0.814997
114	0xbf1a5d83	-0.6029894
115	0xbe8331f3	-0.25624046
116	0x3e888530	0.26664114
117	0xbf0c5ea2	-0.548319
118	0x3f142dc2	0.5788232
119	0x3f9eba75	1.2400652
120	0x3f38b503	0.721512
121	0xbedee4cd	-0.43533936
122	0x3e6ec1f7	0.23316179
123	0xbf3acd59	-0.72969586
124	0xbf758dbe	-0.95919406
125	0xbf308146	-0.68947256
126	0x3f8a3dad	1.0800072
127	0xbedb012f	-0.4277434
128	0xbf5a1f2e	-0.85203826
129	0x3d4fe677	0.050756898
130	0xbf044cfd	-0.51679975
131	0x3f16e21b	0.5893876
132	0xbf03134b	-0.51201314
133	0x3e544af1	0.20731713
134	0x3f1277c6	0.5721401
135	0x3d12cb9c	0.03583871
136	0xbf99ab34	-1.2005372
137	0x3f4484ea	0.7676531
138	0xbe8e20a6	-0.27759284
139	0x3eb79ff1	0.35864213
140	0x3f83b2dd	1.028896
141	0x3f0faea1	0.5612584
142	0xbf0f82ac	-0.56058764
143	0x3ce27a87	0.027646316
144	0x3f181e33	0.5942108
145	0x3f0e632d	0.5562008
146	0xbf6d372c	-0.9266231
147	0x3f31a5b7	0.69393486
148	0x3f54126b	0.82840604
149	0x3e93ae19	0.28843763
150	0xbe264f05	-0.16241081
151	0x3f46fe50	0.777318
152	0x3f988388	1.191514
153	0xbd0b37d5	-0.033988792
154	0x3e5ca862	0.21548608
155	0xbed8430f	-0.42238662
156	0xbf2a9390	-0.6663141
157	0xbfaf10db	-1.3677019
158	0xbee51ac0	-0.4474697
159	0xb85ab6d0	-5.2145508e-05
160	0xbf57854f	-0.8418779
161	0x3f139fee	0.5766591
162	0x3f6961fa	0.91165125
163	0xbf156771	-0.58360964
164	0x3f55e06e	0.8354558
165	0xbf60cc9a	-0.878122
166	0xbec34238	-0.38136458
167	0xbd846260	-0.06464076
168	0x3ed1cf6b	0.4097856
169	0xbe989d37	-0.29807445
170	0xbdc171be	-0.09445523
171	0xbd8bacbb	-0.06820055
172	0x3dac799a	0.08421631
173	0xbf22d9d4	-0.6361363
174	0x3f5a9aff	0.85392755
175	0x3f514da8	0.8175912
176	0xbfa5d75c	-1.2956347
177	0xbfb0735a	-1.3785203
178	0xbc40b6e2	-0.011762353
179	0xbf444b8d	-0.7667778
180	0xbfd0fb31	-1.6326658
181	0xbccd2e5c	-0.02504652
182	0x3f208269	0.6269899
183	0xbf2f1edc	-0.6840646
184	0xbf0c3879	-0.5477367
185	0x3d86e707	0.06587034
186	0xbdd6eac2	-0.10493995
187	0x3ea23e30	0.3168807
188	0x3e30cdb5	0.17265971
189	0x3e1d84e6	0.15382728
190	0xbf848132	-1.0351927
191	0xbf263cac	-0.6493633
192	0x3e9cc83c	0.30621517
193	0xbd5a1947	-0.053246763
194	0x3eb25858	0.34833026
195	0xbe344fa8	-0.17608511
196	0xbe590006	-0.21191415
197	0x3e8a8e85	0.2706186
198	0xbf078123	-0.5293142
199	0x3e9043af	0.28176638
200	0x3f4b9883	0.7952959
201	0xbe9d2302	-0.3069077
202	0x3d75ea06	0.060037635
203	0x3e203ee3	0.1564899
204	0xbd3c5e4e	-0.045988373
205	0xbf6b6626	-0.9195274
206	0xbf4eb6cd	-0.8074768
207	0x3f58d81f	0.84704775
208	0xbefae9d1	-0.49006513
209	0xbe84725e	-0.25868505
210	0x3e3b46a1	0.18288662
211	0xbe16c3ba	-0.14723101
212	0x3f34ed8c	0.7067497
213	0x3f099870	0.53748226
214	0x3f6d9f43	0.9282114
215	0xbe766f89	-0.24065985
216	0xbf6fd16d	-0.93678933
217	0xbf992e65	-1.1967283
218	0x3f5f7fdc	0.8730447
219	0xbf4b0ff4	-0.7932122
220	0xbebcfa61	-0.36909774
221	0x3e265eae	0.16247055
222	0xbed73d66	-0.4203903
223	0xbf3d6789	-0.7398611
224	0xbcf9ac53	-0.030477678
225	0x3f15af90	0.5847101
226	0xbf30060b	-0.6875922
227	0x3f4f12c2	0.80888
228	0xbde1c529	-0.110239334
229	0x3ed12417	0.40847847
230	0xbf53ee38	-0.8278537
231	0xbe141bdf	-0.14463757
232	0x3e409d98	0.18810117
233	0xbefd961c	-0.49528587
234	0xbe02029a	-0.12696305
235	0xbd983ae0	-0.074331045
236	0xbf2d3f89	-0.6767507
237	0x3d13c30c	0.036074683
238	0xbe45feac	-0.19335431
239	0xbd9ca111	-0.076479085
240	0xbd803cc8	-0.06261593
241	0x3f16d685	0.5892108
242	0x3eaecae9	0.34139183
243	0x3e9068fb	0.28205094
244	0xbf5cfa5c	-0.8631952
245	0xbf0751da	-0.5285927
246	0xbf207213	-0.62674063
247	0x3f0197e0	0.5062237
248	0xbf585906	-0.8451084
249	0x3dd95819	0.106125064
250	0x3c148f32	0.009067344
251	0x3f4a2139	0.78956944
252	0x3f2cbc78	0.6747508
253	0x3ee36cba	0.4441889
254	0x3f1b48b8	0.60657835
255	0xbdf86f73	-0.12130632

network_body._body_endoder.seq_layers.2.bias f4 [16]
0	0xbdfcac26	-0.12337522
1	0x3de37778	0.11106771
2	0xbeab7b4b	-0.33492503
3	0x3e87c2c7	0.2651579
4	0x3d0bd30a	0.03413681
5	0xbeadfc05	-0.33981338
6	0xbe90a304	-0.2824937
7	0xbd9f3280	-0.07773304
8	0xbe2bfdf3	-0.16796093
9	0xbdd6011b	-0.104494296
10	0x3db3bd56	0.08776347
11	0x3c8242bd	0.015900964
12	0xbd9b4bc1	-0.07582808
13	0xbe12b33f	-0.1432619
14	0x3dccfe88	0.100094855
15	0xbd9ec3e8	-0.0775221

network_body._body_endoder.seq_layers.4.weight f4 [16, 16]
0	0x3eba389b	0.36371312
1	0x3e7e1bcb	0.2481529
2	0xbdee9bee	-0.11650835
3	0xbfd7c9cd	-1.685846
4	0xbf0f9ba5	-0.5609687
5	0x3fa490f1	1.2856733
6	0x3f11b97a	0.5692364
7	0x3e531cb0	0.20616412
8	0x3f7d01e1	0.9883099
9	0x3f52c972	0.8233863
10	0xbfa67860	-1.3005486
11	0x3e791933	0.24326019
12	0xbf6b63e5	-0.919493
13	0x3f033d38	0.5126529
14	0x3eb73e97	0.3578994
15	0xbe83deaf	-0.25755832
16	0xbf6843fc	-0.90728736
17	0x3de22c31	0.11043585
18	0x3e157128	0.14593947
19	0x3e0f16cf	0.13973545
20	0xbce9df8a	-0.028548975
21	0xbe8913d5	-0.26772943
22	0xbec0c473	-0.3764988
23	0x3d7c30e4	0.061570063
24	0x3eeb9752	0.46013886
25	0xbe497ae0	-0.1967578
26	0xbebcd108	-0.36878228
27	0x3f2b78fd	0.6698149
28	0xbe972152	-0.2951761
29	0xbe53d7af	-0.20687746
30	0x3e206d9f	0.15666817
31	0xbd152888	-0.036415607
32	0xbf677666	-0.90415037
33	0x3f3577ce	0.7088593
34	0xbef51a37	-0.47871563
35	0x3e77f88c	0.24215907
36	0x3f4e0483	0.80475634
37	0x3ee5ce67	0.44884035
38	0x3f3e81e5	0.74416953
39	0x3f03da8a	0.5150534
40	0x3f1353b4	0.57549596
41	0x3f2014c2	0.62531674
42	0xbdc082ee	-0.09399973
43	0x3f322478	0.69586897
44	0xbdb2741f	-0.087135546
45	0xbea9a4c6	-0.33133525
46	0xbd87e2da	-0.066350654
47	0xbe2d2459	-0.16908397
48	0xbcd1207d	-0.025528187
49	0xbe494b93	-0.19657736
50	0xbe610b08	-0.21976864
51	0xbd1c7c4a	-0.03820447
52	0x3c422336	0.011849215
53	0xbf4061e1	-0.7514935
54	0x3ead2192	0.33814675
55	0xbf65d2dc	-0.8977487
56	0xbed46e7d	-0.41490546
57	0xbefbcb39	-0.49178484
58	0x3d5e8d58	0.054334015
59	0xbe325313	-0.17414503
60	0x3e9bd012	0.30432183
61	0xbe23351f	-0.15938233
62	0xbddcdb65	-0.10784034
63	0xbf0dc2e0	-0.5537548
64	0x3eac89f6	0.33699006
65	0x3f16dcde	0.58930767
66	0xbe44a744	-0.19204432
67	0x3e4f4110	0.20239663
68	0xbf957d86	-1.1678932
69	0xbee3006f	-0.44336268
70	0xbe9ceb37	-0.30648205
71	0xbf5514e2	-0.8323499
72	0x3e39f6f1	0.18160607
73	0xbfbf1edb	-1.4931291
74	0x3f1c18db	0.60975426
75	0x3f2be7f6	0.6715082
76	0xbe42c2ff	-0.19019698
77	0xbf055b9f	-0.5209293
78	0xbf91687f	-1.1360015
79	0x3f06c194	0.52639127
80	0xbea716e8	-0.32634664
81	0x3eebd601	0.4606171
82	0x3eda2f56	0.4261424
83	0xbe728960	-0.23685217
84	0xbe899330	-0.26870108
85	0xbe3d7b73	-0.18504123
86	0xbecc8dd7	-0.39951965
87	0xbf12d8e7	-0.57362217
88	0x3ee01ca0	0.4377184
89	0xbeb91a8a	-0.3615306
90	0xbf1ba812	-0.6080333
91	0xbe094fa7	-0.13409291
92	0xbe635f2a	-0.22204271
93	0xbdae69cf	-0.08516275
94	0x3e93b571	0.28849366
95	0x3ea2c725	0.3179256
96	0x3eed473d	0.46343413
97	0x3f13711f	0.57594484
98	0xbf145633	-0.5794403
99	0x3f7d348f	0.98908323
100	0x3d6be742	0.05759359
101	0x3f2ad19b	0.6672608
102	0xbf5363b1	-0.8257399
103	0xbe9296d6	-0.28630704
104	0xbfb3600b	-1.4013685
105	0x3e5fbe05	0.2184983
106	0x3eddb28c	0.43300283
107	0x3db2f578	0.08738226
108	0xbf651613	-0.8948681
109	0x3fab7629	1.3395435
110	0xbe9532ed	-0.29140416
111	0xbe6984a5	-0.22804506
112	0xbfa3a27e	-1.2783964
113	0x3f4f5ec5	0.8100398
114	0xbec1da3e	-0.37861818
115	0xbdb4b5da	-0.08823748
116	0xbe555eaa	-0.20836893
117	0x3e5e88b4	0.21731836
118	0xbe80559d	-0.25065318
119	0xbecc8e27	-0.39952204
120	0x3e5b502c	0.21417302
121	0xbee4b3e2	-0.4466849
122	0xbef5e6ae	-0.48027557
123	0x3f68ee35	0.90988475
124	0x3c67d2ef	0.014149412
125	0xbde7e7da	-0.11323519
126	0xbea32ddc	-0.31870925
127	0x3f4032e1	0.75077635
128	0xbe9a47d2	-0.3013292
129	0x3fbaea63	1.4602779
130	0xbe0931bc	-0.13397878
131	0xbede666b	-0.43437514
132	0x3f0135de	0.5047282
133	0xbe810555	-0.2519938
134	0xbe6c5d2a	-0.23082414
135	0xbf352386	-0.7075733
136	0x3f27c03c	0.655277
137	0xbe917186	-0.28406924
138	0xbf07d3b3	-0.530574
139	0x3f6c7d8f	0.9237909
140	0xbdb36943	-0.087603115
141	0x3f470827	0.77746814
142	0xbedcbfda	-0.4311512
143	0xbf53fbf8	-0.8280635
144	0xbf56e92d	-0.8394955
145	0xbed5ad67	-0.41733858
146	0xbd7c305a	-0.06156955
147	0xbe70f8d1	-0.23532416
148	0xbf37fe20	-0.7187214
149	0xbeea7a50	-0.45796442
150	0xbd8080f4	-0.06274596
151	0x3de5c500	0.112192154
152	0x3ebf9d06	0.37424487
153	0xbf139470	-0.5764837
154	0xbeadbbc5	-0.3393232
155	0xbe4b65a6	-0.19862995
156	0xbe9242f3	-0.28566703
157	0xbf0a0f85	-0.5392993
158	0xbe3a7b9d	-0.18211217
159	0x3c211cdd	0.009833542
160	0xbd2e7f0d	-0.042601634
161	0x3e18d8e5	0.14926489
162	0x3f3aa47a	0.7290722
163	0x3f6c3bd6	0.922788
164	0x3e85dfe8	0.2614739
165	0xbd6921c0	-0.056916952
166	0xbe76545b	-0.24055617
167	0x3f110b73	0.56658095
168	0xbdd37e35	-0.103268065
169	0x3f2bcf14	0.6711285
170	0xbde4416b	-0.1114529
171	0xbe317a43	-0.17331795
172	0x3f20681c	0.6265886
173	0xbf0d6930	-0.5523863
174	0x3e7b2b20	0.2452817
175	0x3e11bb96	0.14231715
176	0xbf559c3b	-0.83441514
177	0x3e549660	0.20760489
178	0x3e9ea267	0.30983278
179	0xbec03cc8	-0.37546372
180	0xbe92df7b	-0.28686127
181	0xbdc527ef	-0.09626757
182	0xbe17b618	-0.14815557
183	0xbf35ff61	-0.710928
184	0x3f0708b1	0.5274764
185	0xbca4dee1	-0.020125808
186	0xbddbfd88	-0.107417166
187	0xbe468ff4	-0.19390851
188	0xbeb76461	-0.3581877
189	0xbf04eb19	-0.5192123
190	0x3e7c63f7	0.24647509
191	0xbd6fc63b	-0.058538657
192	0x3e81add2	0.25327927
193	0xbf6044ca	-0.87604964
194	0x3f728f7f	0.9475021
195	0xbe9d76ce	-0.30754703
196	0xbe41ba25	-0.18918665
197	0x3d0cc2d0	0.034365475
198	0x3ef7fe2e	0.4843611
199	0x3f93709b	1.151874
200	0x3f637208	0.8884587
201	0xbe57d539	-0.21077432
202	0x3f9bcd9f	1.2172126
203	0xbf1f3ff5	-0.62206966
204	0xbeadfc52	-0.33981568
205	0xbef59613	-0.4796606
206	0xbed0f074	-0.4080845
207	0x3f661363	0.8987333
208	0x3ea7c062	0.32763964
209	0x3df32bd8	0.11873597
210	0xbd1e37db	-0.038627487
211	0xbe175d7a	-0.14781752
212	0x3f20ada4	0.62764955
213	0x3e37811e	0.17920348
214	0x3e89ceef	0.2691569
215	0xbefb939a	-0.4913605
216	0x3cf0c6e5	0.029391715
217	0xbf02fb3f	-0.5116462
218	0xbf8228fc	-1.0168757
219	0xbf2d1bc4	-0.6762049
220	0xbf01be54	-0.5068104
221	0x3f2c7fde	0.6738261
222	0x3ea254d6	0.3170535
223	0xbf55536d	-0.8333042
224	0xbf83aa26	-1.02863
225	0x3e795996	0.2435058
226	0xbe059b3c	-0.13047498
227	0xbc1d6230	-0.009605929
228	0xbc6d3912	-0.014478939
229	0xbd6d047f	-0.057865616
230	0xbe3a513f	-0.18195055
231	0xbf29324e	-0.66092384
232	0x3e833c2c	0.25631845
233	0xbdda2e45	-0.106533565
234	0xbe13ab7b	-0.14420883
235	0xbccff774	-0.02538655
236	0xbebd9c5f	-0.37033364
237	0xbf1605c9	-0.5860258
238	0x3e768881	0.2407551
239	0x3e4038c1	0.1877165
240	0xbeb34d4f	-0.3501992
241	0xbe942ac8	-0.2893889
242	0x3f6e311e	0.93043697
243	0x3c35d101	0.011097194
244	0xbe8606a6	-0.26176947
245	0xbd042b8f	-0.032268103
246	0xbdfe5122	-0.124178186
247	0x3eb2356d	0.34806386
248	0xbeee21b0	-0.46510077
249	0xbe74f192	-0.23920277
250	0x3e8ef8f8	0.27924323
251	0xbe32e117	-0.17468677
252	0x3f7f12e4	0.996382
253	0x3e10cf5e	0.14141604
254	0xbf35758b	-0.7088248
255	0xbf320096	-0.69532144

network_body._body_endoder.seq_layers.4.bias f4 [16]
0	0x3b730d16	0.0037086657
1	0xbe98b3bf	-0.29824635
2	0x3d1640ae	0.036682777
3	0xbedc82d3	-0.4306856
4	0xbe82942b	-0.25503668
5	0xbecc5bfe	-0.39913934
6	0x3df0bb59	0.11754484
7	0x3e2012a0	0.15632105
8	0xbe019bf8	-0.12657154
9	0xbe6e77cb	-0.23287885
10	0xbe4e0afc	-0.20121378
11	0xbe103efd	-0.14086528
12	0x3dbadfcb	0.09124716
13	0xbde5eb72	-0.11226548
14	0xbe85a17a	-0.2609976
15	0xbf010b87	-0.50408214

action_model._discrete_distribution.branches.0.weight f4 [10, 16]
0	0xbc36a353	-0.011147338
1	0x3c837cce	0.016050722
2	0xbd29a997	-0.0414215
3	0xbcaf42cf	-0.021394162
4	0x3d8b4d4c	0.068018526
5	0xbc7cf750	-0.015439823
6	0x3c154044	0.00910956
7	0xbd4e2d82	-0.05033637
8	0x3c5f241f	0.013619452
9	0x3c17a04c	0.009254526
10	0x3d7759cf	0.060388383
11	0xbc8fbde5	-0.017546603
12	0xba84602a	-0.001009946
13	0x3d315ebe	0.043303244
14	0xbc974760	-0.018466651
15	0x3cc4c43f	0.024019359
16	0x3e98e191	0.29859594
17	0x3dd770ca	0.1051956
18	0x3eb9d965	0.3629867
19	0x3e16666e	0.14687511
20	0x3eb5aa9e	0.35481733
21	0x3f25e232	0.6479827
22	0xbf7eaa5b	-0.9947869
23	0xbe2b194f	-0.16708873
24	0xbebac071	-0.36474946
25	0xbeb177db	-0.34661755
26	0x3f1cb354	0.61211133
27	0x3f3735e1	0.7156659
28	0x3f0f153b	0.5589177
29	0x3da04e69	0.078274556
30	0x3eba2c8d	0.36362115
31	0x3f014e38	0.5050998
32	0xbe1f91b2	-0.15582922
33	0x3e72ac1f	0.23698471
34	0x3eb26843	0.3484517
35	0xbda18783	-0.07887175
36	0xbcee0f7a	-0.029060114
37	0x3e0c31ea	0.13690916
38	0xbf667eca	-0.90037215
39	0x3e5ae53d	0.2137651
40	0x3f143d0f	0.5790567
41	0x3f185d19	0.59517056
42	0xbee8cc59	-0.45468405
43	0x3eade4e9	0.33963707
44	0x3ebac2a2	0.36476618
45	0xbe04b517	-0.12959705
46	0x3ea2271b	0.3167046
47	0xbd9d009d	-0.076661326
48	0x3f65a3dc	0.89703155
49	0xbe8d37c5	-0.2758161
50	0x3f16425f	0.58695024
51	0xbf8f54cf	-1.1197757
52	0xbc9422ce	-0.018083002
53	0xbe776dee	-0.24163029
54	0x3f2d7c55	0.6776784
55	0x3eaa4921	0.33258918
56	0xbebd7a6c	-0.37007463
57	0xbd97be6e	-0.074093685
58	0x3efed550	0.4977212
59	0xbee2757e	-0.44230264
60	0x3f261eda	0.64890826
61	0xbf7b1e81	-0.9809342
62	0xbf0f4901	-0.5597077
63	0xbf1a0ead	-0.60178643
64	0xbf7c2c1e	-0.9850482
65	0x3e75f3b2	0.24018744
66	0xbe8c0627	-0.27348444
67	0x3e14daef	0.14536642
68	0x3f010cab	0.50409955
69	0x3e6247f8	0.22097766
70	0xbca17695	-0.019709865
71	0x3e4f95aa	0.20271936
72	0x3e62672d	0.22109671
73	0x3e45b21f	0.19306229
74	0xbc990108	-0.01867725
75	0xbbb422b1	-0.0054972996
76	0xbeeefcee	-0.46677345
77	0x3de5248d	0.11188612
78	0x3e90c862	0.2827788
79	0xbdbfa9dc	-0.0935857
80	0x3f1e3ed3	0.6181461
81	0x3f0cf802	0.5506593
82	0x3e8c7347	0.274317
83	0xbef33ab4	-0.47505724
84	0x3ef09a62	0.46992785
85	0xbe788af3	-0.24271755
86	0x3f7674d6	0.9627203
87	0x3f33f2af	0.7029218
88	0x3f5da0bc	0.86573386
89	0xbeeb2a1e	-0.4593057
90	0xbe29ab21	-0.16569187
91	0xbd284588	-0.041081935
92	0xbf29719a	-0.6618897
93	0xbe16caab	-0.14725749
94	0x3ec5f3a3	0.38662443
95	0xbe00c3dc	-0.12574714
96	0xbf1c465b	-0.61044854
97	0xbf1420dc	-0.5786264
98	0xbe6e1f75	-0.23254187
99	0x3f0f2ffb	0.5593259
100	0x3efdbf5f	0.49560067
101	0xbe3ad616	-0.1824573
102	0x3e84c2a6	0.25929755
103	0xbf299d23	-0.66255397
104	0xbf3e4971	-0.7433081
105	0xbec4df5d	-0.38451663
106	0xbd9b0512	-0.075693265
107	0xbf528832	-0.8223907
108	0xbb82f222	-0.0039961496
109	0xbef533e5	-0.47891155
110	0xbf42dd67	-0.76119083
111	0x3f0ff9b2	0.5624038
112	0x3eed5710	0.46355486
113	0xbe552188	-0.20813572
114	0xbf4a0cac	-0.78925586
115	0x3e82b266	0.25526732
116	0xbee60bba	-0.44930822
117	0x3e41a3ba	0.18910113
118	0xbe03b222	-0.12860921
119	0xbe15bcbb	-0.14622776
120	0xbea1226b	-0.3147157
121	0x3d97662c	0.073925346
122	0xbe80193d	-0.25019255
123	0x3e2a6753	0.16640978
124	0xbe134f34	-0.14385682
125	0x3f1670b7	0.5876574
126	0xbe233cb2	-0.15941122
127	0x3df5491c	0.11976835
128	0x3ce4a862	0.027912322
129	0x3da8c810	0.08241284
130	0xbf19e818	-0.6011977
131	0x3f0017cf	0.5003633
132	0xbf360394	-0.7109921
133	0xbd15a274	-0.03653188
134	0x3eba57ec	0.36395204
135	0xbef64d57	-0.4810588
136	0x3ebe07ad	0.3711523
137	0x3e8d0a29	0.27546814
138	0xbf21a242	-0.6313821
139	0x3e30799b	0.17233889
140	0xbf4d73d5	-0.8025487
141	0x3f23a44a	0.6392256
142	0xbda47dad	-0.08031783
143	0xbe6e2e63	-0.23259883
144	0x3e5d1bd4	0.21592647
145	0xbeace313	-0.33766994
146	0x3ebe74ac	0.3719839
147	0xbd869ebb	-0.06573244
148	0xbe9bd9d9	-0.30439642
149	0xbec4ca8a	-0.38435775
150	0xbe728e0d	-0.23687
151	0xbec9112c	-0.39270914
152	0xbef25afb	-0.47335038
153	0xbe2b7ad3	-0.16746072
154	0xbe8c27ed	-0.2737421
155	0xbdbb1846	-0.09135489
156	0x3f82011f	1.0156592
157	0x3ebc2784	0.36748898
158	0xbebd4a7f	-0.36970899
159	0x3dc0e273	0.09418192

action_model._discrete_distribution.branches.0.bias f4 [10]
0	0x00000000	0.0
1	0xbd5b8905	-0.05359747
2	0xbed413c1	-0.4142132
3	0x3ec5a202	0.38600165
4	0xbee1d550	-0.44108057
5	0x3f3f0014	0.74609494
6	0xbe27f686	-0.16402635
7	0xbb357e76	-0.0027693785
8	0xbf107a97	-0.5643706
9	0x3ede625a	0.4343441
