Assets/onnx/Random_O_1/Random/X_Behavior/X_Behavior-150003.onnx (onnx, 2542 bytes, 4 tensors)

network_body._body_endoder.seq_layers.0.weight f4 [9, 9]
0	0x3e8c641f	0.27420136
1	0x3ea0b83b	0.31390557
2	0xbe5504db	-0.20802633
3	0x3ebdf752	0.37102753
4	0x3e2e6d95	0.1703399
5	0xbf3e0b21	-0.7423573
6	0xbea4789a	-0.32123262
7	0x3dd43b35	0.10362855
8	0x3f230092	0.63672745
9	0x3f19285d	0.59827214
10	0x3ed9d4b4	0.42545092
11	0xbea2a123	-0.31763563
12	0x3f6b6d28	0.91963434
13	0xbf0bf6dd	-0.5467356
14	0x3ed7b92a	0.42133456
15	0xbf14470b	-0.579209
16	0x3f4bb019	0.7956558
17	0x3fa1f8a0	1.2653999
18	0xbf2493a8	-0.64287806
19	0x3f299b4d	0.66252595
20	0x3f5dc1ed	0.8662403
21	0x3f2d75ea	0.6775805
22	0xbe835172	-0.25648075
23	0x3fab3f41	1.3378679
24	0xbe96712a	-0.29383212
25	0x3c161c29	0.009161987
26	0xbeb00a33	-0.3438278
27	0x3e017750	0.1264317
28	0xbf820f79	-1.0160972
29	0x3f990c3b	1.1956857
30	0x3ec13953	0.37739047
31	0xbe1bfe87	-0.15233813
32	0x3f2da304	0.6782687
33	0xbd1085f9	-0.035284016
34	0xbe9f39bb	-0.31098732
35	0x3e96f332	0.29482418
36	0x3f9dbd5f	1.2323416
37	0xbe6ac24b	-0.2292568
38	0xbf319a7d	-0.69376355
39	0x3f883bb5	1.0643221
40	0xbf1d7155	-0.61501056
41	0x3f83fbbf	1.0311202
42	0x3f4abcae	0.7919415
43	0xbee70044	-0.4511739
44	0x3ac94424	0.001535539
45	0x3e8f1430	0.2794509
46	0xbea3a8db	-0.31964764
47	0x3f50f3a8	0.8162179
48	0x3f699b7b	0.9125287
49	0xbec9c281	-0.39406207
50	0x3f2970f3	0.6618797
51	0xbf0b208d	-0.54346544
52	0x3f2527dc	0.64513946
53	0x3efab39f	0.48965165
54	0xbf3528f7	-0.7076563
55	0x3f4df0d5	0.80445606
56	0xbf6bce56	-0.9211172
57	0xbe63a971	-0.22232606
58	0xbe07b760	-0.13253546
59	0x3f4f9221	0.8108235
60	0x3f5e5e03	0.868622
61	0x3e28223c	0.1641931
62	0x3e5c712e	0.2152755
63	0xbf985b3a	-1.190284
64	0x3f2b4222	0.66897786
65	0x3f95c772	1.1701491
66	0x3edf939b	0.43667302
67	0xbf1ee5a2	-0.6206914
68	0xbe06da4a	-0.13169208
69	0x3fb64a02	1.4241335
70	0x3b9266ef	0.004467837
71	0xbed83151	-0.42225125
72	0xbe5d87ae	-0.21633789
73	0x3f08c2f1	0.53422457
74	0xbd44aab3	-0.048014354
75	0x3f0d29ad	0.5514172
76	0x3eace88d	0.33771172
77	0x3f1d8f97	0.61547226
78	0x3f5f8778	0.87316084
79	0x3f73f272	0.9529182
80	0xbdce3f83	-0.10070708

network_body._body_endoder.seq_layers.0.bias f4 [9]
0	0x3f3ec6c6	0.74522054
1	0x3f855d80	1.0419159
2	0x3f7c4a4d	0.98550874
3	0x3f38ef36	0.72240007
4	0x3f4c1951	0.7972613
5	0x3f6369d9	0.88833386
6	0x3f6e0122	0.9297048
7	0x3f6cf668	0.92563486
8	0x3f8b1ec7	1.0868767

action_model._discrete_distribution.branches.0.weight f4 [10, 9]
0	0x3d33010a	0.043702163
1	0x3ca93787	0.02065636
2	0xbd5c988f	-0.05385643
3	0x3bb2a51d	0.005451812
4	0x3d46bb79	0.04851863
5	0xbc7cb717	-0.015424511
6	0x3b1ac422	0.002361544
7	0xbcf1c1a3	-0.029511278
8	0xbd0b9bed	-0.03408425
9	0xbe6c876a	-0.23098531
10	0xbe36d747	-0.1785556
11	0x3deb39a8	0.114856064
12	0xbda52093	-0.08062854
13	0x3e58fcd2	0.21190193
14	0xbd3c2810	-0.045936644
15	0x3d8adb5f	0.06780123
16	0x3ecb9a35	0.39766088
17	0x3ec8e664	0.39238274
18	0xbde6bd34	-0.112665564
19	0xbea9c521	-0.3315821
20	0xbe91e620	-0.28495884
21	0xbb88ebbf	-0.0041784937
22	0xbd9d4128	-0.07678443
23	0xbeb7339f	-0.3578157
24	0x3e6828c4	0.22671801
25	0xbd9b34d3	-0.07578435
26	0xbd60ac4a	-0.054851808
27	0x3e94d361	0.2906752
28	0x3ef682b3	0.4814659
29	0x3def1546	0.116739795
30	0x3e1aa8fa	0.15103522
31	0xbdee282d	-0.11628757
32	0x3ed15e55	0.40892282
33	0xbd0275e5	-0.031850714
34	0xbeb71c5a	-0.35763818
35	0x3ced5866	0.028972816
36	0xbe18a165	-0.14905317
37	0xbeb994a2	-0.3624621
38	0xbecb54af	-0.39713046
39	0xbea8cde6	-0.32969588
40	0xbf2da744	-0.6783335
41	0xbeb6d792	-0.35711342
42	0xbeebf171	-0.46082643
43	0xbe8e6a73	-0.2781559
44	0xbf1b196c	-0.60585666
45	0x3ed8ddc8	0.42356706
46	0x3f329ef4	0.69773793
47	0x3f246cd3	0.6422855
48	0x3edae2e9	0.42751244
49	0x3efe4373	0.49660835
50	0x3f161143	0.5862009
51	0x3eea25a3	0.4573184
52	0x3f239d0f	0.6391153
53	0x3f362f57	0.71165985
54	0xbeaad1e3	-0.33363256
55	0xbf22fe1c	-0.6366899
56	0xbf1430ab	-0.5788676
57	0xbee3e7f9	-0.4451292
58	0xbeb3d87c	-0.35126102
59	0xbf26a638	-0.6509738
60	0xbdd293c6	-0.10282092
61	0xbee92389	-0.45534924
62	0xbe73401e	-0.23754928
63	0x3ded8861	0.11598278
64	0x3ec0d9bc	0.37666118
65	0xbe0095ad	-0.12557097
66	0xbe6c58b2	-0.2308071
67	0x3f00b839	0.502811
68	0xbd986a6e	-0.07442175
69	0x3e33cb89	0.17558111
70	0xbea65c70	-0.324924
71	0x39c95666	0.0003840208
72	0xbe989c24	-0.29806626
73	0xbe8beacf	-0.27327582
74	0xbe3f0440	-0.18653965
75	0x3e14736c	0.14497155
76	0xbdf21a3b	-0.11821409
77	0x3dc2cd7e	0.09511851
78	0xbebbe420	-0.36697483
79	0xbe9915d1	-0.29899457
80	0xbf0421fa	-0.51614344
81	0x3ddef3f5	0.10886375
82	0xbde94b90	-0.113913655
83	0x3eb06e6f	0.34459254
84	0x3deb4850	0.11488402
85	0xbea2615b	-0.317149
86	0x3d9c9bf5	0.07646934
87	0x3dac05b8	0.08399528
88	0x3eee2fef	0.46520945
89	0x3ddbc21c	0.10730383

action_model._discrete_distribution.branches.0.bias f4 [10]
0	0x00000000	0.0
1	0x3ddbfbf1	0.107414134
2	0xbe8f9f16	-0.2805106
3	0x3e546a39	0.20743646
4	0xbf0f6198	-0.5600829
5	0x3f3f1924	0.74647737
6	0xbebd8d28	-0.37021756
7	0x3d54bbc9	0.0519369
8	0xbeddf160	-0.43348217
9	0x3d342ad3	0.043986153
