Assets/onnx/TTT_27/O_Behavior.onnx (onnx, 4530 bytes, 6 tensors)

network_body._body_endoder.seq_layers.0.weight f4 [16, 9]
0	0x3e2bfc2b	0.16795413
1	0x3e2e5997	0.17026363
2	0xbda5e3d9	-0.08100099
3	0x3e7a0f4a	0.24419895
4	0x3f0983cc	0.5371673
5	0xbf71b8ac	-0.9442241
6	0x3dcbf3a4	0.0995858
7	0xbd62924f	-0.055315312
8	0x3e7574ac	0.23970288
9	0xbc2b2d8c	-0.010447871
10	0x3e0863d2	0.13319328
11	0xbef04823	-0.46930036
12	0xbf131287	-0.57450145
13	0x3c1244bf	0.008927523
14	0x3ea265fc	0.31718433
15	0xbe431082	-0.19049266
16	0xbec45ce4	-0.3835212
17	0x3eb06148	0.3444922
18	0xbed5f39b	-0.4178742
19	0xbe09f759	-0.13473262
20	0x3f89fba2	1.0779917
21	0xbf0bb6c0	-0.5457573
22	0x3efde17e	0.495861
23	0x3ebb2154	0.36548865
24	0xbde4fd18	-0.11181086
25	0xbded2b93	-0.11580577
26	0xbebc79c0	-0.36811638
27	0x3ebb6f85	0.3660852
28	0xbf1e5bd5	-0.61858875
29	0x3cd1524d	0.02555194
30	0xbe616ae6	-0.22013435
31	0xbf02907f	-0.51001734
32	0xbe83784e	-0.25677723
33	0x3f10f8ad	0.5662945
34	0x3d2b7c08	0.041866332
35	0xbe1c193d	-0.15244003
36	0x3e56293b	0.20914166
37	0xbf655eac	-0.8959758
38	0xbef31d21	-0.4748316
39	0x3e2e3322	0.17011693
40	0x3f00675e	0.50157726
41	0xbdec79c5	-0.11546663
42	0x3bbad9ad	0.0057022185
43	0x3ee6c5db	0.45072827
44	0xbdb4e6af	-0.08833062
45	0xbef4579a	-0.47723085
46	0x3ea094ad	0.3136343
47	0xbed8a9ff	-0.42317197
48	0xbe2ec7e0	-0.17068434
49	0x3dc5e355	0.09662501
50	0x3e3bd9c2	0.18344787
51	0x3ea7ff95	0.3281218
52	0x3dc56cbd	0.09639881
53	0x3f10dab5	0.5658372
54	0x3dc9b6fd	0.09849355
55	0x3e98ee66	0.29869384
56	0x3e8bb52e	0.27286667
57	0x3ed22c12	0.41049248
58	0xbe88efed	-0.2674555
59	0xbf591845	-0.8480266
60	0xbd71676b	-0.058936518
61	0xbe8c6044	-0.27417195
62	0xbd919dcd	-0.07110176
63	0x3f08d03c	0.5344274
64	0xbe3c0396	-0.18360743
65	0x3e146ba0	0.1449418
66	0x3f5335b3	0.82503814
67	0xbf09982d	-0.53747827
68	0x3ef641ac	0.4809698
69	0x3f37f700	0.7186127
70	0xbec3e873	-0.38263282
71	0x3f48b1ef	0.78396505
72	0x3f29c9c6	0.66323507
73	0xbe02ada9	-0.12761559
74	0x3d4e3c8d	0.050350714
75	0xbe4e21dc	-0.20130104
76	0x3d04bd17	0.032406893
77	0x3e137efd	0.14403911
78	0xbf53d2cb	-0.8274352
79	0x3eaf832b	0.3427976
80	0xbe5673b3	-0.20942573
81	0xbf308740	-0.68956375
82	0x3f263b7b	0.6493451
83	0xbebb4ed1	-0.3658357
84	0xbcdb1cf9	-0.026747214
85	0xbec06b9e	-0.37582105
86	0x3dbc9297	0.09207647
87	0xbe2e72e5	-0.17036016
88	0xbebde19b	-0.37086186
89	0x3f15240b	0.5825812
90	0xbef50e71	-0.4786258
91	0x3dc1cbdc	0.09462711
92	0x3e0ac369	0.13551106
93	0xbdb741a9	-0.089480706
94	0x3d8e0e5e	0.06936334
95	0x3ef0664b	0.46953043
96	0x3ccb5614	0.024821319
97	0xbf205091	-0.62622935
98	0x3d5289e6	0.05140104
99	0x3f3c3a28	0.7352624
100	0x3ca2bc04	0.019865043
101	0x3ed251bb	0.4107798
102	0xbe1a2527	-0.15053235
103	0xbf8bc0e6	-1.0918243
104	0xbe8d7df5	-0.2763516
105	0xbda9e34a	-0.08295305
106	0x3f45e644	0.7730448
107	0x3ddb75d5	0.10715834
108	0x3dc58aae	0.09645592
109	0xbe80bfd8	-0.25146365
110	0x3f0eed84	0.5583117
111	0xbe0e4a72	-0.13895586
112	0x3e55fe32	0.20897749
113	0x3f8bdf8f	1.09276
114	0xbf193285	-0.5984271
115	0x3f116304	0.5679171
116	0xbdb6a5c8	-0.08918339
117	0x3f039928	0.5140557
118	0x3d1f7674	0.038931325
119	0xbd987eb7	-0.07446044
120	0xbdfea9a7	-0.12434702
121	0xbefd14e4	-0.4943
122	0xbda54aaa	-0.08070882
123	0x3ea74844	0.32672322
124	0xbe8b027f	-0.27150342
125	0x3df61b0b	0.12016877
126	0x3f044eb9	0.5168262
127	0xbdf9dc3c	-0.122002095
128	0xba8ded8f	-0.0010828244
129	0x3e1e85d2	0.15480736
130	0x3de9d1ec	0.114169925
131	0xbedd37d3	-0.43206653
132	0xbf056685	-0.5210956
133	0x3eb26868	0.3484528
134	0x3de32b51	0.11092246
135	0x3d1b8143	0.03796507
136	0x3f36083e	0.71106327
137	0xbe1893f3	-0.14900188
138	0xbe03bd99	-0.12865295
139	0x3d9bea62	0.07613064
140	0x3ea3c9f2	0.3199001
141	0xbd87887e	-0.06617831
142	0xbf253f38	-0.6454959
143	0xbf7c9583	-0.98665637

network_body._body_endoder.seq_layers.0.bias f4 [16]
0	0x3eb0cda8	0.34531903
1	0x3e4239c2	0.18967345
2	0x3dfe8c22	0.12429072
3	0x3c90bd09	0.017668264
4	0x3def6142	0.11688472
5	0x3c96e303	0.018418794
6	0x3e41aa89	0.1891271
7	0x3e790e73	0.24321918
8	0x3e1694f3	0.14705257
9	0xbdb27783	-0.08714201
10	0xbdadcfda	-0.0848691
11	0x3d648361	0.055789355
12	0x3d9de8ea	0.077104405
13	0x3e17f0d0	0.14837956
14	0x3e1710f5	0.14752562
15	0xbd8a08a1	-0.06739927

network_body._body_endoder.seq_layers.2.weight f4 [16, 16]
0	0x3f44c587	0.768639
1	0x3e490ca2	0.19633725
2	0xbef7da52	-0.48408753
3	0xbc4b2e0a	-0.012401113
4	0x3e697c06	0.22801217
5	0x3e09e86d	0.1346757
6	0x3ea2938d	0.31753197
7	0x3e8e259b	0.27763066
8	0xbca69456	-0.020334404
9	0xbe90693c	-0.28205287
10	0xbf2d9b63	-0.67815226
11	0xbe671df7	-0.22570024
12	0xbe986e60	-0.2977171
13	0x3d18d5af	0.03731316
14	0x3dd0e5ee	0.102001056
15	0xbf0530d2	-0.5202762
16	0x3e680f6c	0.22662133
17	0xbe04a60a	-0.12953964
18	0xbece7847	-0.4032614
19	0xbe9476c2	-0.28996855
20	0xbd78aa6e	-0.06070941
21	0x3ea0e7f7	0.31426975
22	0xbe860648	-0.26176667
23	0x3d8a3d24	0.06749943
24	0xbe30dd29	-0.17271866
25	0x3f00e062	0.5034238
26	0xbe862e31	-0.26207116
27	0xbe4b773a	-0.198697
28	0xbed4ab27	-0.4153683
29	0xbe78f326	-0.24311504
30	0xbe4ab121	-0.19794132
31	0x3e37a0fa	0.17932501
32	0xbe50dc03	-0.20396428
33	0x3ef326ce	0.47490543
34	0xbe921822	-0.28534037
35	0x3f4adfa6	0.7924751
36	0xbd961ae2	-0.07329346
37	0x3eb08e03	0.34483346
38	0xbe0f6dc8	-0.14006722
39	0x3edab79f	0.42718217
40	0x3d1b35a9	0.03789297
41	0x3e623315	0.22089799
42	0xbd18e54b	-0.037328046
43	0x3da0a6cf	0.07844316
44	0xbf2bb77d	-0.67076856
45	0x3eb8589d	0.36005107
46	0xbe5b8184	-0.21436125
47	0x3d81b636	0.06333582
48	0xbe678b0c	-0.22611636
49	0x3ef736cb	0.4828399
50	0x3e5937c6	0.21212682
51	0xbc221c52	-0.009894447
52	0x3e5a01c7	0.2128974
53	0x3f20094d	0.6251419
54	0xbe1f2e04	-0.15544897
55	0x3e7b64ff	0.24550246
56	0xbe85a370	-0.26101255
57	0x3e5f9f78	0.21838176
58	0xbbd153e5	-0.006388175
59	0xbe6ec227	-0.2331625
60	0x3f2cc0ba	0.6748158
61	0xbe151d1e	-0.14561889
62	0xbe8c802a	-0.2744153
63	0x3a575bfd	0.00082153064
64	0xbeb52240	-0.35377693
65	0x3e1104f5	0.14162047
66	0xbe09671e	-0.13418242
67	0xbea8b6ae	-0.32951874
68	0xbe2fd379	-0.17170514
69	0xbeb6f669	-0.3573487
70	0x3e988c60	0.29794598
71	0x3def71ec	0.11691651
72	0x3e0d515e	0.1380057
73	0xbe25fbbd	-0.16209312
74	0xbe7e1392	-0.24812153
75	0x3f18ef3a	0.5974003
76	0x3f033731	0.5125609
77	0x3dfa27fd	0.122146584
78	0xbdca9101	-0.098909386
79	0x3e1ba69e	0.15200278
80	0x3c82141b	0.015878728
81	0xbf161215	-0.5862134
82	0xbeb9511f	-0.36194703
83	0x3e083033	0.13299637
84	0x3e2d0a83	0.16898541
85	0x3e5847cf	0.21121143
86	0xbdcab97b	-0.09898659
87	0xbf214058	-0.62988806
88	0xbbfaea84	-0.007657351
89	0xbd402d05	-0.046917934
90	0xbf28447d	-0.65729505
91	0x3e4e958b	0.20174234
92	0x3ce99fd2	0.028518591
93	0xbe69aeb7	-0.22820555
94	0x3ed4af37	0.41539928
95	0xbece8056	-0.40332288
96	0x3de4c7e7	0.11170941
97	0x3eb09f78	0.34496665
98	0xbe95f68e	-0.2928967
99	0xbd88afc4	-0.0667415
100	0x3ee235d2	0.44181687
101	0x3eef7fbf	0.4677715
102	0xbf04e667	-0.51914066
103	0x3e5d1e0c	0.21593493
104	0xbdc6560d	-0.09684382
105	0xbec11f2e	-0.377191
106	0x3cb950ad	0.022621477
107	0xbecd2075	-0.40063825
108	0xbe573710	-0.21017098
109	0xbd5efcd3	-0.05444033
110	0x3da12b2e	0.07869564
111	0xbe960025	-0.29296985
112	0xbef05ac2	-0.46944243
113	0x3df09fe1	0.117492445
114	0xbe26612f	-0.1624801
115	0x3e0cc0b9	0.13745393
116	0xbf0992e1	-0.53739744
117	0x3e95eb3e	0.29281038
118	0xbf59a03b	-0.8501012
119	0xbe14493c	-0.14481062
120	0xbf5ea087	-0.86963695
121	0x3ee46a4e	0.44612354
122	0x3ee1a8d2	0.44074112
123	0xbf355d31	-0.70845324
124	0x3debb627	0.11509352
125	0xbe3cde6d	-0.18444224
126	0xbf238020	-0.6386738
127	0x3d0c1418	0.03419885
128	0x3db6fae1	0.0893457
129	0xbe6b4da8	-0.22978842
130	0xbe1832e4	-0.14863163
131	0x3ec796dc	0.38982284
132	0x3ef5befe	0.47997278
133	0xbed16ded	-0.4090418
134	0xbf34166e	-0.70346725
135	0xbecfb2be	-0.40566057
136	0xbe33c875	-0.17556937
137	0xbefbe576	-0.49198502
138	0xbecb92f6	-0.3976056
139	0x3f14f708	0.5818944
140	0xbe359f5f	-0.17736576
141	0xbddc360a	-0.10752495
142	0xbe156c72	-0.1459215
143	0xbe88d69e	-0.2672624
144	0xbd03d7fa	-0.032188393
145	0xbdd362bf	-0.10321569
146	0x3c8601aa	0.016358215
147	0xbeee3474	-0.46524394
148	0xbde5cee5	-0.112211026
149	0x3d3e7799	0.046500776
150	0x3e473d63	0.19457011
151	0x3decb48a	0.115578726
152	0x3da37c90	0.07982743
153	0xbe9022a0	-0.28151417
154	0xbe4501bc	-0.19238943
155	0xbe1e7be5	-0.1547695
156	0x3ecf4cf0	0.40488386
157	0xbe19a187	-0.15003024
158	0x3eea444d	0.45755234
159	0x3f1fb093	0.62378806
160	0x3f0e1d94	0.5551388
161	0x3d88b7af	0.0667566
162	0xbde8dde6	-0.11370449
163	0xbd993d74	-0.074824244
164	0xbeb74fd1	-0.35803083
165	0xbdff0ba5	-0.12453393
166	0x3e1af98e	0.1513426
167	0xbd1ea1f1	-0.038728658
168	0x3ebb4250	0.3657403
169	0xbe9bf1ea	-0.30458003
170	0x3e307976	0.17233834
171	0xbed1cd7c	-0.40977085
172	0x3e5758a1	0.21029903
173	0x3e8d579d	0.27605906
174	0xbdac5b3c	-0.08415839
175	0x3eb4c20e	0.35304302
176	0xbe383cdc	-0.17991966
177	0x3e4ae8a6	0.19815311
178	0xbf1877e1	-0.5955792
179	0xbe27551e	-0.16341063
180	0xbd8cc9f0	-0.06874454
181	0x3e930938	0.2871797
182	0xbdcf5267	-0.10123139
183	0xbd332cfe	-0.04374408
184	0xbea74208	-0.32667565
185	0x3ed93660	0.42424297
186	0x3ee4316e	0.44568962
187	0xbebe9ebe	-0.37230486
188	0xbf114c3a	-0.5675694
189	0xbcd9b75a	-0.026576687
190	0xbe96432f	-0.29348132
191	0x3eb66393	0.35622844
192	0x3e3c21d4	0.1837228
193	0x3e88f3cb	0.267485
194	0xbe761dce	-0.24034807
195	0x3dbc9973	0.092089556
196	0xbf1d249a	-0.61383975
197	0x3f034a10	0.51284885
198	0xbe7a60a9	-0.24450935
199	0x3cba9ab8	0.022778854
200	0xbef35021	-0.4752207
201	0xbb2940c5	-0.002582596
202	0x3e989544	0.2980138
203	0xbf4b1bdd	-0.7933939
204	0xbf4c2b61	-0.7975369
205	0xbd1c1259	-0.038103435
206	0xbf044d3f	-0.5168037
207	0x3df3634f	0.11884176
208	0xbdd1e720	-0.10249162
209	0x3e46d70c	0.19417971
210	0x3e0cd5df	0.1375346
211	0xbe8e0041	-0.2773457
212	0x3c9eef0c	0.019401096
213	0xbec338a8	-0.38129163
214	0xbd9ad814	-0.07560745
215	0xbe533707	-0.2062646
216	0xbd07a311	-0.033114497
217	0x3ea8bb5f	0.32955453
218	0x3c8d8a01	0.01727772
219	0x3e20e9bb	0.15714161
220	0x3f0dd649	0.554051
221	0xbdb866b8	-0.09003967
222	0xbf0677c9	-0.5252653
223	0xbd16bab1	-0.036799137
224	0x3e3b3786	0.182829
225	0xbe7771b7	-0.24164473
226	0x3e1c248f	0.15248321
227	0xbefa018b	-0.48829302
228	0x3dc49393	0.0959846
229	0xbf0cc35c	-0.54985595
230	0x3bae7951	0.0053245206
231	0xbdeb65f3	-0.11494055
232	0x3e8cab7f	0.2747459
233	0xbeb691b6	-0.35658044
234	0xbc470c29	-0.012148895
235	0xbe83f11a	-0.25769883
236	0x3d4b7301	0.049670223
237	0xbebf9f1a	-0.37426072
238	0x3d3cb668	0.046072394
239	0x3e2e84e5	0.17042883
240	0x3e1f25e2	0.15541795
241	0x3eb4b1e1	0.3529196
242	0xbef4a70c	-0.47783697
243	0x3ebc11c1	0.36732295
244	0xbca2528f	-0.019814758
245	0xbd477159	-0.04869208
246	0x3ea412fb	0.3204573
247	0x3f0ec360	0.5576687
248	0xbd1ba664	-0.03800048
249	0x3ed4c46d	0.4155611
250	0xbb5f77cc	-0.0034098504
251	0x3dff6b31	0.12471617
252	0xbedaa8cb	-0.42706904
253	0x3f35b3e3	0.7097761
254	0x3e83a2b7	0.2571008
255	0xbef4c733	-0.47808227

network_body._body_endoder.seq_layers.2.bias f4 [16]
0	0x3eb78320	0.35842228
1	0x3d23a141	0.039948706
2	0x3aa8f87a	0.0012891435
3	0xbad14abf	-0.0015967711
4	0xbd83342b	-0.064064346
5	0x3d05dd4d	0.032681752
6	0x3ce3179a	0.027721215
7	0xbe49850c	-0.1967966
8	0xbe41244c	-0.18861502
9	0xbda193c5	-0.07889513
10	0x3d639084	0.055557743
11	0xbde4d37a	-0.111731485
12	0xbd4e1cf5	-0.050320584
13	0xbd0e2617	-0.034704294
14	0x3e26b247	0.16278945
15	0x3e3e5078	0.18585384

action_model._discrete_distribution.branches.0.weight f4 [10, 16]
0	0xbb9eb30b	-0.004843121
1	0x3cb486e4	0.022036977
2	0x3cf00a12	0.029301677
3	0x3cc6e387	0.024278415
4	0x3b0f1f13	0.002183859
5	0x3d1a8a35	0.03772946
6	0x3c94f6f8	0.01818417
7	0xbc939c88	-0.018018976
8	0x3d0b31f4	0.033983186
9	0xbd21a7de	-0.03946673
10	0xbbe48b98	-0.0069746487
11	0xbd61aa2a	-0.05509392
12	0xbca3ee58	-0.020011112
13	0x3c8ec971	0.01743004
14	0xbcf65a10	-0.030072242
15	0xbcb1f9e1	-0.021725597
16	0x3e8c2734	0.2737366
17	0x3d299c19	0.041408632
18	0x3e7e025c	0.24805588
19	0x3d042930	0.032265842
20	0x3d196dd6	0.037458263
21	0xbe7bbcaa	-0.24583688
22	0x3d9cc932	0.076555625
23	0xbd5d1f02	-0.05398465
24	0xbe0e0d89	-0.13872351
25	0xbd97bc6b	-0.07408985
26	0xbd4d8fe7	-0.050186064
27	0xbc6641f3	-0.014053809
28	0xbdf85fe0	-0.12127662
29	0xbd74c1b1	-0.05975503
30	0xbd9a6f4a	-0.07540758
31	0x3ebd930d	0.37026253
32	0x3d320d6e	0.04346984
33	0xbc519681	-0.012792231
34	0xbd2c297e	-0.042031758
35	0x3d70e655	0.05881341
36	0x3bc73bfd	0.006080149
37	0xbe03d998	-0.12875974
38	0x3d2e21a3	0.042512547
39	0xbe28c2f0	-0.16480613
40	0xbda39123	-0.07986667
41	0xbd2231cd	-0.039598275
42	0xbd639b7d	-0.055568207
43	0xbdbc9183	-0.09207442
44	0xbe03b6e3	-0.12862734
45	0x3d8c71f7	0.068576746
46	0x3ca164b8	0.019701347
47	0x3e1882cb	0.14893644
48	0xbe3da539	-0.18520059
49	0xbbecf485	-0.0072312974
50	0xbe17bf3e	-0.14819047
51	0x3eec48d8	0.46149325
52	0x3db51732	0.08842315
53	0xbe8c2c2e	-0.27377456
54	0x3c336a18	0.010950588
55	0x3e647ef2	0.22314051
56	0xbd31be24	-0.043394223
57	0x3e109f42	0.14123252
58	0x3e1b329a	0.15156022
59	0x3c0c461a	0.008561635
60	0xbcd1d699	-0.025615023
61	0x3e8c4bcb	0.27401575
62	0x3d947ad4	0.0724999
63	0xbe76ceca	-0.24102321
64	0xbdc78d4e	-0.097437486
65	0xbec14aa8	-0.3775227
66	0x3dd7ff7f	0.10546779
67	0x3e0b4642	0.1360102
68	0x3e4d1469	0.20027317
69	0xbe3ffb2d	-0.1874816
70	0x3d783338	0.06059572
71	0xbcc50a0a	-0.024052639
72	0xbcba8c4f	-0.022771982
73	0x3d2f982b	0.042869728
74	0xbc4d935f	-0.012547343
75	0xbe4d05bb	-0.20021717
76	0xbe3d99b2	-0.18515661
77	0x3dda9bf1	0.10674275
78	0x3d844263	0.06457975
79	0x3de47981	0.111559875
80	0x3dd9bdfe	0.10631941
81	0x3bacd9cc	0.005274987
82	0xbd92c212	-0.07165922
83	0xbd93f856	-0.07225101
84	0x3e7419f6	0.23838028
85	0x3c3db22a	0.011578122
86	0xbe106f05	-0.1410485
87	0xbe78d68a	-0.2430059
88	0xbe848f6f	-0.2589068
89	0x3e2262d0	0.15858006
90	0x3e468590	0.19386888
91	0xbe1eacfe	-0.15495679
92	0xbd2ae0e8	-0.041718394
93	0x3da3bfcb	0.07995566
94	0x3e7f9d88	0.24962437
95	0x3d949858	0.0725562
96	0xbed2dd95	-0.4118468
97	0xbe165a7a	-0.14682952
98	0xbe5c8325	-0.21534403
99	0xbe581c27	-0.2110449
100	0x3e9dc676	0.30815476
101	0x3eacc710	0.33745623
102	0xbe69d0e6	-0.22833595
103	0x3e862c18	0.26205516
104	0x3e60409d	0.21899648
105	0xbc1b67dc	-0.009485211
106	0xbe3276bd	-0.17428108
107	0x3cfd940f	0.030954389
108	0x3dd59776	0.104292795
109	0x3dd948f0	0.10609615
110	0x3d381e61	0.044950847
111	0xbe95b82e	-0.2924208
112	0x3e236b3c	0.15958875
113	0x3d3c2947	0.045937803
114	0xbe660402	-0.22462466
115	0xbdf16c7b	-0.11788269
116	0xbe5e950c	-0.21736544
117	0xbc8d1874	-0.017223574
118	0xbdd9de80	-0.10638142
119	0xbd28ff3c	-0.041259035
120	0xbe04a08b	-0.12951867
121	0x3d96b3cb	0.073585115
122	0x3e096074	0.134157
123	0xbd9cc7c8	-0.07655293
124	0xbc7662e5	-0.015038227
125	0x3c9c3ae9	0.01907106
126	0x3e5b7304	0.21430594
127	0xbd1c7e33	-0.03820629
128	0xbe616ac8	-0.2201339
129	0x3ea3eef3	0.3201824
130	0x3e6ac875	0.22928031
131	0x3caed22d	0.021340454
132	0xbe50d60b	-0.20394151
133	0xbdaf8c1a	-0.08571644
134	0x3d6ab2e6	0.057299517
135	0x3ec04c2a	0.3755811
136	0x3d9951a2	0.07486273
137	0xbdb6d0c5	-0.089265384
138	0xbd2e0d99	-0.042493436
139	0x3ed990ce	0.4249329
140	0x3eecc2af	0.46242282
141	0xbe319225	-0.17340906
142	0xbe865c09	-0.26242092
143	0xbd4530c2	-0.048142202
144	0x3e1aa7c4	0.1510306
145	0x3e1572ce	0.14594576
146	0xbd5a4338	-0.05328676
147	0xbe1c4057	-0.15258919
148	0xbe05a125	-0.13049753
149	0x3ebf6950	0.37385035
150	0x3e2273d3	0.15864496
151	0xbe1ce91a	-0.15323296
152	0x3e8a798a	0.27045852
153	0xbe173ffa	-0.14770499
154	0xbe26367e	-0.16231725
155	0x3cbddb0e	0.023175742
156	0xbd342f05	-0.043990154
157	0xbe14cb8f	-0.14530776
158	0x3d5e7f85	0.05432083
159	0xbcbd9ee1	-0.023147048

action_model._discrete_distribution.branches.0.bias f4 [10]
0	0x00000000	0.0
1	0x3bb8c46e	0.0056386506
2	0x3ca57da3	0.02020151
3	0x3ca33b41	0.019925715
4	0x3d125084	0.035721317
5	0x3e82ad50	0.25522852
6	0xbe86d64e	-0.26335377
7	0x3dc92b40	0.098227024
8	0xbe463756	-0.19357046
9	0x3d5abcdc	0.053402767
