Assets/onnx/TTT_27/X_Behavior.onnx (onnx, 5958 bytes, 8 tensors)

network_body._body_endoder.seq_layers.0.weight f4 [16, 9]
00000000: 3fbb d0be 716a 9b3e 188d 25bd bc7c 01be
00000010: cbd7 2ebc 75d0 0a3f 1bc8 353f f222 1e3d
00000020: af7e 06bf ec2a d13b 16d6 b7be 8c99 08be
00000030: 3d85 833e 5fc8 0fbc 2516 6a3b a1a1 7b3d
00000040: c6b0 11be 5ebe d0be 2ae9 313d 1097 f4bc
00000050: fae5 dabd 251a 1f3f 4530 86be 0ae9 d13e
00000060: 1065 293d d70a 373e 7d81 ae3d 6f0c b3bc
00000070: 7556 63be b6c3 27bd 3f59 c43e 1369 6f3d
00000080: 36f7 983e cb3e a1ba d8c8 73be 3439 d93e
00000090: 1fb3 9f3d 74e4 7fbf 5a8a f13e db11 1c3f
000000a0: d1c9 ad3e 03ad 56be 3026 47bf e127 53bf
000000b0: 5dad 36be 6c52 e53d 12d0 373e b916 a23e
000000c0: 28cf 943e cab8 93be b445 5ebf 4a58 95be
000000d0: 3ecc a03d 2413 443e e06d d33d 45ca 8ebe
000000e0: a33d 1dbe 5e42 55be f38a a4be 9559 ae3d
000000f0: 8dfd fabe 95e2 1dbe 1005 97bd 724e 93be
00000100: 3d5f 39be 57b8 b13e 3c98 aa3e cd6c bbbd
00000110: 879f abbe 7a25 08bf 4b7f 623e 46ed 2c3d
00000120: 0b34 aabd 82c2 353f d070 4b3f e6c2 8e3d
00000130: af08 863d ac9a 183e 0d62 42be f65f 92be
00000140: 62f7 a3be 4314 ee3e 63e7 273f ae97 173f
00000150: ae3f 5f3d eee7 eabe 904a 2ebe 109f d03e
00000160: d952 edbe 1bdc 723e 8ea5 2dbf e35e 313e
00000170: ca1a 233f 02a6 6e3e b519 abbd c9f2 c1bb
00000180: 8773 a13e d19b 32be 53d9 70be d6b8 e9bd
00000190: 925d 293f d9c6 84be 8528 4a3f 91a8 a63e
000001a0: 2c13 bbbe 0f13 cdbe 2c06 bb3d 4962 73be
000001b0: aa0d 833e a17b 95bc 33d8 8a3e 6555 9a3e
000001c0: 0ef1 063f 1f4b fd3c b610 1fbf 49df 84be
000001d0: 2b4d 45bf 166a 0f3d 465a 19bd c244 27bf
000001e0: 0e43 813e 22df 1cbf 4514 9b3e a13d 753e
000001f0: 2cff 69be 1ea9 debe 8c5d 06be 1af9 9bbe
00000200: 93bf e73b 427e 093f d39a 853c b80c a2bd
00000210: 48ab 3c3f ed49 093f 7b17 97be a15f 953e
00000220: 8445 4c3f ed48 79be 7df3 fbbe 9402 1fbf
00000230: 2110 933d 7e9d 6fbf d8a4 ef3e 66b6 9d3e
-0.40767857 0.30354646 -0.04041776 -0.12645239 -0.010671566 0.5422433 0.7100846 0.038607545
-0.52537054 0.0063832905 -0.35905522 -0.13339823 0.2568759 -0.0087758 0.0035718766 0.06143344
-0.1422759 -0.4077024 0.043435253 -0.029857188 -0.10688396 0.6214927 -0.26208702 0.40998107
0.041356146 0.17875229 0.08520792 -0.021856515 -0.2220095 -0.04095813 0.3834934 0.058449816
0.29876107 -0.0012302039 -0.23807085 0.42426455 0.077978365 -0.99957967 0.47175866 0.60964745
0.33943036 -0.20964436 -0.77792645 -0.82482725 -0.1783957 0.11197361 0.17950466 0.3165796
0.29064298 -0.2885192 -0.8682511 -0.29168922 0.07851456 0.19147927 0.10323691 -0.27888694
-0.15355544 -0.20826098 -0.3213726 0.0851318 -0.4902157 -0.15418465 -0.073740125 -0.28770787
-0.18102737 0.34710953 0.3331927 -0.091516115 -0.33520147 -0.53182185 0.22118871 0.04221847
-0.08310708 0.7099992 0.79469013 0.06970768 0.06544625 0.14902753 -0.18982716 -0.28588837
-0.32024676 0.46499833 0.65587443 0.5921582 0.05450409 -0.45880073 -0.17020631 0.40746355
-0.4635227 0.23716776 -0.6783074 0.17321353 0.6371275 0.23305514 -0.083545126 -0.005918835
0.31533453 -0.17442252 -0.23520403 -0.11412208 0.661584 -0.2593296 0.7896808 0.3255048
-0.36538064 -0.40053603 0.091320366 -0.23767962 0.25596362 -0.018247427 0.27118072 0.30143276
0.5271157 0.03091961 -0.62134874 -0.25951603 -0.77070874 0.03501328 -0.037439607 -0.6533929
0.2524647 -0.61277974 0.30288902 0.23949291 -0.22851247 -0.434884 -0.13121623 -0.30463487
0.007072398 0.5370828 0.016309178 -0.07912582 0.73698854 0.53628427 -0.29510102 0.29174522
0.7979357 -0.24344225 -0.49209204 -0.6211331 0.07180811 -0.9359969 0.46805453 0.3080322

network_body._body_endoder.seq_layers.0.bias f4 [16]
00000000: 7f45 0cbc 16a3 a53d 23ca 94bd 3574 963c
00000010: 9f28 fe3c 6bb2 b5bd 6077 1e3d 2872 58bd
00000020: a148 c03c dd20 823c 80eb 90bc e8da 06bd
00000030: 6f44 6abd 3f71 173c ade8 26bd 280c 373d
-0.008561491 0.08087747 -0.07265117 0.018365959 0.031025229 -0.08871921 0.038688064 -0.052843243
0.023472132 0.015884811 -0.01769042 -0.03292361 -0.05719417 0.009243309 -0.04074924 0.044689327

network_body._body_endoder.seq_layers.2.weight f4 [16, 16]
00000000: e874 813d b9d0 123e 2078 d4be 77eb 38be
00000010: 30a4 3ebe aea0 0b3e a38a 26be 5725 ac3c
00000020: 4446 8bbe 48e7 1cbe 92c8 28be 5e71 cd3e
00000030: 8e8a bdbd 788a 963e c495 d4bd 3cbc f2bd
00000040: 7dd2 9cbe 46cd 273e db6b 95be 4759 3c3e
00000050: cb42 16be d947 9dbe 6d55 4bbe 42b5 583e
00000060: 1b8f b8bd c584 25bd db9d 7b3e 66b0 09be
00000070: e7ba e83e d9c3 813e 43ff 46be 3079 fc3e
00000080: d8ec 2cbf 2358 0e3e 2b73 0a3e b47f 1dbe
00000090: 7f6e c2be 4981 703e 48b6 b73e edf8 b0bd
000000a0: b5c8 8d3d c554 c9be 74ed 75bd 4c0b 4c3e
000000b0: 3127 58be bb77 b6be 2cfc 27bd 1cf2 86be
000000c0: 7513 fa3d f508 8ebe b966 043f e39f 38be
000000d0: ee67 303e d236 3e3d 4d04 ffbe ea37 87be
000000e0: ae1d e6be e789 4d3c a566 a0bb be21 4bbd
000000f0: 9466 133e 6576 9e3e adf7 0cbe 5623 6ebe
00000100: b16b 18be 78a0 7dbe dac8 c23e 6441 d3bd
00000110: ecd1 5dbe 69f9 94bd 8c23 81bd 9344 a33e
00000120: b02f 1a3e 4da5 65bb c0d1 86bd 9cd9 b4bd
00000130: 80ec 13bd 611e cebc 3b71 34be 3df4 2bbe
00000140: 0e42 5ebe 42b9 f1be 5ab8 92bd 89e8 d1bd
00000150: b76e 8dbc 4407 9d3e d97c 3abe d4cd 40be
00000160: 87ed 40be ff52 8ebe 1983 65bd 86fb 103f
00000170: de0d 2cbe 76c5 143c b2da e23e fff0 a7be
00000180: 7a42 cabd 7eab 0a3e 6986 acbe e4fc e03d
00000190: 3116 17be 77cb fc3e 662c a2be 9d95 bd3c
000001a0: 56f0 15bd 4229 b03e 671c 003f 43bf b4bd
000001b0: eccc 9a3e 0ba3 86bd b078 11bc 3870 463e
000001c0: 1b13 33be e8a7 87be 348d 96be f513 4fbe
000001d0: e8fa a1bd 6fc0 9abe 32bf 5d3e b5a6 39be
000001e0: 384b b1be b831 843d 9d78 3ebe 93c3 31bc
000001f0: 4ceb 583d ab7b 633e decf e83e bd4a b3bd
00000200: e675 29bd fdfd 98be c6ce 22bf 7e24 15bf
00000210: 9c40 b0be 6a48 dc3e b239 753e d535 ec3e
00000220: 727a d2bd e073 a63e 7d22 953e e3fd b2bd
00000230: a253 03bf b981 cabe dcfc 69be 045b bcbd
00000240: bedc e4be 3ad0 c5bd 1761 5abe af29 00bf
00000250: ba3d 9c3d 422d ac3e 1424 293f 0b7b b4be
00000260: 235c 12bd 7837 44be e72b aa3c fc2c a23e
00000270: 9e25 7ebe 2d0a 383e 6208 713e 5076 023f
00000280: 4612 9c3e 19fd e1be fb74 30be 0cf2 343e
00000290: e44a 573e ec34 9cbd 3727 8b3e 7ab3 03be
000002a0: 1c37 d83e 1a57 5f3e e826 b73d 779b e83c
000002b0: 0ba7 e9bd e1ce 7e3d 1dbc 563c feb3 1b3e
000002c0: 7e93 bd3e 3dcd 54bd 06c8 5cbe 758e 19be
000002d0: 766b 85be e4ad 51be 8423 a1be d9a8 92be
000002e0: 16d3 7b3e bb7f 333d c5ec d63e 6763 313e
000002f0: 20d6 61be 3ca1 a33e 27da a2be a3a7 233e
00000300: 5ceb 333e e133 8e3d c961 643d 3f8e f7bc
00000310: 4ab1 cdbd 317d 9a3d 0ea5 0d3e 8fcc 8ebd
00000320: 4ed9 19be bf24 593f 6faf 4f3e ddad 74be
00000330: a601 06be e8b6 013f 57ce 0bbf 3a12 0e3e
00000340: 4646 743e 2224 26be 0bc8 a43e 8487 e4bd
00000350: 2920 983e 867b 85be 3fbb 503d 98f2 633e
00000360: 8033 d4be 968e 4cbe db99 fdbe 7d96 5dbe
00000370: dee7 003d c0c4 663e 7c5b 21be 4047 713e
00000380: cc90 b63e 476b 0b3f d95f d5bb f4d1 5dbd
00000390: bb49 0abf 0dfe 983e ffb7 f2bb b63f 9f3d
000003a0: eb73 abbe c725 1fbe f1af 82bd d498 c0be
000003b0: 5e24 253e ac58 f83e 2999 013e 6ebe 01be
000003c0: 2f35 583e aaea 70be 2be0 0d3c 9c42 0cbe
000003d0: 5cbb 373e 842c e13e 7f87 b3bd 905c 1cbe
000003e0: 7396 043e 6658 60bd 76c1 af3c 4c51 27be
000003f0: 0eb3 a2be 2460 14bf 1400 64be cf98 473e
0.06321126 0.14337434 -0.41497898 -0.18058573 -0.1861732 0.13635513 -0.16263823 0.021013899
-0.27202046 -0.15322602 -0.16482762 0.40125555 -0.09254943 0.29402518 -0.10380128 -0.11852309
-0.3062934 0.163869 -0.2918385 0.18393432 -0.14673917 -0.30718878 -0.19856806 0.21162894
-0.0901167 -0.040409822 0.24571936 -0.13446197 0.45455095 0.25344732 -0.19433312 0.4931121
-0.67548895 0.13900809 0.13520496 -0.15380746 -0.37974927 0.23486818 0.35881257 -0.08641229
0.069230475 -0.39322487 -0.060040906 0.19926184 -0.211087 -0.35638222 -0.041011974 -0.2635659
0.122107424 -0.2774121 0.5171924 -0.18029742 0.17227146 0.046439 -0.4980797 -0.26409847
-0.4494452 0.0125450855 -0.0048950487 -0.049592726 0.14394599 0.30949703 -0.13766356 -0.23255667
-0.14884831 -0.24768245 0.38043863 -0.10315207 -0.2166211 -0.07274134 -0.06305608 0.31888255
0.15057254 -0.0035041154 -0.065829754 -0.08830568 -0.036114216 -0.02516097 -0.17621319 -0.16792388
-0.21704885 -0.47211653 -0.071640685 -0.10249431 -0.017264707 0.30669606 -0.18211688 -0.18828517
-0.1884061 -0.27797696 -0.056033228 0.56633794 -0.16802165 0.0090802815 0.44307476 -0.32801053
-0.09875961 0.13541982 -0.33696297 0.10985735 -0.14754559 0.4937398 -0.31674498 0.02314263
-0.036606155 0.34406477 0.5004334 -0.08825543 0.30234468 -0.06574067 -0.008878872 0.19378746
-0.17487757 -0.2649529 -0.29404604 -0.20222457 -0.07909185 -0.3022494 0.21654966 -0.1813
-0.346277 0.064547956 -0.18600698 -0.010849851 0.05295877 0.22215144 0.4547109 -0.087544896
-0.041372202 -0.29881278 -0.6359676 -0.5825881 -0.34424293 0.43023998 0.2394779 0.4613482
-0.10277261 0.3251028 0.29127875 -0.08739831 -0.5129949 -0.39552096 -0.22850364 -0.09197047
-0.44699663 -0.09658857 -0.213261 -0.50063604 0.07628961 0.3362828 0.66070676 -0.35250124
-0.0357324 -0.19161785 0.020772887 0.31674945 -0.24819037 0.17972632 0.23538354 0.5096178
0.30482692 -0.4413841 -0.17232125 0.17670459 0.21024662 -0.076272815 0.27178356 -0.12861434
0.42229545 0.2181057 0.08942968 0.028394444 -0.11408814 0.062209014 0.013106373 0.1520538
0.3702659 -0.051953543 -0.21560678 -0.1499575 -0.2605855 -0.2047649 -0.3147241 -0.28644446
0.24592242 0.043822985 0.41977516 0.17323075 -0.22054338 0.3195895 -0.31807062 0.15981917
0.17570251 0.06943489 0.055757318 -0.030219195 -0.10043581 0.075434096 0.13832495 -0.0697261
-0.15024301 0.84821695 0.20281766 -0.23894449 -0.13086566 0.5066972 -0.54611725 0.1387414
0.23854932 -0.16224721 0.3218387 -0.1115866 0.29712036 -0.26070803 0.05095982 0.22260511
-0.4144554 -0.19976267 -0.49531445 -0.21639438 0.031471126 0.22535992 -0.15757555 0.23562336
0.35657346 0.5446057 -0.00651167 -0.054155305 -0.54018754 0.29881325 -0.007407188 0.07775824
-0.33486876 -0.15541755 -0.063812144 -0.376166 0.16127154 0.4850515 0.12656082 -0.126703
0.21114038 -0.23527017 0.008659403 -0.13697284 0.17942566 0.43979275 -0.08766078 -0.15269685
0.12948017 -0.054771803 0.021454554 -0.16339606 -0.31777233 -0.579592 -0.22265655 0.19491886

network_body._body_endoder.seq_layers.2.bias f4 [16]
00000000: 7648 c0bd b15c d43c 959c babd 948e 64be
00000010: 3edf cbbd 7521 4bbd d9bc 163d 31a3 f83c
00000020: 4b18 0dbe 194d c03c 4411 b0ba 9224 0cbb
00000030: fb17 c63d f6cc 04bd e8fd 0cbe 65ea 8abd
-0.09388821 0.025923105 -0.09111897 -0.22320014 -0.099546894 -0.049592454 0.036801193 0.030351253
-0.13778798 0.023474263 -0.001343288 -0.0021384102 0.09672543 -0.03242203 -0.13768733 -0.067829885

network_body._body_endoder.seq_layers.4.weight f4 [16, 16]
00000000: 679c 7f3e e106 b2bd e9dd 25bf b20f a8b9
00000010: 7994 46be 5535 093e fecb d3be de62 4c3d
00000020: de16 0abc 2340 0abe 15d0 3cbc 09c8 c53e
00000030: 2986 603e 5bc2 1ebd 14f2 c03e f5fc cdbd
00000040: 5718 ea3e f3e1 d5be cace 1e3e c78b 9f3d
00000050: 71e0 de3e fe0d 3e3e f4ed ba3c 4aa9 853e
00000060: ea76 09bd 0b40 043e 79d6 b93d d796 24be
00000070: 0719 12be b946 3b3c 198c 263d 0c65 ef3b
00000080: 2ccc f53e 9e5b c8bd 2a4b 133e 19c2 bfbc
00000090: 58bf cebd b1af 0f3e f72b aabd 7e8f d83d
000000a0: dbb9 9c3e 2bff 113e fd69 bf3d 5b57 9f3c
000000b0: 8c89 6ebe cbfe ffbc 8ff7 f13d 223c 9dbe
000000c0: 66b8 bbbe 423e 23bd 481b 293e 62f4 1f3e
000000d0: 3b7d 3d3d abaa 31be 986e 983e 6394 75be
000000e0: 423d 61bd 8c5b 3d3e 997c 013e 7e72 57be
000000f0: 8cce d0ba e69b 433e 5c98 97bd 42d9 9cbe
00000100: 12c1 243f 04fd f63d c437 51be 5ffe 63bd
00000110: e9cf 123e 8a56 2b3d 2af4 af3e c74e 23be
00000120: 72c5 173f a608 043e 6742 cbbe 8913 66be
00000130: e2bc 993b a89e 803e f6c2 2d3e 1c4b 143a
00000140: 12be 05be 55ae a0be c3e6 98bd 5a68 a3bd
00000150: ad52 903e b0cc d0bd ba01 9b3e 1a87 21bd
00000160: 7f17 cdbe 15b4 92be 8370 92bd 4594 f63d
00000170: a77c 1b3d 4754 4e3e 4085 f0be cf3b 453e
00000180: 67d2 0dbe 927c e8bd 16d7 59be f9b0 ccbc
00000190: 71c6 783c 12ff 36bd 28ce 393e b85a 7cbe
000001a0: 67dc d83d 0780 3a3e 7a1e 8fbe ad5a 5dbe
000001b0: 25ba a2be dc25 973e 53a1 fc3d 1559 31be
000001c0: 1c01 cb3e a1d4 e7be 396a 843e dcf2 af3e
000001d0: 21e1 32be f6b3 a83e 6200 9fbd 582a a1be
000001e0: 58ec 66be 309e 123c c707 4bbd ddfa 16be
000001f0: a582 84bf 4380 10bf 02bb d93e 338e 39be
00000200: 77e5 96bd abc7 a53c b39a debc afae 37be
00000210: 1827 71be f7de fb3d 3846 70bd 5ab1 3d3e
00000220: c074 1cbf 0085 a93d b0cc f5be 0d0b 8abe
00000230: 74fb 1bbf 35b2 cabd a305 963c 3537 15be
00000240: bacc b0be 2eb3 fe3e a981 9f3d 1608 a1bb
00000250: de1c aabd 4b03 113c 3b3d c23d 946d 993c
00000260: a76b f5bd 306d ed3e ca16 7dbe 7cb5 8a3e
00000270: 1abd 17be 9a5e 553e 491d 87bd 5fb2 f93d
00000280: 652a 83bc ee24 b43e 1cbc fc3d b6f3 ca3d
00000290: 6fcb 173e 869c 34be e6eb e73c c3e7 963d
000002a0: fde5 84be 2da5 da3d c5a8 9fbe e7c7 dfbe
000002b0: 0c81 4ebe d695 0abe bb5d 22bd a7d8 d4bd
000002c0: 01ab 7fbe 75ee e1bd 7ca5 803e 2c33 49bd
000002d0: eaa0 b83e e208 283f a1b7 dbbd 6694 7c3d
000002e0: 1e5d 1a3d e504 c4be 70a9 95be 500f 013c
000002f0: af37 dcbd 8f49 183f b256 e03e 06fd b73b
00000300: edd1 903e 7559 28be 051b 4cbe b23d e13d
00000310: 7b71 1c3e 11de 7cbe b709 513e e3d1 853e
00000320: 3c54 013f fd6c 443c f138 06be 014e ddbe
00000330: f3e1 29be 63ec 923d 4606 ab3e 8087 023f
00000340: 2bdb bf3d 9316 133e 1753 00bd 01e6 8abd
00000350: 74cb e03e 9759 cb3d efdf 543e 241a dd3a
00000360: a941 a03e 3311 003e c6b5 b93b 0af0 2bbe
00000370: de2a 29bd 2445 133e fa36 743c 2650 99bd
00000380: c4d5 163f 34ca c7bd 545f 80be f3cd 8b3d
00000390: 96c0 14be c537 d63d 37a1 5fbb 50f8 1b3e
000003a0: fe95 55be aba3 943d 090d 39be 34aa 9cbe
000003b0: abc0 51be 5334 833e 6d9f 0c3e f4dd d0bd
000003c0: 01eb f03e f380 98be 5cfc 923d d54a 8f3e
000003d0: cd9d c1bc d0b0 53be ce6d a33d f6a1 a43d
000003e0: b44f 3d3e 4fd8 49bc fa0c 97be 3bb2 8d3e
000003f0: 32c1 6c3e 9b74 20be c627 583e bdeb 72bd
0.24962007 -0.08692718 -0.64791733 -0.0003205515 -0.19392575 0.13399251 -0.4136657 0.049898975
-0.0084283035 -0.13501029 -0.01152422 0.38629177 0.21926178 -0.03875957 0.3768469 -0.10058013
0.45721695 -0.41773948 0.15508571 0.07790332 0.4353061 0.18560025 0.022818543 0.2610572
-0.03356067 0.12915055 0.090741105 -0.16073166 -0.1426736 0.011430436 0.04066095 0.007305747
0.48007333 -0.097830996 0.14384142 -0.023407983 -0.1009509 0.14031865 -0.08309167 0.10574244
0.30610546 0.14257495 0.093463875 0.019450834 -0.23294657 -0.031249424 0.11814796 -0.3070994
-0.36664122 -0.039854296 0.16514313 0.15620568 0.046262007 -0.17350261 0.29771876 -0.23982386
-0.05499006 0.18491954 0.12645186 -0.21039769 -0.0015930696 0.1910244 -0.07402107 -0.30634505
0.643571 0.12059978 -0.20431429 -0.05566251 0.14337124 0.041830577 0.3436597 -0.1594802
0.5928565 0.12893924 -0.39699098 -0.2246839 0.004691706 0.25121045 0.16968903 0.0005656944
-0.13060787 -0.31383005 -0.07465889 -0.07978888 0.28188077 -0.10195291 0.30274755 -0.039435484
-0.4005699 -0.28653017 -0.07150366 0.12039999 0.037960675 0.20149337 -0.46976662 0.19261096
-0.13849793 -0.11351885 -0.21273455 -0.02498673 0.015184031 -0.044676848 0.18145049 -0.24643981
0.105889134 0.18212901 -0.2795294 -0.21616621 -0.31782642 0.29521072 0.12335458 -0.17319138
0.39649284 -0.4527941 0.2586229 0.34364974 -0.17468692 0.329498 -0.07763745 -0.31477618
-0.22551095 0.008948848 -0.049567964 -0.14744134 -1.035237 -0.5644571 0.42525488 -0.18120651
-0.07367986 0.02023681 -0.027173376 -0.1793773 -0.2355007 0.122983865 -0.058660716 0.18524686
-0.61115646 0.08277321 -0.48007727 -0.26961556 -0.6093056 -0.098972715 0.018313235 -0.14571841
-0.34531194 0.49746078 0.077884026 -0.004914294 -0.08306287 0.008850883 0.09484335 0.018729009
-0.11983424 0.46372366 -0.24715725 0.27091587 -0.1481823 0.20836869 -0.065973826 0.12192225
-0.016011426 0.35184425 0.123405665 0.099097654 0.14823698 -0.17637834 0.028310727 0.07368424
-0.25956717 0.10676036 -0.31183448 -0.437072 -0.20166415 -0.1353372 -0.03964017 -0.10392886
-0.24967577 -0.1103181 0.25126255 -0.049121067 0.36060268 0.65638554 -0.10728384 0.06166496
0.03768646 -0.38284984 -0.29230833 0.007877186 -0.10752808 0.5948724 0.43816143 0.0056148795
0.2828516 -0.16440375 -0.19932182 0.109980956 0.15277664 -0.24694087 0.20413862 0.26136693
0.50519156 0.011988875 -0.13107659 -0.43223575 -0.16590099 0.071739934 0.33403224 0.50988007
0.09367975 0.1436408 -0.03132924 -0.06782151 0.43905222 0.09929197 0.20788549 0.0016868752
0.31300095 0.12506561 0.005667421 -0.16790786 -0.041300647 0.14381844 0.014905686 -0.0748599
0.5891993 -0.09755364 -0.2507273 0.06826391 -0.1452659 0.10459856 -0.003412319 0.15231442
-0.20857999 0.0725778 -0.18071379 -0.30598605 -0.20483653 0.25625858 0.13732691 -0.10198584
0.47054294 -0.2978588 0.0717704 0.2798678 -0.023634816 -0.20672917 0.07979928 0.08038704
0.18487436 -0.012319638 -0.29502088 0.27675042 0.23120573 -0.15669481 0.21108922 -0.05930685

network_body._body_endoder.seq_layers.4.bias f4 [16]
00000000: 89aa 9fbd c639 9bbd 7fb0 cfbc e399 e63d
00000010: 6e9b 35bd 8927 db3d 3deb 6a3d b1c2 43be
00000020: 7180 b53c f639 bd3d f6ab a53a 11c4 1fbe
00000030: 05c8 d73d 1fa0 b8bd 73ca 50bd 6f71 28be
-0.07796199 -0.07579379 -0.025352715 0.1125982 -0.044337682 0.107009 0.057353247 -0.19117238
0.022155972 0.09239571 0.0012639749 -0.15602137 0.105361976 -0.09014916 -0.05097432 -0.16449521

action_model._discrete_distribution.branches.0.weight f4 [10, 16]
00000000: 36ea 0ebd d7b8 6ebb 1ff3 1dbd d56b 813c
00000010: fc30 003d a989 163d c230 723c 0bfd 123c
00000020: f964 0b3c 1f08 5d3b eb56 293c 3135 99bb
00000030: b2b2 7fbc 1a8d fabc e996 443c 8eca 1dbc
00000040: 8445 483c 6889 f2bd d9c1 9ebd c736 993c
00000050: 84aa d1bd 7d38 b33d d773 c6bc 4e00 3fbe
00000060: d356 11bd 75c0 b33c 1952 08bd 390e bfbd
00000070: 962e 34bd 1d74 1fbe 9906 d2bd 3bcf 9ebc
00000080: 7e50 063e 3112 b23d 1020 fabc 4213 a4bd
00000090: d307 cebd 31c5 013d 8c75 f7bd 74b7 173e
000000a0: 04a5 7abc 2fcf 38be 7d30 1cbd ac43 383e
000000b0: a771 32be ec7f b9bc 7ec9 ed3c ec87 e13d
000000c0: a3e2 abbc 9d73 953d bc01 243d 1193 aa3c
000000d0: 0134 de39 a0a5 273c bf4c 0a3e d634 213e
000000e0: 6fb1 2f3e ea53 fa3d c72a a63d a1ef 0b3e
000000f0: 7b47 503c 670b c6bc b91b f93d de15 cfbd
00000100: ace9 bdbc 5533 42bb dc6d 10bd d743 afbc
00000110: 0723 e63d c560 a1bd 4cd3 13bc e2b7 7a3d
00000120: 463b 48be e687 09bc 65a5 8cbd abfd 493d
00000130: 2cf8 043d b984 6b3d 8e80 97bd 18a5 b03d
00000140: 9080 9dbd 2a81 08be 21df 36bd 8d77 dc3d
00000150: abd8 c2bc 3944 0c3e fcca b03c c5b5 19be
00000160: 8a8d ddbc 7867 ed3d 4bf0 9bb9 74bc 2cbe
00000170: db71 08bd bdd0 1cbd 09aa 4cbd 13d2 d2bd
00000180: 6027 0d3e 8488 5c3d 764e aa3d 8042 27be
00000190: 70ed 743c a168 9ebd 85d9 b83c aa60 983d
000001a0: 80c4 4cbd 6b1d 2fbd b076 3fbe 3972 a73d
000001b0: 912d e23c fc2e 7fbd ae07 c23d 9411 073e
000001c0: fbdc 98bd af8b 633c 450c 353b 3491 8a3d
000001d0: 904d 323d 0b83 4f3d 28c7 ee3d 378a 11be
000001e0: e6d4 3b3c 13cd fb3d 9fd2 7a3c 961b 99bd
000001f0: 455b 263e 352c f7bc c2c9 293d b386 c3bd
00000200: f875 423c f1bc 2f3e 54c7 be3d 83e7 d6bd
00000210: c258 1e3d e0b8 31be 9eb7 bbbc 17e5 db3d
00000220: 9550 a63d 628c 12bc b506 723d e68c f63d
00000230: 10e6 2cbe 7b72 b23d faf1 243e 2f56 b73d
00000240: 6e14 a5bd 626f 763d 176f bb3d 790a 07bb
00000250: 5989 9a3c 1ab3 9eb7 9e97 fe3c c9e0 b33d
00000260: 1e85 213e 1fe1 d03d 8e65 243e 7d2d 17bd
00000270: abca 98bd 1444 7f3c d329 463d 4647 8fbd
-0.03489133 -0.003642609 -0.038561936 0.015798489 0.031296715 0.036752377 0.014782133 0.008971463
0.0085079605 0.0033726764 0.010335664 -0.0046755304 -0.015606569 -0.03058486 0.01199887 -0.009630812
0.012223605 -0.118426144 -0.07751817 0.018702878 -0.102376014 0.08751009 -0.024225159 -0.1865246
-0.035483193 0.021942357 -0.03328142 -0.09328885 -0.04398974 -0.15571637 -0.10255165 -0.019385925
0.13116643 0.08694876 -0.030532867 -0.08011486 -0.10060086 0.031682197 -0.12082967 0.14816076
-0.015298132 -0.18047784 -0.03813218 0.17994565 -0.17426167 -0.022644006 0.029026743 0.11012253
-0.020982092 0.07297442 0.040040717 0.02082208 0.00042381886 0.010232359 0.13505839 0.15742812
0.1715753 0.122230366 0.08113628 0.1366563 0.012712355 -0.024175359 0.12163491 -0.10111593
-0.023182712 -0.0029632647 -0.03526102 -0.021394653 0.1123715 -0.078797854 -0.009022545 0.06121052
-0.19553861 -0.008394217 -0.06867484 0.049314182 0.032463238 0.05749962 -0.07397567 0.08625239
-0.07690537 -0.13330522 -0.044646386 0.1076499 -0.023784956 0.136979 0.021581165 -0.15010746
-0.02704503 0.11592001 -0.00029742936 -0.16868764 -0.033311706 -0.038285006 -0.049966846 -0.10293975
0.13784552 0.05384113 0.083157465 -0.16333961 0.014949188 -0.077348 0.022564659 0.07440312
-0.049992085 -0.042752665 -0.1869762 0.08176083 0.027609618 -0.062300667 0.09474121 0.131903
-0.07464024 0.013888284 0.0027625721 0.067659765 0.043531 0.05066208 0.1165908 -0.14212881
0.011464333 0.12294974 0.015309005 -0.07475965 0.16245754 -0.030172447 0.041452177 -0.09547176
0.011868946 0.17161919 0.093153626 -0.10493376 0.038658865 -0.1735568 -0.022914704 0.10737055
0.081208386 -0.008944603 0.059088428 0.12038593 -0.16884637 0.08713242 0.16107932 0.08951985
-0.08060537 0.060164817 0.09152048 -0.0020605607 0.01886432 -1.8918468e-05 0.031078156 0.08783109
0.15773436 0.101991884 0.16054365 -0.036908615 -0.07460531 0.015580196 0.04837973 -0.06996016

action_model._discrete_distribution.branches.0.bias f4 [10]
00000000: 0000 0000 c1a7 dd3d f02c 18be 43d0 0c3e
00000010: 9d7a ebbd a9bb e83d 89f1 1abe 6773 c83d
00000020: fba7 a2bd bd67 be3c
0.0 0.10823012 -0.14860892 0.1375132 -0.11497996 0.11363918 -0.15131201 0.09787636
-0.07942196 0.023242826
